checkpoint_actor.pth (torch_old, 531550 bytes, 10 tensors)

fc1.weight f4 [400, 24]
0.02119508 0.1382713 -0.009494698 0.059155677 0.115443446 -0.009634869 0.039725397 0.05479325
0.04021697 0.23743981 -0.014738932 0.06247763 0.06301874 -0.0040772697 -0.0051426752 0.025409536
0.11326048 0.23024574 0.038124602 -0.026415637 -0.11159881 -0.005468155 -0.022187889 0.011843485
0.0030655165 -0.051402602 0.015263374 -0.0018320022 0.043370858 -0.05209257 -0.0051210662 0.06375072
0.008221083 -0.021424253 -0.042337686 0.0320067 -0.012117382 0.14267051 0.021614965 -0.013777206
0.054178253 -0.033617225 -0.009197108 -0.053468045 -0.068273045 0.3409748 0.028157832 -0.08265219
-0.053093646 0.19286886 -0.013822765 -0.14451572 -0.120955646 -0.13615169 0.01022254 -0.15062258
0.017301923 0.12469783 0.016442252 -0.11687748 0.010149808 -0.10064083 -0.018820893 -0.065973654
-0.002754954 0.058649097 0.004969956 0.00634924 -0.044352308 -0.010459855 0.008350046 -0.009014534
-0.099155165 -0.01183906 -0.030450251 -0.0015241234 -0.021725822 -0.03605942 -0.031329684 0.0072161625
-0.047293182 -0.05543419 -0.023035312 0.023576122 -0.03940734 -0.09214686 0.051933546 -0.022065392
0.038289636 0.039395265 0.0046689007 0.22458217 -0.004293807 -0.078779474 -0.09033608 0.14895517
-0.0006070415 0.032512303 0.011733113 0.16765307 -0.02387951 0.05499394 0.04713578 0.23668617
-0.036128685 0.118570425 -0.02678538 -0.03397174 -0.06269252 0.068603076 0.02951922 0.008841862
-0.0046120803 0.068729535 0.012003303 0.05583371 -0.01498161 0.10219575 -0.06880844 -0.03442912
-0.0075398334 -0.026322104 0.0005415716 0.04046007 -0.061127443 -0.19063786 -0.02421912 -0.021923043
0.054077342 0.01482055 -0.045949228 0.06062302 0.016569013 -0.1661582 -0.022430658 0.036744535
0.12993379 0.055162635 0.043293357 0.032157805 0.0124297645 -0.17843689 -0.014246498 0.079066664
0.010975689 -0.09512021 -0.0091961045 -0.246596 0.015369265 -0.061615102 0.033576015 -0.2668531
0.021152845 -0.05341567 0.04087351 -0.012028331 0.022213673 -0.014742564 -0.033217248 0.047170993
-0.029522989 -0.026352236 0.017646464 0.011252371 -0.0014079959 0.033140738 0.042601775 0.030287806
-0.08915444 -0.14885056 -0.00088546873 0.03515163 0.15147315 -0.16301383 0.0075238757 0.08998682
-0.027238738 -0.0508384 0.020116083 -0.06150367 0.00043234194 -0.15668449 -0.04904354 -0.00022954219
-0.040586326 -0.06116798 -0.0031516622 0.03895109 -0.0085429605 -0.013280159 -0.013538266 0.09072195
0.114073634 -0.13108835 -0.0062147845 -0.12324684 0.022996735 0.08882331 -0.037155855 -0.18451603
0.08209236 -0.10704118 -0.018249668 0.054817572 0.10162326 -0.02331823 -0.009447369 -0.011890954
0.070480175 -0.05656186 -0.0148905255 -0.0507996 0.048900634 0.00841164 0.025552876 -0.055193488
-0.039325245 -0.005219859 0.029946895 -0.039354164 -0.061275244 -0.19727035 -0.03486563 0.023626413
0.06364489 0.002672728 0.0114643695 0.0061803088 -0.02235218 -0.20444834 -0.051647406 0.03924184
-0.034642182 -0.012350769 -0.034822147 -0.070022434 0.061454415 -0.1927925 -0.019097745 -0.03121492
0.024243448 -0.07348837 -0.085906364 0.090601385 -0.074037686 -0.14258662 -0.00810111 0.082202666
0.0379924 -0.11489689 0.04669786 0.13760787 -0.05393898 -0.029091777 0.053965386 0.091390625
00000000: 4ea1 ad3c fe96 0d3e a68f 1bbc 394d 723d
00000010: 9d6d ec3d 92db 1dbc 19b7 223d e36e 603d
00000020: 8dba 243d 6c23 733e 907b 71bc 8be8 7f3d
00000030: f80f 813d 9e9a 85bb e383 a8bb a927 d03c
00000040: 1cf5 e73d 8ac5 6b3e 8b28 1c3d 9b65 d8bc
00000050: eb8d e4bd 352e b3bb 60c3 b5bc 2d0b 423c
00000060: d5e6 483b 898b 52bd 3b13 7a3c cb1f f0ba
00000070: a4a5 313d 055f 55bd 9ece a7bb bd8f 823d
00000080: b9b1 063c ea81 afbc 486a 2dbd 7519 033d
00000090: fc87 46bc 3818 123e de11 b13c cab9 61bc
000000a0: 04ea 5d3d 37b2 09bd 78af 16bc 4f01 5bbd
000000b0: bdd2 8bbd 4094 ae3e 41ab e63c 8d45 a9bd
000000c0: b978 59bd 6a7f 453e e178 62bc eefb 13be
000000d0: 98b7 f7bd 596b 0bbe 717c 273c ce3c 1abe
000000e0: c3bc 8d3c 9361 ff3d e7b1 863c 765d efbd
000000f0: 614b 263c c81c cebd 462e 9abc 321d 87bd
00000100: 758c 34bb 093a 703d 03db a23b 490d d03b
00000110: c4aa 35bd d05f 2bbc a2ce 083c b2b1 13bc
00000120: dd11 cbbd 9ef8 41bc ce72 f9bc 18c5 c7ba
00000130: 5afa b1bc 0bb3 13bd 8e53 00bd 8f75 ec3b
00000140: 7fb6 41bd f60e 63bd 8db4 bcbc b622 c13c
00000150: 9769 21bd 7eb7 bcbd 45b8 543d 7bc2 b4bc
00000160: 98d5 1c3d ee5c 213d 94fd 983b def8 653e
00000170: 10b3 8cbb 2257 a1bd 1f02 b9bd b487 183e
00000180: de21 1fba 9f2b 053d 3e3c 403c 3fad 2b3e
00000190: f69e c3bc 5341 613d 7311 413d dc5d 723e
000001a0: acfb 13bd 0dd5 f23d 036d dbbc f425 0bbd
000001b0: f064 80bd c57f 8c3d 4bd2 f13c 75dd 103c
000001c0: ef20 97bb 12c2 8c3d 80a9 443c e3b1 643d
000001d0: 6d75 75bc 014c d13d 70eb 8cbd 8d05 0dbd
000001e0: b510 f7bb 74a1 d7bc 41f8 0d3a 75b9 253d
000001f0: c560 7abd 9236 43be 2d67 c6bc f497 b3bc
00000200: 3480 5d3d e4d1 723c 4235 3cbd d84f 783d
00000210: bdbb 873c 6025 2abe 80c0 b7bc 7081 163d
00000220: 5d0d 053e 37f2 613d 6054 313d e7b7 033d
00000230: 36a6 4b3c 29b8 36be 256a 69bc b4ed a13d
00000240: 60d3 333c 62ce c2bd 42ab 16bc a983 7cbe
00000250: 5fcf 7b3c 1e60 7cbd 0187 093d f8a0 88be
00000260: bb48 ad3c 64ca 5abd fb6a 273d 7a12 45bc
00000270: 73f9 b53c cc8a 71bc cf0e 08bd 5f36 413d
00000280: 32da f1bc a5e0 d7bc 518f 903c dd5b 383c
00000290: 818c b8ba 95be 073d 337f 2e3d 221e f83c
000002a0: 9a96 b6bd 486c 18be cd1e 68ba 28fb 0f3d
000002b0: c71b 1b3e 19ed 26be d88a f63b 034b b83d
000002c0: c623 dfbc ed3b 50bd 7cca a43c 46eb 7bbd
000002d0: f4ab e239 e671 20be e1e1 48bd 43b1 70b9
000002e0: d93d 26bd 478b 7abd 1e8c 4ebb 2e8b 1f3d
000002f0: c6f7 0bbc 0695 59bc 9acf 5dbc 6ecc b93d
00000300: 709f e93d 063c 06be 64a5 cbbb d768 fcbd
00000310: a663 bc3c ffe8 b53d bd30 18bd c5f1 3cbe
00000320: 0a20 a83d 6838 dbbd 5480 95bc 6488 603d
00000330: db1f d03d df05 bfbc 23c9 1abc 47d2 42bc
00000340: e957 903d 69ad 67bd 64f7 73bc 3e13 50bd
00000350: 084c 483d fad0 093c 4454 d13c 9112 62bd
00000360: 8213 21bd 5a0b abbb 3153 f53c d531 21bd
00000370: c0fb 7abd 3d01 4abe 43cf 0ebd 2e8c c13c
00000380: 4158 823d ef28 2f3b 0dd5 3b3c 3084 ca3b
00000390: eb1b b7bc e85a 51be 3b8c 53bd 0dbc 203d
000003a0: f6e4 0dbd e15a 4abc aba1 0ebd ec67 8fbd
000003b0: a0b7 7b3d 666b 45be e072 9cbc 6fb6 ffbc
000003c0: 329a c63c 1281 96bd adef afbd 388d b93d
000003d0: 12a1 97bd 3a02 12be 85ba 04bc df59 a83d
000003e0: eb9d 1b3d 104f ebbd 4146 3f3d 14e9 0c3e
000003f0: 1fef 5cbd e151 eebc cf0a 5d3d 022b bb3d

fc1.bias f4 [400]
-0.043064173 -0.08105185 0.07718168 0.00779463 -0.23454754 -0.08207988 -0.009431484 0.01508548
-0.13162585 -0.27533668 0.059880145 0.13114977 -0.2035744 0.05459812 -0.06417887 -0.14097771
0.16539304 -0.14501603 -0.033969063 -0.0051290183 0.04841935 -0.016994245 -0.12581335 -0.15670055
-0.04230158 -0.21488628 -0.18739916 -0.061116066 -0.14080477 0.0059511364 -0.21839361 0.121685095
-0.020437596 0.08869312 -0.19499296 -0.13706647 0.03102096 -0.137582 0.102669805 -0.21343413
0.046163984 -0.1842097 0.08195222 0.13228658 0.00512471 -0.089011215 0.107421726 0.07871006
0.056637324 0.008338813 0.19102715 0.06517649 -0.014641956 -0.1947414 0.03654914 -0.04379395
-0.2113848 -0.44878876 0.0683318 -0.1479746 -0.12705 -0.3165615 -0.20844576 0.05009958
0.1051473 -0.11464221 0.037218507 -0.03479895 -0.20725083 0.016328853 -0.0665645 0.16835023
-0.13313062 -0.043018553 -0.070144735 -0.1094446 -0.18352331 0.06583063 0.010318022 0.07293409
0.23175645 -0.28423432 0.04461694 0.12608217 -0.1998832 0.12589234 -0.020056363 -0.1724573
-0.20572066 -0.055144154 -0.06287849 0.006417214 0.20660797 0.030025644 -0.061648984 -0.04947392
-0.10131007 0.06874621 0.035554834 -0.26201794 0.029342884 -0.055756155 -0.042168394 -0.13524929
0.22822115 -0.03260495 -0.043657206 0.17943372 -0.23244911 0.07168112 0.044400264 -0.2710242
-0.20278932 0.020214997 -0.23920275 -0.19497609 -0.027222633 0.046968322 -0.20838597 -0.2878166
0.11537701 -0.11759418 -0.23101488 -0.23019406 -0.2622408 -0.26015946 -0.029364847 0.0566629
-0.1149184 -0.11005335 0.07513806 -0.01497882 -0.28330085 0.057017863 -0.061581332 -0.10463211
0.09115363 0.012818054 -0.06047724 -0.12494471 -0.0012954952 -0.2520663 -0.16809657 -0.15276504
-0.1533048 0.056441836 -0.15962923 -0.055814378 0.024823671 -0.15418127 0.012701034 -0.018741662
-0.059132114 -0.21848105 -0.18953289 0.006707418 0.08866258 0.03039792 0.13853922 -0.17838474
-0.19835635 0.023556916 -0.33805618 0.000717815 -0.023902941 -0.021190709 -0.13088469 -0.19164556
0.020178957 0.01934722 -0.15176983 -0.03639728 0.015448739 -0.11045004 -0.26167366 -0.24194863
0.017865581 -0.10651688 -0.21882801 -0.1206669 -0.032870546 -0.13532118 -0.27977017 -0.21082555
0.011177602 0.10055146 -0.16166423 -0.21872018 -0.2409236 -0.17122987 -0.08653488 -0.09029084
0.005931157 -0.09301097 -0.1354439 0.084387586 -0.24201773 -0.3059799 -0.2477033 0.05856894
0.021406617 -0.23364025 0.026073202 0.0425826 0.029549006 -0.14885104 0.14204751 -0.11970366
-0.037118245 0.09148483 0.05256509 -0.22511701 0.10778575 0.10368284 -0.20064805 0.086676076
-0.11643738 -0.07640077 -0.20079626 0.105268866 -0.19858474 -0.024334366 -0.026497534 -0.14405964
0.13270049 -0.19168845 -0.11677006 -0.049489945 -0.07986564 -0.11089681 -0.17780656 -0.14212827
-0.15580751 0.021881385 0.047857445 0.043747813 -0.027041638 -0.16570209 0.035026528 -0.011374798
0.18314604 -0.04736659 0.08432921 -0.025223188 0.0733159 0.061101392 0.0749205 0.010177516
-0.10096971 -0.2436673 -0.20514998 -0.19110629 -0.27612513 0.24682374 -0.071643114 -0.21181954
00000000: 0f64 30bd 83fe a5bd 6e11 9e3d 186a ff3b
00000010: 3b2d 70be 7f19 a8bd 8386 1abc 1729 773c
00000020: edc8 06be eef8 8cbe e244 753d 204c 063e
00000030: cf75 50be 47a2 5f3d 3670 83bd 765c 10be
00000040: cb5c 293e 157f 14be 2523 0bbd 5311 a8bb
00000050: 5e53 463d 8437 8bbc 37d5 00be 1c76 20be
00000060: 6c44 2dbd 260b 5cbe 91e5 3fbe d754 7abd
00000070: 202f 10be c001 c33b 93a2 5fbe 0936 f93d
00000080: bf6c a7bc bda4 b53d 3cac 47be 275b 0cbe
00000090: ab1f fe3c 4ce2 0cbe 8c44 d23d 7a8e 5abe
000000a0: 7216 3d3d 78a1 3cbe 91d6 a73d 2276 073e
000000b0: 2fed a73b 834b b6bd ecff db3d bd32 a13d
000000c0: 8afc 673d 849f 083c 9f9c 433e 407b 853d
000000d0: d1e4 6fbc 4a6a 47be 8db4 153d 4961 33bd
000000e0: 4275 58be a4c7 e5be 8bf1 8b3d a786 17be
000000f0: 6519 02be 5914 a2be ce72 55be 3835 4d3d
00000100: 7857 d73d 89c9 eabd 6f72 183d 5889 0ebd
00000110: 9039 54be 16c4 853c f852 88bd 0164 2c3e
00000120: 6553 08be 3934 30bd 0ba8 8fbd 7e24 e0bd
00000130: 89ed 3bbe 36d2 863d ec0c 293c 785e 953d
00000140: 9051 6d3e 2987 91be 41c0 363d af1b 013e
00000150: 2eae 4cbe ece9 003e 3e4d a4bc a598 30be
00000160: 70a8 52be d6de 61bd 70c6 80bd 7e47 d23b
00000170: 0a91 533e 57f8 f53c a583 7cbd 2aa5 4abd
00000180: a77b cfbd d0ca 8c3d f2a1 113d 3727 86be
00000190: 7d60 f03c 9160 64bd c4b8 2cbd ca7e 0abe
000001a0: ceb2 693e c58c 05bd e6d1 32bd 79bd 373e
000001b0: 2407 6ebe 8dcd 923d 0ddd 353d afc3 8abe
000001c0: 01a8 4fbe ec99 a53c 91f1 74be d0a7 47be
000001d0: 0002 dfbc db61 403d 2263 55be b35c 93be
000001e0: c84a ec3d 38d5 f0bd 2a8f 6cbe feb7 6bbe
000001f0: 6d44 86be 9f33 85be 8c8e f0bc 5b17 683d
00000200: 575a ebbd a763 e1bd fce1 993d ba69 75bc
00000210: cf0c 91be 908b 693d b53c 7cbd 5c49 d6bd
00000220: c1ae ba3d d102 523c fbb6 77bd 03e3 ffbd
00000230: 9bcd a9ba d60e 81be 8221 2cbe 706e 1cbe
00000240: effb 1cbe 8e2f 673d d875 23be 9e9d 64bd
00000250: 035b cb3c b2e1 1dbe ff17 503c 1d88 99bc
00000260: 8434 72bd 7fb9 5fbe e914 42be e6c9 db3b
00000270: ba94 b53d 0f05 f93c 3add 0d3e 7daa 36be
00000280: ed1d 4bbe 6ffa c03c b315 adbe c02b 3c3a
00000290: 1ad0 c3bc 2398 adbc a306 06be bc3e 44be
000002a0: 574e a53c 107e 9e3c 8d69 1bbe 5015 15bd
000002b0: b51c 7d3c a133 e2bd 17fa 85be 62c1 77be
000002c0: d75a 923c 8625 dabd 7314 60be 3520 f7bd
000002d0: 44a3 06bd a391 0abe 093e 8fbe a7e2 57be
000002e0: 4322 373c eded cd3d 4f8b 25be 2ff8 5fbe
000002f0: adb4 76be e256 2fbe 3339 b1bd 67ea b8bd
00000300: 275a c23b 897c bebd ceb1 0abe 66d3 ac3d
00000310: 7fd3 77be 66a9 9cbe efa5 7dbe fce5 6f3d
00000320: ee5c af3c 643f 6fbe 7897 d53c 186b 2e3d
00000330: c210 f23c 686c 18be e774 113e 3127 f5bd
00000340: 4d09 18bd 665c bb3d 7e4e 573d 1385 66be
00000350: c6be dc3d ab57 d43d af76 4dbe 3a83 b13d
00000360: b976 eebd 0278 9cbd 899d 4dbe 3497 d73d
00000370: cc59 4bbe dd58 c7bc 5b11 d9bc 5f84 13be
00000380: a3e2 073e fa49 44be 2425 efbd f8b5 4abd
00000390: 9990 a3bd de1d e3bd ec12 36be 138a 11be
000003a0: 018c 1fbe 9740 b33c 2b06 443d e830 333d
000003b0: 6d86 ddbc cfad 29be fa77 0f3d 5c5d 3abc
000003c0: a38a 3b3e 7803 42bd cbb4 ac3d dca0 cebc
000003d0: a626 963d 7445 7a3d eb6f 993d 99bf 263c
000003e0: 35c9 cebd ec83 79be d612 52be 5eb1 43be
000003f0: 4660 8dbe 5dbf 7c3e a0b9 92bd 39e7 58be

fc2.weight f4 [300, 400]
-0.040096812 0.012553167 0.063597895 -0.044383846 -0.07373408 -0.0003532514 0.07831133 -0.02717891
0.05430608 -0.069537595 0.019732151 0.048204623 -0.06424322 0.024092067 0.3030125 0.12205539
-0.00013308143 0.102355614 -0.086395115 0.07369374 -0.008053654 -0.086054295 -0.039779805 0.101208545
0.03782023 0.038818646 -0.07591956 0.014444888 -0.018014014 0.07885833 0.0010203589 -0.045243103
-0.023974253 0.09021416 0.019068457 -0.06193402 -0.11458338 0.06321327 0.031587135 -0.020740207
0.017788239 -0.027937468 0.060892466 -0.06415183 0.12086206 -0.034734845 -0.0046063615 -0.056141082
-0.18850431 0.015265206 -0.07028953 -0.03192086 -0.06589109 0.02927877 0.017983893 -0.052445784
-0.020556964 0.1470971 0.0076055066 0.12213626 0.08341329 -0.15783088 0.13627961 0.09687199
-0.051554393 -0.14394915 0.023274768 0.082709186 -0.0092977695 -0.105713144 0.016022256 -0.04839162
0.09671864 0.028923066 0.020614928 0.09832229 -0.024436455 0.076708004 0.055445354 0.16835804
-0.08013342 0.21433336 0.18486302 0.0004565982 0.007158489 0.10055574 0.1499938 0.03712357
0.07386377 -0.022287354 0.013948685 -0.033333275 0.12568015 -0.03808754 0.012237481 -0.1627463
0.15024233 0.061400242 0.010157474 -0.006037297 -0.009033894 -0.068377025 -0.10140754 0.011109652
-0.0087230215 -0.09643077 -0.028489718 0.057369456 -0.01858744 0.008849789 0.09160426 0.06832513
0.06395554 0.013170233 -0.0058802315 -0.015230014 -0.23390579 0.14700383 -0.04236203 -0.07267297
0.025440048 -0.10146856 0.049458973 -0.07828243 -0.015741197 -0.043709185 0.029697608 0.070500314
0.056728378 -0.065560535 -0.08296021 0.019305566 0.02831901 0.08515703 -0.031542875 0.023077158
-0.011291141 0.0938119 0.057238143 -0.18594207 0.008933815 -0.043350447 0.0651765 0.005745487
-0.16082646 -0.032395616 0.0018465256 0.010654941 0.03201656 -0.017820403 -0.0020820063 -0.01625345
-0.044733353 0.037602164 -0.054834805 -0.06594184 -0.046847958 -0.15181851 0.0018378743 0.058528997
-0.20593038 -0.05407075 0.004810819 0.023219222 0.06407352 -0.03601923 0.014721829 0.032312974
0.02451247 0.08970295 -0.051854923 -0.0014406532 0.06787804 -0.09817022 -0.026595531 0.06216777
0.061294533 0.13574675 0.10806616 0.08383671 0.12331046 0.032167196 -0.044988718 0.022898132
-0.005788283 0.06795979 -0.019839944 -0.058483027 0.07084262 0.010391428 -0.04089796 0.023030212
0.07766983 0.049379934 -0.0643149 -0.094617024 0.032678515 -0.08694785 0.09915689 0.069507025
0.10077978 0.030539537 -0.027578777 -0.14774483 0.023589265 -0.04965826 0.100777425 -0.068405524
0.061546233 -0.032880146 0.01544506 0.08418276 -0.11970253 0.0096638845 0.016076935 0.053052787
0.05613185 0.16714318 -0.05781508 -0.11069269 0.028993024 -0.08362236 0.07045812 0.08283181
0.01718261 -0.17091398 0.043843098 -0.026693137 0.0344759 0.11152449 -0.03100465 -0.019288369
0.01566078 0.032151207 0.050008647 -0.02961642 -0.0753673 0.08011133 0.05289961 -0.106228225
-0.009992728 0.0826708 0.052213248 -0.051646687 0.14906824 0.030526303 0.07142181 -0.04571385
-0.08433231 0.10389843 -0.11463993 0.012919098 -0.09203341 0.10015555 -0.06221336 -0.11240608
00000000: 8e3c 24bd ccab 4d3c 9d3f 823d d6cb 35bd
00000010: e501 97bd 9a34 b9b9 b161 a03d 4ea6 debc
00000020: 0d70 5e3d ba69 8ebd 52a5 a13c 3672 453d
00000030: f391 83bd ba5c c53c 7424 9b3e 2df8 f93d
00000040: c68b 0bb9 d29f d13d ecef b0bd beec 963d
00000050: 79f3 03bc 3c3d b0bd 26f0 22bd 6d46 cf3d
00000060: 63e9 1a3d 4d00 1f3d b77b 9bbd 40aa 6c3c
00000070: 2092 93bc 7a80 a13d 90bd 853a d550 39bd
00000080: a765 c4bc 34c2 b83d 7435 9c3c 87ae 7dbd
00000090: b1aa eabd f575 813d 8361 013d 5ee7 a9bc
000000a0: a4b8 913c 1edd e4bc 616a 793d 0962 83bd
000000b0: 8786 f73d 2046 0ebd f6f0 96bb 31f4 65bd
000000c0: 4607 41be ea1a 7a3c f5f3 8fbd 73bf 02bd
000000d0: e8f1 86bd 08da ef3c f552 933c 64d1 56bd
000000e0: 1467 a8bc 9fa0 163e 9d37 f93b 9322 fa3d
000000f0: 96d4 aa3d 6b9e 21be e28c 0b3e d264 c63d
00000100: b32a 53bd 6867 13be baaa be3c 6f63 a93d
00000110: ac55 18bc 2280 d8bd 1b41 833c 4b36 46bd
00000120: 6c14 c63d 11f0 ec3c a3e0 a83c 325d c93d
00000130: f62e c8bc 1619 9d3d ab1a 633d 0d66 2c3e
00000140: fe1c a4bd 347a 5b3e bb4c 3d3e 9363 ef39
00000150: c291 ea3b 2bf0 cd3d fa97 193e e20e 183d
00000160: e345 973d f893 b6bc 0689 643c 7988 08bd
00000170: 4cb2 003e ae01 1cbd b77f 483c f7a6 26be
00000180: 20d9 193e d27e 7b3d 896b 263c 85d4 c5bb
00000190: e602 14bc 4109 8cbd c2ae cfbd 4205 363c
000001a0: 01eb 0ebc 7f7d c5bd 4563 e9bc 3cfc 6a3d
000001b0: b044 98bc b5fe 103c 049b bb3d 0cee 8b3d
000001c0: 1ffb 823d f6c7 573c f5ae c0bb 4f87 79bc
000001d0: 0085 6fbe 2c88 163e cf83 2dbd 91d5 94bd
000001e0: a667 d03c c0ce cfbd 7e95 4a3d 8a52 a0bd
000001f0: aff3 80bc 6708 33bd 6648 f33c 7862 903d
00000200: 045c 683d 9a44 86bd 0be7 a9bd b526 9e3c
00000210: 45fd e73c cf66 ae3d 1a33 01bd 4f0c bd3c
00000220: 7afe 38bc 7420 c03d 8b72 6a3d 9967 3ebe
00000230: 235f 123c 3d90 31bd 427b 853d a344 bc3b
00000240: b1af 24be 44b1 04bd 1e07 f23a 1092 2e3c
00000250: cc23 033d 18fc 91bc 4572 08bb f525 85bc
00000260: 523a 37bd ba04 1a3d 769a 60bd 840c 87bd
00000270: a5e3 3fbd 5076 1bbe d4e4 f03a 1abc 6f3d
00000280: 6adf 52be 4a79 5dbd 13a4 9d3b 3d36 be3c
00000290: fa38 833d e688 13bd d433 713c 9c5a 043d
000002a0: 60ce c83c 2eb6 b73d d465 54bd 4dd4 bcba
000002b0: a403 8b3d 780d c9bd dfde d9bc a2a3 7e3d
000002c0: fa0f 7b3d 3201 0b3e ca51 dd3d 95b2 ab3d
000002d0: 328a fc3d c0c1 033d 1746 38bd dd94 bb3c
000002e0: a3ab bdbb 812e 8b3d 6187 a2bc e68b 6fbd
000002f0: f015 913d cf40 2a3c 9f84 27bd dba9 bc3c
00000300: 5c11 9f3d 9d42 4a3d 88b7 83bd 92c6 c1bd
00000310: e8d9 053d b711 b2bd c412 cb3d b359 8e3d
00000320: a165 ce3d 0d2e fa3c e3ec e1bc 6c4a 17be
00000330: 463e c13c 7666 4bbd 6564 ce3d 3218 8cbd
00000340: e717 7c3d 55ad 06bd 470d 7d3c 0368 ac3d
00000350: 9a26 f5bd 4555 1e3c c7b3 833c e14d 593d
00000360: 83ea 653d 9527 2b3e 81cf 6cbd d9b2 e2bd
00000370: c782 ed3c 3342 abbd 594c 903d b9a3 a93d
00000380: 8cc2 8c3c 1304 2fbe d294 333d 91ab dabc
00000390: 9a36 0d3d f466 e43d 77fd fdbc a402 9ebc
000003a0: 094b 803c fcb0 033d ded5 4c3d 229e f2bc
000003b0: 2c5a 9abd 6911 a43d 43ad 583d 2f8e d9bd
000003c0: 8ab8 23bc 4f4f a93d 8fdd 553d 7a8b 53bd
000003d0: 58a5 183e 4c12 fa3c 9945 923d 723e 3bbd
000003e0: 6bb6 acbd b3c8 d43d 57c8 eabd a0aa 533c
000003f0: 037c bcbd 5a1e cd3d 70d3 7ebd 2935 e6bd

fc2.bias f4 [300]
-0.031644307 -0.02543732 -0.01530236 -0.07522205 0.019460056 0.00016509753 -0.028501404 0.051780082
-0.03932504 0.036318403 0.002815773 -0.00096952415 0.009110039 -0.0637705 -0.0059655453 -0.05282164
-0.0046722344 -0.087670036 -0.020658849 -0.042205177 0.0890069 -0.0284541 0.028339365 -0.0058357827
-0.10942913 -0.040597774 0.04761113 -0.05037145 0.006987082 0.0018002747 -0.024155667 -0.0899287
0.036728814 0.0079104 -0.038079932 -0.045605786 -0.055693902 -0.038559243 0.025545694 -0.015577372
-0.031854972 -0.039623644 -0.013043666 0.12065599 0.036243662 0.05356573 -0.0652655 -0.048498258
-0.024959577 -0.13845283 -0.029487012 -0.03489098 0.046428323 0.01852891 -0.030557906 -0.043815427
0.07265605 0.016056938 0.01844462 -0.0064811623 0.07831308 0.026888024 0.012915834 0.018401917
-0.06358362 0.018020228 -0.029612495 -0.014157385 -0.044242587 0.02327749 0.038303565 -0.016423278
-0.061100435 -0.08604541 0.040961888 -0.10734385 -0.05578826 -0.061168324 -0.06394029 -0.044990744
0.046910416 -0.0057896106 -0.06331572 0.0023929162 0.023124164 -0.02962597 0.04690996 -0.09519432
-0.10892099 0.017635062 0.015668951 -0.057661805 -0.091285326 -0.08329701 -0.030189939 -0.038647592
-0.040427413 0.038872913 0.0355592 -0.010928183 -0.08769028 0.03591417 -0.041577972 0.004520171
0.06713609 -0.0040605767 -0.047475662 0.007586692 -0.030144216 0.0030431922 0.024510492 -0.05107647
-0.056148026 -0.024123287 -0.08459531 0.028122624 0.09229295 -0.049943928 -0.067116186 -0.073509246
0.0084394505 0.041765332 -0.046494167 -0.015639024 0.07028415 -0.010951709 0.02996392 -0.10239808
-0.0117347585 -0.05508599 0.0029919904 -0.008387863 -0.007504047 -0.008310625 -0.032815855 -0.0040626307
-0.048164222 0.081440754 -0.057667412 0.06784214 0.07701887 -0.057452135 -0.04036583 -0.067631334
-0.03011109 -0.04746427 -0.05238002 -0.010334419 0.014361931 -0.113575645 0.034903433 0.014205397
-0.035159223 -0.007869205 0.10161217 0.010296364 -0.043171126 0.054895394 0.03789234 0.058412854
-0.052506816 -0.0243473 0.019414438 0.02583101 -0.044584285 -0.010194052 0.0316745 -0.029211788
-0.020508016 -0.05364492 0.019596253 0.011969976 -0.01900112 -0.0008507879 -0.011655191 0.0479789
0.011920972 -0.064923845 -0.0038305596 0.026571494 -0.023200888 -0.02335021 -0.09651063 -0.08024193
-0.064216636 0.059316654 -0.002400489 0.015174503 -0.0652385 -0.09807386 -0.038979545 -0.052534472
0.027779825 -0.0035313675 0.013981029 0.05773102 0.02250815 0.021095747 -0.023339786 -0.026766758
-0.03894183 -0.045631718 -0.046538044 0.047054436 -0.012086759 -0.074755825 0.024253082 -0.02390346
-0.0625802 -0.052341998 -0.052136667 0.00012473937 0.016375126 -0.039389145 -0.05509308 -0.014769218
0.024887003 0.00022003954 0.003810466 -0.016349073 0.019883184 0.05260653 -0.026289426 -0.03672952
-0.109907985 -0.016388688 -0.0591422 -0.019545244 -0.048537683 -0.062339276 0.0068877963 -0.045035873
0.0105479965 0.015833404 0.030491192 0.008113035 0.03181925 -0.006999251 -0.04594882 -0.06958369
-0.024467267 -0.062125344 -0.09720435 -0.020646943 0.0060599702 -0.017410394 -0.099508315 -0.012651178
0.04319668 0.013639468 0.051553745 -0.0070130816 0.013874482 -0.0681446 0.03078637 0.019918261
00000000: 769d 01bd ed61 d0bc c0b6 7abc 050e 9abd
00000010: b26a 9f3c 081e 2d39 c77b e9bc 5a17 543d
00000020: 4b13 21bd 9bc2 143d d588 383b aa27 7eba
00000030: 4642 153c 1c9a 82bd 9f7a c3bb 815b 58bd
00000040: 8b19 99bb 598c b3bd bf3c a9bc 56df 2cbd
00000050: 4049 b63d 9318 e9bc f527 e83c 183a bfbb
00000060: 611c e0bd da49 26bd e303 433d 4b52 4ebd
00000070: e4f3 e43b 32f7 eb3a 1be2 c5bc 8a2c b8bd
00000080: f470 163d 9f9a 013c b4f9 1bbd 22cd 3abd
00000090: 4a1f 64bd 4cf0 1dbd 3445 d13c 3c38 7fbc
000000a0: 5c7a 02bd 674c 22bd 1ab5 55bc 7d1a f73d
000000b0: 3c74 143d bd67 5b3d eba9 85bd 1ca6 46bd
000000c0: 0778 ccbc 94c6 0dbe bf8e f1bc d8e9 0ebd
000000d0: a02b 3e3d f1c9 973c 9354 fabc ce77 33bd
000000e0: b2cc 943d d789 833c 2c19 973c ee5f d4bb
000000f0: 9c62 a03d 4644 dc3c ef9c 533c 9ebf 963c
00000100: 2138 82bd 289f 933c e795 f2bc 60f4 67bc
00000110: b737 35bd 6fb0 be3c 33e4 1c3d 1c8a 86bc
00000120: 7344 7abd 9338 b0bd a7c7 273d 18d7 dbbd
00000130: 3b82 64bd a38b 7abd 20f3 82bd 3748 38bd
00000140: 2325 403d c6b6 bdbb acab 81bd 79d2 1c3b
00000150: e36e bd3c 2ab2 f2bc a924 403d 3df5 c2bd
00000160: f811 dfbd 6877 903c 2c5c 803c c92e 6cbd
00000170: cdf3 babd 9f97 aabd e450 f7bc f04c 1ebd
00000180: 3797 25bd 3439 1f3d 86a6 113d 1f0c 33bc
00000190: f696 b3bd bd1a 133d aa4d 2abd f11d 943b
000001a0: a57e 893d 960e 85bb d775 42bd c999 f83b
000001b0: 01f1 f6bc 4b70 473b 3aca c83c 9035 51bd
000001c0: 79fb 65bd 339e c5bc 4e40 adbd 6b61 e63c
000001d0: 1604 bd3d 0192 4cbd 3674 89bd 048c 96bd
000001e0: 9f45 0a3c 2012 2b3d ab70 3ebd 691d 80bc
000001f0: 23f1 8f3d cc6e 33bc e576 f53c 16b6 d1bd
00000200: 2543 40bc d9a1 61bd 4515 443b 3f6d 09bc
00000210: 82e4 f5bb 4a29 08bc eb69 06bd d11f 85bb
00000220: d947 45bd 69ca a63d aa34 6cbd d2f0 8a3d
00000230: 12bc 9d3d ee52 6bbd a456 25bd 4c82 8abd
00000240: 88ab f6bc e569 42bd 6f8c 56bd b251 29bc
00000250: 4e4e 6b3c 599a e8bd e7f6 0e3d c1bd 683c
00000260: 1e03 10bd d7ed 00bc 0b1a d03d 15b2 283c
00000270: 35d4 30bd fed9 603d 0035 1b3d 5142 6f3d
00000280: 6311 57bd fd73 c7bc 070b 9f3c 8e9b d33c
00000290: 039e 36bd f404 27bc 1fbd 013d 8f4d efbc
000002a0: 6d00 a8bc c7ba 5bbd 5288 a03c b81d 443c
000002b0: 3da8 9bbc 6907 5fba 6af5 3ebc 8685 443d
000002c0: 2e50 433c cbf6 84bd 200a 7bbb 76ac d93c
000002d0: ca0f bebc f148 bfbc 5da7 c5bd e255 a4bd
000002e0: 0384 83bd 05f6 723d 8651 1dbb 7b9e 783c
000002f0: c39b 85bd f3da c8bd 04a9 1fbd 632e 57bd
00000300: 8492 e33c 846e 67bb b010 653c 5d77 6c3d
00000310: 0363 b83c fdd0 ac3c 1433 bfbc f645 dbbc
00000320: 7881 1fbd 53e8 3abd ad9e 3ebd 27bc 403d
00000330: 8b07 46bc 9519 99bd 66ae c63c 30d1 c3bc
00000340: 0c2a 80bd 9064 56bd 428d 55bd 78cc 0239
00000350: 2125 863c 8356 21bd 48a9 61bd 97fa 71bc
00000360: d4df cb3c 6aba 6639 03b9 793b 7eee 85bc
00000370: 0fe2 a23c f279 573d ec5c d7bc b171 16bd
00000380: 7017 e1bd 9241 86bc 173f 72bd 591d a0bc
00000390: 73cf 46bd 7857 7fbd 06b3 e13b 8977 38bd
000003a0: 81d1 2c3c 0eb5 813c aac8 f93c 89ec 043c
000003b0: e754 023d f959 e5bb d434 3cbd e581 8ebd
000003c0: 946f c8bc 2577 7ebd 1313 c7bd c723 a9bc
000003d0: b792 c63b 3ea0 8ebc 04cb cbbd e346 4fbc
000003e0: 00ef 303d 1378 5f3c 052a 533d fecd e5bb
000003f0: cc51 633c 658f 8bbd b333 fc3c 9f2b a33c

fc3.weight f4 [2, 300]
-0.007995203 0.06347288 0.11794172 0.07304608 -0.12306011 -0.0458189 0.14732693 0.021593137
-0.044964675 -0.21807858 0.071264826 0.10569653 0.046740886 -0.119934514 -0.020130772 0.16516045
0.1275185 0.27482352 0.14576194 -0.047235623 -0.16240571 0.03524065 0.07023284 0.08922524
0.08215151 0.17938925 -0.06307655 0.10781552 0.025093272 0.038054954 0.11147316 0.17765869
0.1371807 -0.09197743 0.089178674 0.2765636 -0.1782291 -0.07786938 -0.220099 0.05090545
-0.10349743 -0.14506806 -0.1084124 -0.06555525 -0.0781843 -0.11463926 -0.07191034 -0.10354962
-0.0004749066 -0.19656846 -0.07708892 0.15502575 -0.029648693 -0.00091407995 -0.16735888 0.009561397
-0.09244054 0.16275907 -0.117711 0.107546754 -0.06948932 -0.08604094 0.05945473 -0.12231133
0.1570517 0.060886987 -0.0037525282 0.037614603 -0.24653229 -0.05757566 -0.06369398 0.017498009
0.17113055 0.1865609 0.012783544 -0.13012563 0.16573115 -0.12694344 0.024761489 -0.006226994
0.10294164 0.16051073 0.13185689 -0.0072323745 0.21146223 -0.011888372 0.16507341 0.1530334
-0.17614043 0.07924362 -0.057435103 0.011437344 0.11519851 0.24838209 -0.11636675 0.007938131
-0.06096392 -0.1241542 -0.14918444 0.13759466 -0.08497332 0.071232975 -0.1335453 -0.08904007
0.06102835 -0.0048968187 0.2577963 0.016356548 0.17779064 0.14881863 -0.07241575 0.26549488
-0.020298325 -0.13289362 0.11046509 0.1112337 -0.08783547 -0.16169536 -0.043330174 -0.09844836
-0.028602256 0.18086074 -0.062479407 0.1336933 -0.117624335 -0.065026596 0.0717094 0.05478445
0.1108228 0.14802246 -0.067404374 -0.08267691 0.09561712 0.07851714 -0.19111186 0.093009055
-0.2587449 -0.051684573 -0.11915543 0.11937355 -0.05424585 0.19968902 0.31604198 0.17247473
-0.17725594 -0.09043255 -0.07440346 -0.012761614 -0.09160311 0.06443489 0.05967338 0.09257399
0.27111113 0.09590897 0.030962259 0.0016775021 -0.08707985 0.07653858 0.09063369 -0.13464974
0.18447174 -0.034283146 -0.058884878 -0.09631561 0.06534686 -0.08078223 0.1309341 0.10681873
0.11730628 0.14230782 -0.044486135 0.14613345 0.055522736 -0.17202812 0.08367884 -0.11048476
0.18200712 0.035605874 0.16409889 0.0125643695 0.075773016 0.12458661 0.220699 -0.12805636
-0.16082087 -0.05902509 0.06834106 0.06156588 -0.004715439 -0.06563011 0.30543965 0.14094843
0.15732574 0.10457557 0.15708435 -0.06035772 0.010843899 0.17310432 -0.016320491 -0.034261834
0.15879631 -0.21707894 0.115816616 0.04546896 0.082540736 -0.049362022 0.02879145 -0.08312491
-0.12008853 0.15503897 -0.062764615 0.11959984 -0.042131077 -0.13371964 -0.0026779922 -0.0869899
-0.1048161 -0.06525591 -0.01773736 -0.24207477 0.1756569 0.03833392 0.12470373 0.091627866
0.24088027 0.08851674 -0.079320796 -0.05038701 0.22105429 -0.05530974 -0.014031929 -0.07490472
-0.13704295 0.04694708 -0.043150563 0.097736925 -0.11988107 0.093655765 0.19627258 -0.086208455
-0.08022109 -0.02999383 0.13731529 0.1912535 0.07487503 0.16000329 0.02822762 0.13321362
-0.11906293 -0.07639192 -0.05371397 -0.1466848 0.05843453 0.11465933 0.004330079 -0.22239558
00000000: 50fe 02bc 12fe 813d 6e8b f13d 2f99 953d
00000010: f006 fcbd 99ac 3bbd dfdc 163e 17e4 b03c
00000020: e12c 38bd fe4f 5fbe 4bf3 913d 6c77 d83d
00000030: 5f73 3f3d 3aa0 f5bd 4ae9 a4bc d21f 293e
00000040: 3694 023e abb5 8c3e 9e42 153e 247a 41bd
00000050: af4d 26be 8058 103d 3cd6 8f3d b9bb b63d
00000060: 0d3f a83d d1b1 373e 472e 81bd 62ce dc3d
00000070: 6890 cd3c 83df 1b3d 0a4c e43d 29ec 353e
00000080: 1979 0c3e aa5e bcbd 4fa3 b63d bf99 8d3e
00000090: b081 36be fb79 9fbd a261 61be 3c82 503d
000000a0: 76f6 d3bd b98c 14be 5207 debd d541 86bd
000000b0: 171f a0bd fdc7 eabd ba45 93bd d311 d4bd
000000c0: e3fc f8b9 3e49 49be cce0 9dbd 12bf 1e3e
000000d0: d1e1 f2bc de9e 6fba 2060 2bbe 68a7 1c3c
000000e0: 7751 bdbd 50aa 263e 7712 f1bd 7941 dc3d
000000f0: 6b50 8ebd 3b36 b0bd ce86 733d 5d7e fabd
00000100: 29d2 203e a264 793d faec 75bb c511 1a3d
00000110: f672 7cbe 75d4 6bbd fd71 82bd fc57 8f3c
00000120: d93c 2f3e d209 3f3e 1272 513c a73f 05be
00000130: 6db5 293e 76fd 01be 9bd8 ca3c d00b ccbb
00000140: 11d3 d23d ed5c 243e 7e05 073e 8efd ecbb
00000150: 8e89 583e 72c7 42bc 0109 293e cab4 1c3e
00000160: 285e 34be 7b4a a23d 1241 6bbd b363 3b3c
00000170: 32ed eb3d e057 7e3e b151 eebd ef0e 023c
00000180: 4eb5 79bd 8f44 febd cec3 18be 9de5 0c3e
00000190: 7e06 aebd 98e2 913d 19c0 08be a45a b6bd
000001a0: ddf8 793d 7e75 a0bb e0fd 833e 2bfe 853c
000001b0: c00e 363e e963 183e b54e 94bd f2ee 873e
000001c0: ac48 a6bc 4415 08be 853b e23d 7ece e33d
000001d0: 15e3 b3bd 7893 25be fb7a 31bd 4b9f c9bd
000001e0: 474f eabc 8f33 393e 68ea 7fbd e5e6 083e
000001f0: 07e5 f0bd aa2c 85bd 61dc 923d a965 603d
00000200: 10f7 e23d 3393 173e 4e0b 8abd 8352 a9bd
00000210: e9d2 c33d 98cd a03d d4b2 43be 887b be3d
00000220: 367a 84be 34b3 53bd c307 f4bd 1f7a f43d
00000230: e530 5ebd 477b 4c3e 41d0 a13e 379d 303e
00000240: 9582 35be b334 b9bd d760 98bd 1716 51bc
00000250: 699a bbbd 71f6 833d 136c 743d 6f97 bd3d
00000260: 14cf 8a3e ec6b c43d 90a4 fd3c a1df db3a
00000270: ec56 b2bd 42c0 9c3d 289e b93d 9fe1 09be
00000280: 29e6 3c3e 7c6c 0cbd 4531 71bd 1e41 c5bd
00000290: 93d4 853d 2771 a5bd 9713 063e c7c3 da3d
000002a0: 463e f03d 24b9 113e 1837 36bd 02a4 153e
000002b0: cf6b 633d 2428 30be d05f ab3d d545 e2bd
000002c0: 1360 3a3e 77d7 113d 8a09 283e c9da 4d3c
000002d0: e22e 9b3d 4427 ff3d ebfe 613e 3521 03be
000002e0: 3aae 24be 4bc4 71bd 66f6 8b3d 812c 7c3d
000002f0: f883 9abb 1469 86bd 9662 9c3e c954 103e
00000300: 001a 213e b72b d63d b8da 203e a839 77bd
00000310: 9caa 313c 4242 313e 8db2 85bc 2356 0cbd
00000320: 809b 223e f149 5ebe 4331 ed3d a93d 3a3d
00000330: 1e0b a93d d52f 4abd 0cdc eb3c 653d aabd
00000340: faf0 f5bd 89c2 1e3e bc8a 80bd c3f0 f43d
00000350: a391 2cbd cded 08be 4181 2fbb c327 b2bd
00000360: d3a9 d6bd e4a4 85bd f14d 91bc 73e2 77be
00000370: 67df 333e 0704 1d3d ab64 ff3d 64a7 bb3d
00000380: 51a9 763e 4448 b53d f172 a2bd 9c62 4ebd
00000390: 0e5c 623e 778c 62bd 2de6 65bc a567 99bd
000003a0: fd54 0cbe 954b 403d a5be 30bd 4c2a c83d
000003b0: 3584 f5bd 98ce bf3d aefb 483e 0f8e b0bd
000003c0: f44a a4bd 9fb5 f5bc 619c 0c3e f5d7 433e
000003d0: 1458 993d e7d7 233e 9c3d e73c 2769 083e
000003e0: 44d7 f3bd 5e73 9cbd 2e03 5cbd 8a34 16be
000003f0: 0c59 6f3d 83d2 ea3d 56e3 8d3b abbb 63be

fc3.bias f4 [2]
-0.060417037 0.112577595
00000000: db77 77bd 158f e63d

bn1.weight f4 [400]
0.7133206 0.45730746 0.27526695 0.23593768 0.22756512 0.46491438 0.73296267 0.21994942
1.0278146 0.5848925 0.5151462 0.65296507 0.450289 0.37097117 0.39330402 0.7306667
0.6189252 0.7530137 0.6671683 0.79929066 0.018722333 0.24847184 0.5950444 0.44787386
0.47269392 0.48786122 0.32510382 0.4219929 0.54599816 0.22479962 0.33021975 0.09171011
0.35513097 1.1388102 1.0014495 0.6795498 0.23829907 0.66668016 0.40147617 0.5837902
0.3375566 0.70003533 0.40771472 0.47849527 0.93169373 0.6295977 0.96929073 0.391316
0.7101846 0.26259348 0.8031855 0.4738144 0.44356632 0.4688184 0.53584564 0.74426186
0.73337704 0.55695426 0.36792699 0.31752402 0.5392706 1.061819 0.3065267 0.4595984
0.24520373 0.5882511 0.80204815 1.0748388 -0.14400117 1.0998029 0.49883956 0.19887197
0.13041246 0.27305815 0.52549523 0.9846011 1.1240172 0.7241209 0.37180617 0.81451005
0.8210746 0.5473913 0.8935789 0.82082856 0.29228452 0.6513616 0.32639822 0.7854952
0.18546134 1.1302167 0.55717 -0.23822509 0.41496027 0.13514252 -0.2041997 0.9366013
0.50205827 0.7688564 1.007953 0.991981 0.83874476 0.52333075 1.0801679 0.49497885
0.7948071 0.60589916 0.7173951 0.46725386 1.0286708 0.21157715 1.1481512 0.938394
1.0471666 0.9554064 0.47687414 0.3967323 0.59186196 0.95999616 1.0462742 0.18660219
0.37147737 0.60236615 0.20407599 0.86117053 1.2043241 0.51500267 0.49947017 0.47221947
0.30361754 0.34180266 0.16308892 0.78758955 1.1168511 0.51217645 0.8060057 0.5049999
0.14702052 0.81990874 0.5626723 0.8096342 0.8103189 0.3235516 -0.14071892 0.33940116
0.9674518 0.71935517 0.56559235 0.94170356 0.91977805 0.78010035 1.130577 0.44114506
0.4198161 0.851772 0.837101 0.63020015 1.0210029 0.82454294 0.7281384 0.7007095
0.69499576 0.6389245 0.7599092 0.843217 0.784466 0.60163313 0.8539379 0.40158343
1.0353671 0.77833295 0.8505897 0.23224342 0.81913024 0.67770815 0.8030151 0.79367673
0.84895253 0.5673466 0.56575793 0.24158981 0.21562539 0.9219675 0.28232893 0.6870343
0.21383463 0.5088414 0.6765892 0.6160321 0.92313373 0.7212158 0.21787192 0.29236034
0.84545964 0.691826 0.17984043 0.7754107 0.657542 0.8154568 0.8922987 0.8939441
1.1301911 0.43978408 0.56862473 0.7045138 0.2548387 0.8401609 0.80612403 0.45926714
0.45285583 0.42845184 0.37416112 0.5158373 0.63677275 0.09140166 0.72627735 0.22948115
0.3842142 0.50696963 0.95665276 0.82060146 0.6705153 0.9554695 0.8368893 1.0303476
0.84632087 0.7447913 0.10584258 0.38570204 0.675029 0.42113614 0.75878924 1.0209953
0.05934872 0.42288154 0.41400546 0.6566807 0.8678507 0.26241216 0.19548215 1.0515954
0.9354863 0.6579889 0.8362718 0.51569587 0.5373696 0.7208951 0.5833075 0.5728552
0.9215551 0.46445218 1.1135954 0.43587884 0.45942283 0.5663608 0.8740644 0.26221657
00000000: 2e9c 363f 3424 ea3e caef 8c3e a699 713e
00000010: d506 693e 4209 ee3e 71a3 3b3f 6c3a 613e
00000020: 6e8f 833f 84bb 153f 9fe0 033f b828 273f
00000030: 488c e63e efef bd3e 255f c93e f90c 3b3f
00000040: e271 1e3f 81c5 403f 8bcb 2a3f 509e 4c3f
00000050: 945f 993c 676f 7e3e d454 183f b94f e53e
00000060: f004 f23e f2c8 f93e 0274 a63e 740f d83e
00000070: 89c6 0b3f df31 663e 9012 a93e 83d2 bb3d
00000080: bad3 b53e 88c4 913f 7f2f 803f faf6 2d3f
00000090: ac04 743e 8dab 2a3f 498e cd3e 4673 153f
000000a0: 38d4 ac3e 8435 333f fcbf d03e 55fd f43e
000000b0: 7b83 6e3f 512d 213f 7023 783f 925a c83e
000000c0: a8ce 353f a772 863e 919d 4d3f cd97 f23e
000000d0: 201b e33e f708 f03e 2e2d 093f f287 3e3f
000000e0: 99be 3b3f 8e94 0e3f ed60 bc3e 8292 a23e
000000f0: a30d 0a3f afe9 873f 11f1 9c3e 7b50 eb3e
00000100: b016 7b3e a097 163f 0753 4d3f 5194 893f
00000110: 0b75 13be 57c6 8c3f e667 ff3e 18a5 4b3e
00000120: d88a 053e 47ce 8b3e db86 063f d10e 7c3f
00000130: ccdf 8f3f fd5f 393f 615d be3e bb83 503f
00000140: f231 523f d621 0c3f 96c1 643f d221 523f
00000150: 51a6 953e a2bf 263f ab1d a73e 3716 493f
00000160: 94e9 3d3e f1aa 903f b1a2 0e3f 47f1 73be
00000170: ac75 d43e cd62 0a3e ba19 51be 1ac5 6f3f
00000180: e486 003f c6d3 443f 9b04 813f 78f2 7d3f
00000190: fab7 563f 01f9 053f f142 8a3f de6d fd3e
000001a0: 7a78 4b3f 351c 1b3f 35a7 373f e63b ef3e
000001b0: 7cab 833f aea7 583e 9ef6 923f 973a 703f
000001c0: 8e09 863f 8495 743f d928 f43e 7f20 cb3e
000001d0: 4484 173f 4fc2 753f 50ec 853f a514 3f3e
000001e0: 4832 be3e ab34 1a3f 4cf9 503e ac75 5c3f
000001f0: 4b27 9a3f 37d7 033f 8eba ff3e c0c6 f13e
00000200: c273 9b3e c200 af3e c800 273e 789f 493f
00000210: faf4 8e3f ff1d 033f 6456 4e3f ac47 013f
00000220: 8c8c 163e 8ae5 513f 4b0b 103f 3044 4f3f
00000230: 0f71 4f3f 8ea8 a53e 9f18 10be fdc5 ad3e
00000240: ecaa 773f a927 383f a9ca 103f 7c13 713f
00000250: 9376 6b3f a8b4 473f bfb6 903f c4dd e13e
00000260: 23f2 d63e bb0d 5a3f 404c 563f cc54 213f
00000270: 39b0 823f 3f15 533f 4767 3a3f b361 333f
00000280: 3eeb 313f 8e90 233f 6989 423f 12dd 573f
00000290: c4d2 483f a104 1a3f ad9b 5a3f 589c cd3e
000002a0: e986 843f d440 473f 3fc0 593f 38d1 6d3e
000002b0: 85b2 513f 487e 2d3f 6692 4d3f 662e 4b3f
000002c0: f454 593f a03d 113f 83d5 103f 5263 773e
000002d0: e7cc 5c3e 1006 6c3f 6b8d 903e 7be1 2f3f
000002e0: 77f7 5a3e 6e43 023f f334 2d3f 48b4 1d3f
000002f0: 7e52 6c3f 99a1 383f d119 5f3e 41b0 953e
00000300: 0b70 583f 821b 313f 1728 383e 5181 463f
00000310: ac54 283f c7c1 503f b06d 643f 85d9 643f
00000320: 1aaa 903f 612b e13e 6491 113f 045b 343f
00000330: 387a 823e c914 573f 255e 4e3f 1025 eb3e
00000340: b8dc e73e 0a5e db3e 0c92 bf3e ea0d 043f
00000350: 8a03 233f cb30 bb3d 50ed 393f 1bfd 6a3e
00000360: b9b7 c43e c3c8 013f 32e7 743f f012 523f
00000370: e4a6 2b3f a699 743f 613e 563f 6ee2 833f
00000380: 7ca8 583f a5aa 3e3f ffc3 d83d bd7a c53e
00000390: b3ce 2c3f 289f d73e 0340 423f f9af 823f
000003a0: a517 733d ee83 d83e 86f8 d33e 3a1c 283f
000003b0: 772b 5e3f e35a 863e 792c 483e ae9a 863f
000003c0: 087c 6f3f f671 283f e915 563f a504 043f
000003d0: 0e91 093f 958c 383f a453 153f a3a6 123f
000003e0: 09eb 6b3f adcc ed3e 4b8a 8e3f 832b df3e
000003f0: 7839 eb3e 05fd 103f afc2 5f3f 4041 863e

bn1.bias f4 [400]
-0.03303601 0.030937145 -0.051398 0.02339301 0.00968895 0.10255098 -0.04033176 -0.029418545
-0.032673918 -0.0072753127 0.05939494 0.079071276 0.054532193 0.030093893 -0.031152029 0.043469522
0.053508382 -0.0892313 -0.039716616 0.07047856 -0.024507862 -0.06518912 -0.032980453 -0.0055370266
0.046186518 0.055747647 -0.021419141 -0.066550516 -0.07275135 0.120477855 0.102300934 0.061120063
0.039354365 0.014032869 0.03563328 0.060633346 -0.014547307 0.018857256 -8.8210516e-05 0.022632223
0.031415455 -0.059555784 0.030748425 0.08368707 0.01736138 0.07276919 0.0064323256 0.058734372
0.0769109 -0.03490123 0.06160007 0.038584597 -0.05026208 -0.055641793 0.015871001 -0.052459616
-0.023478897 -0.0790032 0.0052242996 0.041924868 -0.065962195 0.04380668 -0.024081664 -0.08868443
-0.037188526 -0.011755098 -0.03343839 -0.031076252 0.084154285 0.026081858 0.012933126 -0.095731586
0.017757166 -0.022371659 0.007998558 -0.10595009 0.03403987 0.03973864 -0.06295562 0.043004915
0.0042770784 0.086065635 -0.039600056 0.057867732 0.041372392 -0.0014580499 -0.00854182 0.030036952
0.010858878 -0.009056166 0.026635237 -0.06685013 0.0053903954 0.15891194 -0.13785355 0.046053275
0.03387711 -0.07676475 0.05761184 0.027064256 0.011728827 -0.010473893 0.14670387 -0.058828887
-0.10674772 0.011668317 -0.004219648 -0.008404788 0.02952737 0.056460094 0.007798498 0.02403092
0.029590612 0.10600941 0.025502209 0.023244293 0.06135218 0.022841303 0.009527927 0.028127544
-0.010054607 0.046058107 0.010888511 0.067300305 0.03286273 0.037081823 -0.005470406 -0.07284601
0.055433385 -0.0007945236 0.0780636 -0.0072939 -0.026649626 -0.010971103 0.08994817 -0.022351833
-0.013797611 -0.00970301 -0.07334584 0.036170144 -0.031501323 -0.034545027 0.01970843 0.008269801
0.045280147 -0.015202282 -0.049683094 0.10263333 0.05036566 0.039884765 0.019206662 -0.03135112
-0.028128386 0.085575275 0.044916287 -0.0032325652 0.053836662 0.048918497 -0.047092598 -0.038871087
-0.0056774383 0.005819479 0.045040585 -0.035975304 0.038400713 0.010488876 0.05380771 0.054272532
0.053970672 -0.0013033214 0.074290425 0.10256013 -0.001965709 0.10465607 0.058388304 0.17257401
-0.032051995 -0.053820807 0.030964946 -0.025199758 -0.034960806 -0.0013628176 0.0011020504 -0.011179642
-0.008822706 -0.02865308 0.056527235 0.032546204 0.06788095 0.007265735 0.021912502 0.08251322
0.027680973 -0.038582742 0.057925936 0.07640493 0.031180628 0.03448889 0.053794324 0.013795663
0.055426423 0.0037250814 0.043489452 0.07210107 -0.041450698 -0.00071148435 -0.10216826 0.008741948
0.059693187 0.05128584 0.06882664 0.0022492807 0.074807145 -0.0769799 0.023937585 -0.022134196
0.04745989 -0.023677325 0.24484877 0.08185516 0.10795994 0.113864675 -0.0014124817 -0.027253557
0.13033646 -0.08418547 -0.01996296 -0.008171574 -0.020876834 -0.06479709 0.070615254 -0.0101597095
-0.023537641 -0.00034213954 -0.045494024 -0.026117718 0.05483894 -0.005362309 -0.04388063 0.013098072
-0.08868882 0.010589473 0.024608873 0.001108932 0.043232113 -0.08545896 0.08284055 -0.050206833
0.06260775 0.008390496 -0.0035754177 -0.04648015 0.04760523 0.021384515 0.1099426 -0.0045167995
00000000: c450 07bd e56f fd3c b686 52bd b3a2 bf3c
00000010: 67be 1e3c 4006 d23d ea32 25bd 29ff f0bc
00000020: 16d5 05bd bf65 eebb 1c48 733d 1ff0 a13d
00000030: 265d 5f3d 7887 f63c 8a32 ffbc 190d 323d
00000040: 9b2b 5b3d e6be b6bd e4ad 22bd 1057 903d
00000050: b6c4 c8bc e081 85bd 8316 07bd f26f b5bb
00000060: 132e 3d3d a557 643d 3277 afbc a34b 88bd
00000070: a9fe 94bd 18bd f63d 2783 d13d 0859 7a3d
00000080: 0b32 213d 1eea 653c 34f4 113d ac5a 783d
00000090: d457 6ebc 887a 9a3c a9fd b8b8 3667 b93c
000000a0: 7ead 003d c4f0 73bd 1fe4 fb3c 2064 ab3d
000000b0: 7439 8e3c 0308 953d 42c6 d23b 7493 703d
000000c0: 7683 9d3d 98f4 0ebd 5b50 7c3d e20a 1e3d
000000d0: 9cdf 4dbd a6e8 63bd e703 823c e5df 56bd
000000e0: d156 c0bc 6ecc a1bd 9a30 ab3b 69b9 2b3d
000000f0: 3017 87bd a26e 333d e946 c5bc 2fa0 b5bd
00000100: ff52 18bd 7498 40bc b1f6 08bd a093 febc
00000110: 1559 ac3d 9fa9 d53c 76e5 533c ec0e c4bd
00000120: 7a77 913c c544 b7bc 620c 033c 5cfc d8bd
00000130: 646d 0b3d fcc4 223d e0ee 80bd ec25 303d
00000140: bc26 8c3b 2e43 b03d ab33 22bd b706 6d3d
00000150: 1976 293d 091c bfba fdf2 0bbc 0e10 f63c
00000160: 6fe9 313c 5060 14bc 2432 da3c b9e8 88bd
00000170: eaa1 b03b d0b9 223e 7b29 0dbe 5ca2 3c3d
00000180: b9c2 0a3d d636 9dbd 65fa 6b3d dcb5 dd3c
00000190: 442a 403c b19a 2bbc 8a39 163e 8ff6 70bd
000001a0: 8c9e dabd 782c 3f3c f944 8abb 3cb4 09bc
000001b0: 62e3 f13c b342 673d 8b8a ff3b 7edc c43c
000001c0: 0368 f23c 761b d93d 02ea d03c d16a be3c
000001d0: 6c4c 7b3d af1d bb3c 061b 1c3c bc6b e63c
000001e0: 14bc 24bc 6da7 3c3d ba65 323c bed4 893d
000001f0: 129b 063d 1ce3 173d 1741 b3bb 4a30 95bd
00000200: 1e0e 633d 9447 50ba cfdf 9f3d ab01 efbb
00000210: 5150 dabc 24c0 33bc bf36 b83d 311b b7bc
00000220: 600f 62bc 60f9 1ebc 5836 96bd 2527 143d
00000230: 8807 01bd 167f 0dbd 9373 a13c 0f7e 073c
00000240: ad77 393d fe12 79bc 8080 4bbd 6c31 d23d
00000250: 394c 4e3d 355e 233d 4a57 9d3c 086a 00bd
00000260: 806d e6bc 1742 af3d 24fa 373d 72d9 53bb
00000270: d583 5c3d c35e 483d 2be4 40bd 4a37 1fbd
00000280: ce09 babb 54b1 be3b 7a7c 383d d75a 13bd
00000290: 114a 1d3d 89d9 2b3c 7965 5c3d e04c 5e3d
000002a0: 5a10 5d3d 36d4 aaba 9425 983d 0c0b d23d
000002b0: 20d3 00bb ec55 d63d 9328 6f3d 3eb7 303e
000002c0: f448 03bd 3573 5cbd 33aa fd3c b96f cebc
000002d0: 1033 0fbd 92a0 b2ba ad72 903a d12a 37bc
000002e0: 1c8d 10bc ddb9 eabc 1a89 673d 2b4f 053d
000002f0: 2b05 8b3d 6715 ee3b d981 b33c b1fc a83d
00000300: 35c3 e23c f008 1ebd bf43 6d3d 307a 9c3d
00000310: 846e ff3c 3944 0d3d 7057 5c3d 3407 623c
00000320: d106 633d 7f20 743b ff21 323d baa9 933d
00000330: 35c8 29bd e882 3aba 983d d1bd 633a 0f3c
00000340: d880 743d 1a11 523d fbf4 8c3d ab68 133b
00000350: 7d34 993d a3a7 9dbd c118 c43c c652 b5bc
00000360: 4d65 423d f3f6 c1bc a3b9 7a3e aea3 a73d
00000370: 1a1a dd3d e231 e93d 0523 b9ba da42 dfbc
00000380: ec76 053e 6f69 acbd 5d89 a3bc 11e2 05bc
00000390: e505 abbc 56b4 84bd bb9e 903d e974 26bc
000003a0: 03d2 c0bc 3161 b3b9 f157 3abd d3f4 d5bc
000003b0: cc9e 603d 4fb6 afbb 2dbc 33bd 4c99 563c
000003c0: 7ca2 b5bd 787f 2d3c 8c98 c93c 9559 913a
000003d0: 2814 313d 1b05 afbd 4ea8 a93d aea5 4dbd
000003e0: 7e38 803d 4a78 093c 8e51 6abb f861 3ebd
000003f0: b4fd 423d 942e af3c 9629 e13d a901 94bb

bn1.running_mean f4 [400]
0.11274387 1.209823 0.55979604 0.76704 1.3458023 0.010369132 1.0971805 0.41978645
0.17986634 0.05433262 0.51292247 1.4768595 1.5176495 0.32790768 0.11116713 1.3355545
1.3627706 0.5554424 0.16879724 1.3288795 1.9227889 0.083184436 0.34222302 0.35111356
1.4685545 0.04143013 0.122138 2.3784437 2.3206737 3.0541444 1.9048058 3.1150405
0.6033999 0.1404333 2.392225 1.8020029 0.23076546 1.3283253 0.9012675 0.41633704
1.040302 0.6933846 0.02613039 0.71355236 1.1012037 0.364555 1.713647 1.412421
0.3584942 0.4731716 1.4239914 0.11639328 1.7164241 0.7114622 1.2380706 0.3406989
0.12322186 0.70216435 1.8610872 0.32234508 0.07670941 0.3705093 0.44548634 2.5715427
1.7040211 0.4629682 1.2356892 0.46592957 0.052058145 0.4998563 0.5029043 0.7932915
0.012805858 0.16797158 0.31051165 1.5114546 0.06720055 0.57373637 0.29148546 0.16623113
1.1174706 0.005267136 0.44278887 2.0490565 1.3722134 1.6711819 0.9611723 1.2444773
1.446155 0.0035360022 2.3309026 0.1504704 2.6457534 1.6630282 0.29852828 0.19911292
0.1754283 3.0336173 1.5925725 0.212547 0.68597543 1.8226182 0.43090108 3.1496162
2.0471215 1.0392507 0.3656786 1.5753467 1.3395276 1.1287478 0.353436 0.8299298
0.041285172 1.1080205 0.78524756 1.0141101 0.24252917 2.5366926 0.083078116 0.08674061
1.1739632 0.5189094 0.5707106 0.80714065 0.25366375 0.02344487 0.07477915 1.3473321
0.4217965 1.8872145 0.98531073 0.41629633 0.6651527 2.3963246 0.25684536 0.23412172
1.3232492 1.2330495 0.15163483 0.24059051 0.16851802 0.530745 0.90563506 0.626162
0.7139274 0.19272484 1.4452932 0.743724 0.65227103 0.58033246 0.44308272 0.44484377
0.906149 0.8076173 1.0167009 1.2316979 0.8134494 0.85367113 2.8137507 0.5557098
0.04570058 1.45624 0.14294595 0.3314222 1.665528 0.3921211 0.21982574 1.189812
0.506529 1.2001103 1.7288568 0.31637192 0.27147192 6e-45 0.26934806 0.2724585
1.4476666 0.1941302 0.10586934 0.56686574 1.1223261 0.4137068 1.3156059 0.3752779
0.023747621 1.4990865 0.9534617 0.08677195 0.10308563 0.4675616 0.8537729 1.2741715
1.931941 0.2185624 1.9127072 0.45991805 0.272913 0.09909637 0.6217386 1.436033
0.33888116 2.541499 0.5057319 1.3890642 0.36217847 1.0635023 0.70901436 0.7535648
1.0843538 0.022589022 3.1132329 1.6124322 0.98069936 1.5435163 0.714171 3.0902297
0.27275535 0.24004155 1.4963833 0.6903079 1.1241878 0.23333395 0.1253025 0.6689351
1.737083 0.24817595 0.16469872 1.6280223 0.34348157 0.3781267 0.54942644 0.17600061
1.5831401 0.015256844 0.8322483 1.16626 0.42197642 0.6052121 0.5188394 0.086358115
0.47961044 0.15144005 0.7553559 0.35388184 0.12357662 6e-45 1.4616416 0.23274061
0.6706009 0.19801533 0.59080833 1.2253658 0.042669076 3.7243726 0.46151698 0.09451277
00000000: 42e6 e63d 7bdb 9a3f cb4e 0f3f bc5c 443f
00000010: 4043 ac3f 4be3 293c 6970 8c3f 40ee d63e
00000020: e22e 383e e28b 5e3d e34e 033f bb09 bd3f
00000030: 5742 c23f 84e3 a73e 98ab e33d 73f3 aa3f
00000040: 446f ae3f 7931 0e3f 2fd9 2c3e b918 aa3f
00000050: f21d f63f 9a5c aa3d db37 af3e 28c5 b33e
00000060: 98f9 bb3f a4b2 293d 7d23 fa3d 6c38 1840
00000070: eb85 1440 1a77 4340 add0 f33f d35c 4740
00000080: 6a78 1a3f bfcd 0f3e 371a 1940 08a8 e63f
00000090: c84d 6c3e 9006 aa3f 78b9 663f 212a d53e
000000a0: 9e28 853f a781 313f 660f d63c 5eab 363f
000000b0: 3ef4 8c3f f4a6 ba3e c958 db3f 36ca b43f
000000c0: 8d8c b73e 8c43 f23e 5a45 b63f 9a5f ee3d
000000d0: c9b3 db3f 6322 363f 1979 9e3f 1670 ae3e
000000e0: be5b fc3d 0bc1 333f 1b38 ee3f 6a0a a53e
000000f0: d319 9d3d 65b3 bd3e c916 e43e 2894 2440
00000100: 5d1d da3f 2b0a ed3e 102b 9e3f 528e ee3e
00000110: ec3a 553d 2aed ff3e 56be 003f 2715 4b3f
00000120: a9cf 513c be00 2c3e 62fb 9e3e 5877 c13f
00000130: 71a0 893d 63e0 123f 953d 953e 7e38 2a3e
00000140: 4709 8f3f f097 ac3b 39b5 e23e be23 0340
00000150: b0a4 af3f 4ae9 d53f 630f 763f 084b 9f3f
00000160: 9b1b b93f 46bc 673b 822d 1540 ea14 1a3e
00000170: 0654 2940 1cde d43f b3d8 983e 42e4 4b3e
00000180: 7aa3 333e c926 4240 6ad9 cb3f eca5 593e
00000190: 169c 2f3f 8e4b e93f 119f dc3e 5093 4940
000001a0: 0a04 0340 2b06 853f 3a3a bb3e f6a4 c93f
000001b0: a475 ab3f cf7a 903f 90f5 b43e 4876 543f
000001c0: a41a 293d 9ed3 8d3f fc05 493f 5cce 813f
000001d0: 9159 783e 2c59 2240 dc24 aa3d 10a5 b13d
000001e0: 6d44 963f 3fd7 043f 171a 123f c5a0 4e3f
000001f0: 37e0 813e 750f c03c d025 993d 6175 ac3f
00000200: b6f5 d73e 3f90 f13f 533d 7c3f cb24 d53e
00000210: 7347 2a3f 625d 1940 3c81 833e 9bbd 6f3e
00000220: 3b60 a93f 91d4 9d3f 2946 1b3e 5c5d 763e
00000230: fd8f 2c3e e8de 073f b3d7 673f 274c 203f
00000240: f2c3 363f a959 453e 5eff b83f b264 3e3f
00000250: 3cfb 263f ab90 143f bddb e23e 90c2 e33e
00000260: 62f9 673f 02c0 4e3f 4123 823f 47a8 9d3f
00000270: 383e 503f 318a 5a3f 7e14 3440 ff42 0e3f
00000280: 8830 3b3d 1366 ba3f 6c60 123e 2cb0 a93e
00000290: 0630 d53f 19c4 c83e 001a 613e c24b 983f
000002a0: e2ab 013f 379d 993f 2e4b dd3f 80fb a13e
000002b0: 5efe 8a3e 0400 0000 fde7 893e ae7f 8b3e
000002c0: 244d b93f 11ca 463e 06d2 d83d 1d1e 113f
000002d0: 62a8 8f3f 61d1 d33e c665 a83f 6d24 c03e
000002e0: 5f8a c23c 11e2 bf3f 1116 743f 7eb5 b13d
000002f0: 8f1e d33d 3c64 ef3e dc90 5a3f 0d18 a33f
00000300: d849 f73f d2ce 5f3e 97d3 f43f 617a eb3e
00000310: 41bb 8b3e 0af3 ca3d 432a 1f3f eecf b73f
00000320: d581 ad3e eba7 2240 a577 013f dbcc b13f
00000330: 756f b93e d820 883f f781 353f 9fe9 403f
00000340: 1bcc 8a3f 9d0c b93c 353f 4740 2e64 ce3f
00000350: 1d0f 7b3f f191 c53f e9d3 363f 53c6 4540
00000360: 97a6 8b3e 74cd 753e 7d89 bf3f 05b8 303f
00000370: 63e5 8f3f 18ef 6e3e 4c4f 003e 553f 2b3f
00000380: bc58 de3f d621 7e3e c8a6 283e 0963 d03f
00000390: d1dc af3e d399 c13e 36a7 0c3f 8139 343e
000003a0: 56a4 ca3f d8f7 793c 390e 553f 0248 953f
000003b0: 4b0d d83e 2eef 1a3f a9d2 043f 86dc b03d
000003c0: 808f f53e 1a13 1b3e 015f 413f 0030 b53e
000003d0: bd15 fd3d 0400 0000 1217 bb3f 8e53 6e3e
000003e0: 80ac 2b3f 88c4 4a3e 373f 173f c9d8 9c3f
000003f0: c5c5 2e3d 1f5c 6e40 f44b ec3e e98f c13d
