checkpoint_critic.pth (torch_old, 532746 bytes, 9 tensors)

fc1.weight f4 [400, 24]
0	0xbd027a3a	-0.031854846
1	0x3df8f500	0.12156105
2	0x3bffec9f	0.00781019
3	0xbd07f50c	-0.03319268
4	0x3d7a7a98	0.06115207
5	0x3d89ed2f	0.06734692
6	0xbd1894ad	-0.037251163
7	0xbc60c4cc	-0.013718795
8	0xbb83861b	-0.0040137894
9	0x3da77d90	0.08178246
10	0xbd347626	-0.044057988
11	0x3c1c0027	0.009521521
12	0x3da5c898	0.08094901
13	0x3c8b480d	0.01700213
14	0xbd59df86	-0.053191684
15	0xbd754a8b	-0.059885543
16	0xbd76727b	-0.06016777
17	0x3cd2e4be	0.025743838
18	0xbcc9f82e	-0.024654474
19	0xbd88da34	-0.06682244
20	0x3cc900c2	0.024536494
21	0xbb852adb	-0.0040639467
22	0xbd188748	-0.03723839
23	0xbdbdf378	-0.092749536
24	0x3cf0021a	0.029297877
25	0xbde46835	-0.111526884
26	0xbd01a422	-0.03165067
27	0x3d8306a5	0.06397752
28	0xb8e8ebb0	-0.00011106522
29	0x3da4c3e1	0.080451734
30	0x3c93ae6d	0.018027509
31	0x3ce6a6b2	0.028155658
32	0xbd0a0752	-0.033698387
33	0xbdaa2897	-0.08308523
34	0xbcf8beb2	-0.030364368
35	0x3d9c062c	0.07618365
36	0xbd4969b9	-0.04917309
37	0x3d7f3754	0.062308624
38	0x3d055c40	0.03255868
39	0x3db2c241	0.08728457
40	0xbbde2330	-0.006779097
41	0xbcaa3d71	-0.02078125
42	0xbd58312f	-0.05278128
43	0x3c83f72a	0.016109068
44	0xbdb41520	-0.08793092
45	0xbc4be59e	-0.012444882
46	0xbd64b5d0	-0.055837452
47	0x3a863331	0.0010238645
48	0xbbfa6856	-0.0076418323
49	0xbd9f824b	-0.07788523
50	0xbc7decdb	-0.015498365
51	0xbd58ad53	-0.05289967
52	0x3de86350	0.11347067
53	0x3d9574c9	0.072976656
54	0xbd1651ee	-0.036699228
55	0x3b7b5894	0.0038352357
56	0x3cc23e79	0.02371143
57	0xbd34fb13	-0.044184756
58	0xbd0d5e9b	-0.03451405
59	0xbcbceb3c	-0.023061387
60	0x3dc57ba8	0.09642726
61	0x3dad6d44	0.084681064
62	0x3c3b034a	0.011414358
63	0x3c5c478d	0.013444793
64	0xbd5c1b0e	-0.05373674
65	0xbd190da6	-0.03736653
66	0x3d1f091f	0.038827058
67	0x3cb866dc	0.022509985
68	0xbbe5a813	-0.0070085614
69	0x3d0769a3	0.033059727
70	0x3c943ba6	0.018094849
71	0x3cdbac3b	0.026815524
72	0xbd8df320	-0.06931138
73	0xbd713287	-0.058886077
74	0xbb2047e2	-0.0024456908
75	0xbbdc64e8	-0.006725896
76	0xbd77a462	-0.060459502
77	0x3d8ad7da	0.06779452
78	0xbd8301be	-0.06396817
79	0xbd78e22f	-0.06076258
80	0xbddc85f3	-0.10767736
81	0xbc2b0281	-0.010437609
82	0xbd13d59d	-0.03609239
83	0x3ce48212	0.027894054
84	0xbd490829	-0.049080048
85	0x3d3a93ac	0.045550987
86	0x3bceb4c5	0.0063081705
87	0x3cabf41d	0.020990426
88	0x3b2ffb29	0.0026852584
89	0xbbf6405c	-0.0075149965
90	0x3caef09b	0.021354964
91	0x3c613a8b	0.013746868
92	0xbcb0cc77	-0.021581871
93	0x3d3c27bb	0.045936327
94	0x3cf60163	0.030029958
95	0x3d26e272	0.0407433
96	0x3c1d8ba0	0.009615809
97	0xbdce252d	-0.100656845
98	0xbc83a066	-0.016067695
99	0xb9335501	-0.00017102437
100	0x3c2ab963	0.010420176
101	0xbc81639d	-0.01579457
102	0x3d3d3d4f	0.046201047
103	0xbd311a1d	-0.043237794
104	0xbc34e4b3	-0.011040854
105	0xbd0219d7	-0.031762924
106	0xbcdf8faa	-0.027290184
107	0x3754b02e	1.2677205e-05
108	0x3d88c978	0.06679052
109	0x3cda0e3c	0.026618116
110	0xbd9d9f8b	-0.07696446
111	0x3cc9d376	0.024636965
112	0x3ce47384	0.027887113
113	0xbdbc629c	-0.09198496
114	0x3cef1905	0.029186735
115	0xbd64667e	-0.055761807
116	0xbcd414f6	-0.025888901
117	0x3c1e88a0	0.009676129
118	0x3d6329a2	0.055459626
119	0xbdb59fa7	-0.08868342
120	0x3cbe3c1c	0.023222022
121	0x3cfc3f0e	0.030791786
122	0x3ae9e2d3	0.0017844088
123	0x3ae0ada7	0.0017141596
124	0x3dc03baf	0.09386384
125	0xbd5316f2	-0.051535554
126	0xbd86c0c3	-0.06579735
127	0x3d17e4e7	0.037083533
128	0x3d0dee5e	0.034651153
129	0x3c108fa1	0.008823306
130	0xbd51fce3	-0.051266562
131	0x3c468c8c	0.01211847
132	0x3de6543f	0.112465374
133	0xbd8c9986	-0.0686522
134	0x3930f8bc	0.00016877329
135	0x3ce377be	0.027767058
136	0xbcf72fc7	-0.03017415
137	0xbd38c42f	-0.04510897
138	0x3d12021c	0.035646543
139	0xbd6fcda7	-0.058545735
140	0x3d851616	0.06498353
141	0x3b87089f	0.0041209008
142	0x3ba71bdd	0.005099757
143	0xbd81a8b1	-0.063310035
144	0x3d27e6bb	0.040991526
145	0x3d7e6734	0.06211014
146	0x3d4520be	0.04812693
147	0x3d8f981e	0.07011436
148	0x3dedd125	0.11612157
149	0xbc6f8b67	-0.014620638
150	0xbd339833	-0.04384632
151	0x3d8b7c35	0.068108
152	0x3cfe1488	0.03101565
153	0x3d042d6d	0.032269884
154	0x3b015709	0.0019735715
155	0x3d675145	0.05647399
156	0x3d272774	0.04080911
157	0x3d74e52a	0.05978886
158	0xb98742a0	-0.00025798846
159	0x3d93573e	0.071943745
160	0x3d1ce3c7	0.038303163
161	0xbc38a9b0	-0.011270925
162	0x3d0b1013	0.033950876
163	0x3d44b8aa	0.048027672
164	0x3d0ec342	0.03485418
165	0x3de9c0cd	0.11413727
166	0x3d25fb45	0.040522832
167	0x3d7256c9	0.059164796
168	0xbc43417b	-0.011917467
169	0x3cd07cc6	0.025450122
170	0xbd3abcb6	-0.045590125
171	0x3d6d1ea9	0.057890568
172	0xbcfe841a	-0.03106885
173	0x3cf33c01	0.029691698
174	0x3d12e7e5	0.035865683
175	0x3d1c9dc7	0.038236406
176	0x3cc42b00	0.023946285
177	0xbc08b157	-0.008343062
178	0x3a16d272	0.00057534047
179	0x3d99deae	0.07513176
180	0xbd752a6d	-0.059854914
181	0xbd8d252b	-0.06891855
182	0x3c5c2450	0.013436392
183	0x3d983b49	0.07433183
184	0x3d157c3a	0.036495425
185	0x3cdef628	0.027216986
186	0xbd09fabd	-0.03368639
187	0x3dcea752	0.100905076
188	0xbdc3946a	-0.09549792
189	0xbe1feffa	-0.15618888
190	0xbc024bd8	-0.007952653
191	0x3d60f8b3	0.054924678
192	0x3d846b7a	0.06465812
193	0x3d0903b6	0.033450805
194	0xbc2508fd	-0.010072944
195	0x3d6c5522	0.057698376
196	0x3c3c60e4	0.01149771
197	0x3d74f21f	0.059801217
198	0x3c03c5f8	0.008042805
199	0x3d56c2d3	0.052431893
200	0x3db1fc9c	0.086907595
201	0x3d10f13f	0.03538632
202	0x3c4caf77	0.012493006
203	0x3d38f7ac	0.045158073
204	0xbda6f415	-0.08152024
205	0x3c3a6260	0.0113759935
206	0xbc24b277	-0.010052315
207	0xbcfd4b79	-0.030919777
208	0x3d64a66a	0.055822767
209	0x3d0053fd	0.031330097
210	0xbc459407	-0.012059218
211	0xbda824a6	-0.08210115
212	0xbdce0707	-0.10059934
213	0xbdd6183a	-0.104538396
214	0x3cb8ae2d	0.022543991
215	0xbda86f51	-0.08224357
216	0x3d2830b1	0.04106206
217	0xbe556440	-0.20839024
218	0x3d059f8b	0.032622855
219	0xbd2c51b6	-0.042070113
220	0xbbcaf104	-0.006193282
221	0xbb569307	-0.0032741444
222	0x3c3bccde	0.011462418
223	0xbd31783b	-0.04332755
224	0xbcfb4306	-0.030671608
225	0xbe1df471	-0.15425278
226	0x3a8df712	0.0010831079
227	0x3dc45224	0.095859796
228	0xbc57077c	-0.013124343
229	0x3cff8a0e	0.03119376
230	0x3bf73061	0.007543609
231	0x3dbf9374	0.09354296
232	0x3d3dbac5	0.046320695
233	0xbdc37c2c	-0.09545168
234	0x3c982690	0.018573076
235	0xbda8b68e	-0.082379445
236	0xbd890ec8	-0.066922724
237	0xbb155118	-0.0022783931
238	0x3bf819e7	0.007571447
239	0xbdb802ae	-0.08984886
240	0x3c7e1998	0.015509032
241	0x3d80c050	0.06286681
242	0xbd0b52ca	-0.0340145
243	0xbd6ae028	-0.05734268
244	0xbdb1caf9	-0.08681292
245	0xbda2c382	-0.079474464
246	0x3c864fcf	0.016395478
247	0x3bde4ff6	0.0067844344
248	0x3d445052	0.047928162
249	0x3a8079b1	0.0009801892
250	0xbd16d761	-0.036826495
251	0xbddace13	-0.10683837
252	0xbd8dc526	-0.06922369
253	0xbdf0b33c	-0.11752936
254	0x3cbb6811	0.022876771
255	0xbc99e94f	-0.018788008

fc1.bias f4 [400]
0	0x3d2fad57	0.04288992
1	0x3d606f5b	0.054793697
2	0x3e31e74b	0.17373388
3	0x3ca63d01	0.02029276
4	0xbe1e7088	-0.15472615
5	0xbd90336e	-0.070410594
6	0x3d9c1007	0.076202445
7	0xbc96f153	-0.01842562
8	0xbca8c5f8	-0.020602211
9	0xbe5ee43b	-0.2176675
10	0x3d9b7b70	0.07591903
11	0x3e5616fd	0.20907207
12	0xbe40c53e	-0.18825242
13	0x3d82b135	0.06381456
14	0x3b7bdfa2	0.0038432856
15	0xbe28228c	-0.16419429
16	0x3e5c1f3d	0.21496291
17	0xbe230652	-0.1592038
18	0x3c355427	0.011067427
19	0xbd016059	-0.031586025
20	0xbd21c7bb	-0.03949712
21	0x3dfae5f1	0.12250889
22	0xbd4e64bc	-0.050389037
23	0xbe162552	-0.14662674
24	0x3d177a93	0.03698213
25	0xbd9aa205	-0.07550434
26	0xbde86432	-0.11347236
27	0xbc458ddc	-0.012057748
28	0xbe4a50dc	-0.19757408
29	0x3dc3d7aa	0.09562619
30	0xbe563f98	-0.20922697
31	0x3de4c3ca	0.11170156
32	0xbca29c10	-0.019849807
33	0x3e609ef0	0.2193563
34	0xbe1c6f56	-0.15276846
35	0xbe19a90b	-0.15005891
36	0x3de9fe70	0.11425483
37	0xbe5196f1	-0.20467736
38	0x3dbd889f	0.09254574
39	0xbe64de9f	-0.22350548
40	0x3dbf0ee6	0.093290135
41	0xbe14ffe9	-0.14550747
42	0x3e257cee	0.16160938
43	0x3e0cdb6c	0.13755578
44	0xbda01996	-0.0781738
45	0xbdb2f157	-0.08737438
46	0x3c3fecf1	0.011714206
47	0x3d914d63	0.070948385
48	0x3e2e626f	0.17029737
49	0x3e2af933	0.16696624
50	0x3e1b08d3	0.15140085
51	0x3e079fb2	0.13244513
52	0xbe7a1fd5	-0.24426205
53	0xbe46344f	-0.19355892
54	0x3dc99dfe	0.09844588
55	0x3da0632a	0.07831414
56	0xbe27a670	-0.16372085
57	0xbd8e3297	-0.06943243
58	0x3dc1ca8a	0.094624594
59	0xbde29f44	-0.11065534
60	0x3d388e8e	0.045057826
61	0xbe38b1ab	-0.18036525
62	0xbdc907ac	-0.098159164
63	0x39f04e18	0.00045834552
64	0x3d9b134e	0.075720415
65	0xbd8631a2	-0.065524355
66	0x3d31b1ff	0.04338264
67	0x3d8a0914	0.06740013
68	0xbe190bbe	-0.14945886
69	0x3e0ab593	0.13545828
70	0x3d5a3300	0.053271294
71	0x3dee4c0f	0.11635601
72	0xbcf7c5b0	-0.030245632
73	0x3c8b411e	0.016998824
74	0xbe6d4a12	-0.23172787
75	0xbdc30b01	-0.09523583
76	0xbe302de9	-0.17205013
77	0x3d853c35	0.06505624
78	0x3dae3c92	0.085076466
79	0x3d17de22	0.037077077
80	0x3e1f80ed	0.15576525
81	0xbde5b6aa	-0.11216481
82	0x3d397b43	0.045283567
83	0x3e2b31b9	0.16718186
84	0xbe334610	-0.17507195
85	0x3e0ddc2a	0.13853517
86	0x3d2d187f	0.04225969
87	0xbe74a804	-0.23892218
88	0xbe123553	-0.14278154
89	0x3c33a0af	0.010963603
90	0xbda12fcb	-0.07870444
91	0x3d8148cc	0.06312713
92	0x3dfe6b72	0.12422837
93	0x3d7faf43	0.062423002
94	0xbea93df3	-0.33055076
95	0xbcdd328b	-0.02700164
96	0x3d1024f1	0.03519148
97	0x3e2f12d7	0.1709703
98	0x3dd54fc2	0.10415603
99	0xbe53d381	-0.20686151
100	0x3dcf7f9d	0.10131762
101	0xbde352fc	-0.110998124
102	0xbd4a090c	-0.049325034
103	0xbe0d3464	-0.13789517
104	0x3e79cfbd	0.24395652
105	0xbd195cd7	-0.037442055
106	0x3c76ce7e	0.01506388
107	0x3e57f128	0.21088088
108	0xbe3f441b	-0.18678324
109	0x3dfe1621	0.124065645
110	0xbd155949	-0.036462102
111	0xbe62047d	-0.22072025
112	0xbe22ba14	-0.15891296
113	0x3ce3e35c	0.027818374
114	0xbdf823d7	-0.12116211
115	0xbe4bf498	-0.19917524
116	0xbd82df5e	-0.0639026
117	0x3d6b68ac	0.05747287
118	0xbe6ac014	-0.22924834
119	0xbe4561b9	-0.1927556
120	0x3d904967	0.070452504
121	0x3bbc75e7	0.0057513597
122	0xbe702c07	-0.23454295
123	0xbe4c4007	-0.199463
124	0xbe0c1345	-0.13679226
125	0xbe6a9607	-0.22908793
126	0x3d7954ee	0.06087201
127	0x3d5561a2	0.052095063
128	0xbe12aafe	-0.14323041
129	0xbe0e6653	-0.13906221
130	0x3de406f5	0.111341394
131	0x3d679c7e	0.056545727
132	0xbe481255	-0.19538243
133	0x3b3173b8	0.002707703
134	0x3e264a32	0.16239241
135	0xbca24c0a	-0.019811649
136	0x3d9a28b4	0.07527295
137	0xbcbb1ed0	-0.022841841
138	0x3d0f6a2f	0.035013374
139	0xbde68409	-0.112556525
140	0xbb1d8d9c	-0.0024040705
141	0xbe51fe50	-0.20507169
142	0xbdf7c31a	-0.120977595
143	0xbe230eb8	-0.15923584
144	0xbdcc18a5	-0.09965638
145	0x3e1c9e4f	0.15294765
146	0xbe7463b9	-0.23866166
147	0x3bc1a57b	0.0059096194
148	0xbc70bc9f	-0.014693408
149	0xbdad40b3	-0.08459606
150	0x3dec2d80	0.11532116
151	0x3d236f05	0.0399008
152	0xbe016bbc	-0.12638754
153	0xbe8da450	-0.27664423
154	0xbe84992e	-0.25898117
155	0xbd8aeccb	-0.06783446
156	0x3e0f61dd	0.14002176
157	0x3d4ef817	0.050529566
158	0x3d5405c9	0.05176333
159	0xbdb14112	-0.08654989
160	0xbdd5d97c	-0.104418725
161	0x3d06a376	0.032870732
162	0xbe432f83	-0.19061093
163	0x3d66c76c	0.056342527
164	0xbcc8c76f	-0.02450916
165	0xbc0ac927	-0.00847081
166	0xbd2a6beb	-0.041606825
167	0xbe5e6a59	-0.21720256
168	0x3dad8c04	0.084739715
169	0xbc5e7978	-0.013578765
170	0xbe4493d7	-0.19197021
171	0x3de466e9	0.11152441
172	0x3ddd3ce9	0.10802633
173	0xbd994986	-0.074847266
174	0xbe3fbc21	-0.18724109
175	0xbd7fe461	-0.06247366
176	0x3d23074c	0.03980188
177	0xbda44b16	-0.08022134
178	0xbe872a3b	-0.26399407
179	0xbe3aceb2	-0.1824291
180	0xbd82145c	-0.063515395
181	0xbd7b0e3e	-0.06129288
182	0xbe5716c7	-0.21004783
183	0xbe3bf84a	-0.18356434
184	0x3d93d00c	0.07217416
185	0x3d9bb3d2	0.076026574
186	0xbe07e94b	-0.13272588
187	0xbe01ead7	-0.1268724
188	0xbe758e1d	-0.23979993
189	0xbd822c5a	-0.06356116
190	0x3d83a293	0.06427493
191	0xbdb10a64	-0.0864456
192	0x3e342376	0.17591652
193	0xbdaf54ca	-0.08561094
194	0xbe252141	-0.16125967
195	0x3dbe767c	0.09299943
196	0xbe29ee77	-0.16594873
197	0xbe46c6c6	-0.19411764
198	0xbe783e4d	-0.24242516
199	0xbd6faa52	-0.05851204
200	0xbbab43e2	-0.005226598
201	0xbd631562	-0.055440314
202	0x3e267dba	0.16258898
203	0xbccc17f0	-0.024913758
204	0x3d33e969	0.04392377
205	0xbe3919f3	-0.18076305
206	0x3e2a41db	0.16626684
207	0xbdb4e130	-0.088320136
208	0x3e32a789	0.17446722
209	0x3e1dca9a	0.15409318
210	0x3db436d2	0.08799519
211	0xbe1f2224	-0.15540367
212	0x3d2b5a63	0.041834246
213	0x3de2bc29	0.11071045
214	0xbe2ca34d	-0.1685917
215	0x3c78b2d0	0.015179351
216	0xbd600271	-0.05468983
217	0x3c1d10ae	0.009586496
218	0xbe33e6de	-0.17568538
219	0x3dfd62ef	0.12372386
220	0xbdb7a8a9	-0.08967716
221	0x3c9f2059	0.019424604
222	0xbb944adc	-0.0045255255
223	0xbcea03c8	-0.028566256
224	0x3e2005e5	0.15627249
225	0xbdb773c5	-0.08957628
226	0xbd73a539	-0.05948374
227	0xbcdc7176	-0.026909571
228	0x3c34d3ad	0.011036796
229	0xbe66685e	-0.2250075
230	0xbe77da3c	-0.24204344
231	0xbe480b56	-0.19535574
232	0xbe09b2f3	-0.1344717
233	0x3e213d36	0.15746006
234	0x3e1a4f93	0.15069418
235	0x3dc20f45	0.09475569
236	0xbc25b3b9	-0.01011365
237	0xbe5d488c	-0.21609706
238	0x3deccbae	0.11562286
239	0x3dbb9586	0.09159379
240	0x3e07dbe6	0.13267478
241	0xbdbff637	-0.09373134
242	0xbbf1df02	-0.007381321
243	0x3d15541b	0.036457162
244	0xbcc3bf13	-0.023894822
245	0x3ddde79a	0.1083519
246	0x3e0b21fc	0.13587183
247	0x3e1726e6	0.14760932
248	0xbc5d00c6	-0.013488954
249	0xbdf5f67b	-0.12009903
250	0xbe2da0d5	-0.16955884
251	0xbe5497ae	-0.20760986
252	0xbe371262	-0.17878106
253	0x3e0bc134	0.1364792
254	0x3dfb94d1	0.12284244
255	0xbd89bd7c	-0.067255944

fc2.weight f4 [300, 402]
0	0xbd8d1c0d	-0.06890116
1	0xb8bef68e	-9.1058304e-05
2	0x3d231a3e	0.03981995
3	0xbe18432b	-0.14869373
4	0x3c998e11	0.0187445
5	0x3cedd4d0	0.029032141
6	0xbc4bfa77	-0.012449852
7	0xbdd76d13	-0.10518851
8	0xbd81b985	-0.06334213
9	0xbe45f3b9	-0.19331254
10	0xbd363f50	-0.044493973
11	0x3cfd2e1a	0.030905772
12	0x3d049a41	0.03237367
13	0xbc58d1d9	-0.013233625
14	0xbd5f24f1	-0.05447859
15	0xbcc8ecd9	-0.024527
16	0x3b2f2bda	0.0026729018
17	0x3cf68257	0.030091448
18	0xbe05debd	-0.13073249
19	0x3c6c91a3	0.014439019
20	0x3d29d89f	0.04146635
21	0x3b0fcc8d	0.002194199
22	0x3daa41ae	0.08313309
23	0xbd8eab41	-0.06966258
24	0xbbfde8ed	-0.007748714
25	0xbd239183	-0.039933693
26	0x3c6bb33b	0.014385994
27	0x3cdce25d	0.026963407
28	0xbd4d7e11	-0.050169054
29	0xbd9c3ea8	-0.07629138
30	0x3ca5cc5b	0.020239046
31	0x3cb3a57a	0.021929491
32	0x3c5fcd12	0.013659732
33	0x3d34fed6	0.044188343
34	0xbbf311e3	-0.0074179037
35	0x3bbeea7e	0.0058262935
36	0xbafa157c	-0.0019079889
37	0xbcd5d35a	-0.026101757
38	0xbc6e1a34	-0.0145326145
39	0x3c85281c	0.016254477
40	0x3d81d7c0	0.06339979
41	0x3db6ded9	0.089292236
42	0xbdf8e9dd	-0.12153981
43	0x3d4f30a7	0.050583508
44	0xbce154f5	-0.027506331
45	0x3c9c3317	0.01906733
46	0xbbedfc20	-0.0072627217
47	0xb9ea3629	-0.0004467231
48	0x3d09e3bc	0.03366445
49	0x3c732c29	0.014842072
50	0xbc989e6e	-0.018630233
51	0xbcc32842	-0.023822907
52	0xbe1bd8ac	-0.15219373
53	0xbdde212b	-0.1084617
54	0x3ca4950f	0.020090608
55	0xbcc12da2	-0.02358133
56	0xbd939dd9	-0.072078414
57	0xbd5b66bb	-0.05356477
58	0xbce7ab20	-0.028279841
59	0xbd104408	-0.03522113
60	0x3d1b02f1	0.037844602
61	0xbc4871f9	-0.012234204
62	0xbbf3e38c	-0.007442897
63	0xbd81a8dd	-0.06331036
64	0xbcf0e432	-0.029405687
65	0x3cb42bdc	0.02199357
66	0xbc4904b6	-0.01226919
67	0xbd86a8f6	-0.065751955
68	0x3d10d930	0.035363376
69	0xbdb11e9e	-0.08648418
70	0x3b9c2a9d	0.004765822
71	0x3d508c3c	0.050914988
72	0x3ca2d46c	0.019876681
73	0xbd18c8d0	-0.037300885
74	0xbe0396ba	-0.12850466
75	0x3d3ced92	0.046125002
76	0xbdaa59f5	-0.08317939
77	0xbcc4eb10	-0.024037868
78	0x3c082aeb	0.008311014
79	0xbd1c6c1f	-0.03818905
80	0xbd7ecbb4	-0.062205985
81	0x3d7d0835	0.061775405
82	0xbd844691	-0.06458772
83	0x3ce26210	0.02763465
84	0x3bbda46a	0.005787422
85	0x3c17d77f	0.009267687
86	0xbbd3ae07	-0.0064599547
87	0xbd42fe0f	-0.04760557
88	0x3d2c6dc8	0.042096883
89	0xb80356a6	-3.131353e-05
90	0x3d5ac44e	0.053409867
91	0x3cc97f4a	0.024596829
92	0xbda37d1e	-0.079828486
93	0x3c428219	0.011871838
94	0xbbee3329	-0.0072692824
95	0x3d242bf0	0.040080965
96	0x3cc1f7f6	0.023677807
97	0xbc01f985	-0.007933025
98	0x3d540286	0.05176022
99	0x3c85b5c5	0.016322026
100	0xbbbeab31	-0.0058187474
101	0xbc6c9669	-0.014440157
102	0xbd243d9c	-0.040097818
103	0xbc85d672	-0.016337607
104	0xbc81bda8	-0.015837505
105	0xbd884e7c	-0.06655595
106	0x3ca4b517	0.020105882
107	0x3d13e81e	0.036110036
108	0x3d147f50	0.036254227
109	0xbdf674e1	-0.12034012
110	0x3cc212e0	0.02369064
111	0xbd27cf08	-0.040968925
112	0x3b257696	0.0025247685
113	0x3d809c25	0.06279782
114	0xbcde2656	-0.02711789
115	0xbcea6e25	-0.028616974
116	0x3ca169ee	0.019703832
117	0xbd13d9c5	-0.036096353
118	0xbc403894	-0.011732239
119	0xbc5145b5	-0.012772967
120	0xbd483a3f	-0.048883673
121	0x3cb8f9eb	0.022580108
122	0x3c37a0a1	0.0112077305
123	0xbc352b09	-0.011057624
124	0x3ba8cde2	0.0051514963
125	0xbc52224d	-0.012825561
126	0xbc6b6ef1	-0.014369712
127	0x3d499dc6	0.04922273
128	0x3d9f4e5e	0.07778619
129	0xbd80806e	-0.06274496
130	0x3d87ecc8	0.06636959
131	0x3c7e30a7	0.015514529
132	0x3c60fedc	0.013732638
133	0xbbbd4e2b	-0.0057771406
134	0x3b13f289	0.0022574982
135	0xbda49c24	-0.08037594
136	0xbd43c30e	-0.04779344
137	0xbd2bbadb	-0.041926246
138	0xbdb329f4	-0.08748236
139	0xbc9df8be	-0.019283649
140	0x3ce7160a	0.028208751
141	0xbcca4cd7	-0.024694843
142	0x3ce08311	0.027406247
143	0x3d5abb41	0.053401235
144	0xbd13ea00	-0.03611183
145	0xbd88538d	-0.06656561
146	0xbd6f8fcf	-0.058486756
147	0xbd5af7d2	-0.053458996
148	0x3dddb021	0.108246095
149	0xbd6e0979	-0.058114503
150	0x3b901963	0.0043975576
151	0x3cbb3f97	0.02285747
152	0x3c91c6a3	0.017794913
153	0xbd9f55c3	-0.077800296
154	0x3dae27d0	0.085036874
155	0xbd0d8042	-0.034546144
156	0xbc389be5	-0.011267637
157	0xbbb7023d	-0.0055849836
158	0xbb42427f	-0.0029641686
159	0x3b9a335e	0.0047058305
160	0xbc70e033	-0.014701891
161	0xbaf8c99f	-0.0018980986
162	0x3b892bad	0.0041861148
163	0x3d82de31	0.06390036
164	0xbd752bd2	-0.059856243
165	0x3d1242e9	0.03570834
166	0xbd0131d1	-0.03154165
167	0xbd1e4cdd	-0.03864752
168	0xbd2d877f	-0.042365547
169	0xbd5d2acd	-0.053995896
170	0xbc6ff8aa	-0.0146466885
171	0x3d34b25a	0.0441154
172	0x3d6aac81	0.05729342
173	0xbd5b95f6	-0.05360981
174	0xbb953469	-0.004553367
175	0xbd15cb4e	-0.03657084
176	0x3cd6c1fa	0.026215542
177	0xbceae718	-0.028674647
178	0x3d158e89	0.036512885
179	0xbc42158e	-0.011845959
180	0x3d1945bd	0.037420023
181	0x3c91982e	0.01777276
182	0x3dd90737	0.10597079
183	0x3d59a90a	0.053139724
184	0x3d3e8b46	0.04651954
185	0x3cbe0a0a	0.023198146
186	0xbd02fb67	-0.031978037
187	0x3d925e17	0.071468525
188	0x3d21dffb	0.039520245
189	0x3c9d1dba	0.019179214
190	0x3bbfb22b	0.0058500967
191	0xbcc4a4c9	-0.024004357
192	0x3d13d82d	0.036094833
193	0x3d2c56a8	0.04207483
194	0x3cdb6302	0.026780609
195	0x3dacb06d	0.08432088
196	0xbd102e41	-0.03520036
197	0xbd1db70e	-0.038504653
198	0x3ccef50e	0.025263336
199	0xbd26a64f	-0.040685948
200	0xbaa32906	-0.0012448139
201	0x3d08a0cc	0.033356473
202	0xbc49abc0	-0.012309015
203	0x3d20dadc	0.03927122
204	0x3d1bbbfb	0.03802107
205	0xbd8fcc14	-0.07021347
206	0xbca3b504	-0.019983776
207	0xbc826a59	-0.015919851
208	0x3c350451	0.011048392
209	0xbbb47a58	-0.0055077486
210	0x3cf16335	0.02946625
211	0x3d1c2e4f	0.0381301
212	0xbcb4543a	-0.022012819
213	0xbce061ea	-0.027390439
214	0x3d82d7c9	0.06388814
215	0xbb2943ad	-0.0025827691
216	0x3bd46cec	0.006482711
217	0xbd9cda75	-0.07658855
218	0x3bc98a4f	0.006150521
219	0xbdf4f1ae	-0.11960159
220	0x3d9714c8	0.073770106
221	0xbbae584f	-0.005320586
222	0x3d532950	0.05155307
223	0xbd4d6a04	-0.050149933
224	0xbd755cae	-0.05990284
225	0xbc18bbc8	-0.009322114
226	0x3b7765e0	0.0037749931
227	0xbcd7c082	-0.026336912
228	0x3d1b3842	0.03789545
229	0xbc1f9def	-0.009742244
230	0xbce5e14b	-0.02806153
231	0x3d60f722	0.054923184
232	0x3d26e534	0.04074593
233	0x3ccc4fb1	0.024940344
234	0xbcb5ff17	-0.022216363
235	0xbd82ef93	-0.063933514
236	0x3d22774a	0.039664544
237	0xbd698a88	-0.05701688
238	0x3b5952d7	0.0033160949
239	0xbbff95b0	-0.0077998266
240	0xbcbe87ba	-0.023258079
241	0x3d2b677e	0.041846745
242	0xbc8df743	-0.017329818
243	0x3b81e31e	0.003963842
244	0x3e11658a	0.1419889
245	0x3c8db7a2	0.017299477
246	0x3c9bbae1	0.01901001
247	0x3c00673f	0.007837116
248	0xbd09efd2	-0.033675976
249	0xbce2a3c5	-0.027665982
250	0x3ccdb896	0.025112431
251	0x3d1e2f3a	0.038619258
252	0xbc3a8a10	-0.011385456
253	0xbc1082f6	-0.008820286
254	0xbd4b42a6	-0.049624108
255	0xbd6d5c16	-0.057949148

fc2.bias f4 [300]
0	0xbe066fbb	-0.1312856
1	0xbd8ce416	-0.068794414
2	0xbc882c26	-0.016622614
3	0xbd0d0e2b	-0.03443734
4	0xbd8cbdbe	-0.06872128
5	0xbe28fe51	-0.16503264
6	0xbdc33d44	-0.0953317
7	0xbd96b700	-0.07359123
8	0xbcd10faf	-0.025520174
9	0xbd8d53db	-0.0690076
10	0x3bee67ce	0.007275558
11	0xbd12d568	-0.03584805
12	0xbd9e81ce	-0.07739602
13	0xbd445c32	-0.047939487
14	0xbc794c7c	-0.015215989
15	0xbc7a2152	-0.015266733
16	0xbe12707c	-0.14300722
17	0xbe2479ba	-0.1606206
18	0x3d1c2c0c	0.038127944
19	0xbb6ab43f	-0.0035813001
20	0xbdc50102	-0.09619333
21	0xbd6a8201	-0.057252888
22	0xbe050aad	-0.12992354
23	0xbdd3acc5	-0.103356875
24	0xbdb55f33	-0.088560484
25	0xbddb5376	-0.10709278
26	0xbe23695d	-0.15958162
27	0xbd6465d6	-0.05576118
28	0xbdef2cac	-0.11678442
29	0xbd0e3e8a	-0.03472761
30	0xbe0f4aab	-0.13993327
31	0xbe01bcb1	-0.12669636
32	0xbddcb971	-0.10777558
33	0xbdd30705	-0.10304073
34	0xbdbe101a	-0.09280415
35	0xbd9830a7	-0.07431155
36	0xbe11ed99	-0.14250793
37	0xbe3cd183	-0.18439297
38	0xbdc157a2	-0.09440543
39	0xbda860ed	-0.08221612
40	0xbdb2b219	-0.08725376
41	0xbe10e453	-0.14149599
42	0xbdc54fde	-0.09634374
43	0xbe008952	-0.12552384
44	0xbd730ef2	-0.059340425
45	0xbe0efa0d	-0.13962574
46	0xbb8c9cf8	-0.004291173
47	0xbd1de49e	-0.038548104
48	0xbdd79a92	-0.10527529
49	0xbde04389	-0.10950381
50	0xbd57e7f8	-0.052711457
51	0xbdcd0153	-0.10010018
52	0xbdfedec0	-0.1244483
53	0xbd65e2b2	-0.056124397
54	0xbd137030	-0.035995662
55	0xbd96bb50	-0.07359946
56	0xbd921d75	-0.07134525
57	0xbd61a1ca	-0.055085935
58	0xbe1b52da	-0.15168324
59	0xbda94c66	-0.08266525
60	0xbe0fdc42	-0.14048865
61	0xbda37da1	-0.07982946
62	0xbdce4374	-0.100714594
63	0xbd59c41f	-0.05316555
64	0xbd93c841	-0.0721593
65	0xbd938fc5	-0.07205156
66	0xbde09c57	-0.109673195
67	0xbcbc7a67	-0.023007585
68	0xbd5b3d73	-0.0535254
69	0xbd8c696d	-0.06856046
70	0xbd624688	-0.055243045
71	0xbd9e5aff	-0.077322
72	0xbddbbbfd	-0.10729215
73	0xbddc7c4c	-0.10765895
74	0xbd9587ce	-0.07301293
75	0xbd8e7d78	-0.06957525
76	0x3c4f3cef	0.012648805
77	0xbdc601a0	-0.09668279
78	0xbdd2a691	-0.10285676
79	0xbcd7ed55	-0.026358286
80	0xbe28234c	-0.16419715
81	0xbd16caf1	-0.036814634
82	0xbd5b223a	-0.053499438
83	0xbdbd09d6	-0.09230392
84	0xbdb0e0cd	-0.08636627
85	0xbcfc4425	-0.030794213
86	0xbcd7cdc5	-0.026343236
87	0xbde3349e	-0.1109402
88	0xbd6d857b	-0.057988625
89	0xbd0e01b1	-0.03466958
90	0xbe2d57f6	-0.16928086
91	0xbde35a8e	-0.11101256
92	0xbe2681cb	-0.1626045
93	0xbd9a7f9a	-0.07543869
94	0xbe29c083	-0.16577344
95	0xbded9238	-0.11600155
96	0xbd812403	-0.06305697
97	0xbdac3da1	-0.08410192
98	0xbe1ce3e8	-0.15321314
99	0xbdb7be47	-0.089718394
100	0xbddca2dd	-0.10773251
101	0xbda64b3d	-0.08119819
102	0xbdea63b6	-0.114447996
103	0xbdfefb4b	-0.12450274
104	0xbd98b87d	-0.07457063
105	0xbd2427a8	-0.04007688
106	0xbcfc0a6a	-0.030766685
107	0xbd50f1cd	-0.05101185
108	0xbe038dcf	-0.12847064
109	0xbce7d1a8	-0.028298214
110	0xbd72599e	-0.059167497
111	0xbe2fe7f5	-0.17178328
112	0xbdea9d75	-0.11455814
113	0xbdda79c6	-0.10667758
114	0xbd6b0d2a	-0.0573856
115	0xbdd334df	-0.10312819
116	0x3c4afba6	0.012389099
117	0xbddc7180	-0.10763836
118	0xbcefbc36	-0.02926455
119	0xbdb4dd8c	-0.08831319
120	0xbe010acc	-0.12601775
121	0xbd8d1208	-0.06888205
122	0xbb236558	-0.0024932232
123	0xbdb4e06b	-0.08831867
124	0xbdfaeea2	-0.12252547
125	0xbd8039a3	-0.06260993
126	0xbdc018d7	-0.09379738
127	0xbdd2499e	-0.102679476
128	0xbd88c4b9	-0.06678147
129	0xbd74af0a	-0.059737243
130	0xbd767651	-0.06017143
131	0xbdc34b24	-0.09535816
132	0xbde8697e	-0.11348246
133	0xbdd642cd	-0.1046196
134	0xbd876289	-0.06610591
135	0xbd474282	-0.04864741
136	0xbd230321	-0.039797906
137	0xbda1d689	-0.079022475
138	0xbe0802e6	-0.13282356
139	0xbe169677	-0.14705835
140	0xbdc35ba4	-0.095389634
141	0xbd97d7d1	-0.074142106
142	0xbd8a7597	-0.0676071
143	0xbdae06cb	-0.084973894
144	0xbe09fb18	-0.13474691
145	0xbe20e655	-0.15712865
146	0xbdbfaa44	-0.093586475
147	0xbd9884ca	-0.074472025
148	0xbd866f65	-0.065642156
149	0xbd8c0a97	-0.06837957
150	0xbdb1ad0a	-0.08675583
151	0xbd518fa2	-0.05116237
152	0xbe1551a2	-0.14581922
153	0xbd38f9fd	-0.045160282
154	0xbb9820fd	-0.0046426044
155	0xbd94cc08	-0.072654784
156	0xbdc3c2b3	-0.0955862
157	0xbd763afa	-0.06011484
158	0xbdbd395e	-0.092394575
159	0xbdd9ddf9	-0.10638041
160	0xbda2c6ac	-0.0794805
161	0xbda2d07f	-0.07949924
162	0xbd944c4d	-0.07241116
163	0xbb94b146	-0.004537734
164	0xbdcc9c86	-0.09990792
165	0x3c0f8e72	0.008761989
166	0xbda2cbf1	-0.07949055
167	0xbde54e86	-0.11196618
168	0xbd22e4b4	-0.03976889
169	0xbe1284ee	-0.14308521
170	0xbdb0b2e5	-0.086278714
171	0xbdf385da	-0.118907645
172	0xbd93075d	-0.07179139
173	0xbdfa1e10	-0.12212765
174	0xbdf3fc43	-0.119133495
175	0xbd8f1435	-0.06986276
176	0xbdc7d11e	-0.09756683
177	0xbdc44ccb	-0.095849596
178	0xbdb1a0f0	-0.086732745
179	0xbdc6b830	-0.097031
180	0xbc72f484	-0.014828805
181	0xbcbb9b73	-0.022901272
182	0xbe082dfa	-0.13298789
183	0xbd72967b	-0.05922554
184	0xbdca1eac	-0.098691314
185	0xbdaf4da4	-0.08559731
186	0xbe039841	-0.12851049
187	0xbe0939dd	-0.1340098
188	0xbdfb499d	-0.122699
189	0xbdb26b7b	-0.087119065
190	0xbcfd0ddf	-0.030890403
191	0xbd8d99c2	-0.069140926
192	0xbdb40879	-0.087906785
193	0xbd4421ea	-0.047883905
194	0xbd8fdbdc	-0.07024357
195	0xbd48187a	-0.048851468
196	0xbe2739b7	-0.1633061
197	0xbc38fa20	-0.011290103
198	0xbda6761a	-0.08127995
199	0xbd947d9c	-0.072505206
200	0xbd07bb87	-0.033137824
201	0xbd7e8e58	-0.06214747
202	0xbe0a1f45	-0.13488491
203	0xbd46b9dc	-0.048517093
204	0xbd2736b9	-0.040823672
205	0xbd894ecb	-0.06704482
206	0xbdb87bcf	-0.090079896
207	0xbcb12474	-0.021623828
208	0xbb9a43e3	-0.0047077998
209	0xbd8ca676	-0.068676874
210	0xbdd3dd19	-0.103449054
211	0xbd6e11a9	-0.05812231
212	0xbcc40118	-0.023926303
213	0xbe14a83e	-0.14517304
214	0xbd302359	-0.04300246
215	0xbe095239	-0.13410272
216	0xbcb18104	-0.021667965
217	0xbdfed8dc	-0.124437064
218	0xbbee2eeb	-0.0072687767
219	0xbd699ad1	-0.05703241
220	0xbd07eb5b	-0.033183437
221	0xbd9b38ff	-0.075792305
222	0xbd846ee4	-0.06466463
223	0xbd2a84a8	-0.041630417
224	0xbdbaf5bc	-0.09128901
225	0xbdf78c9a	-0.120873645
226	0xbdd7f17a	-0.10544105
227	0xbdc655a3	-0.09684303
228	0xbdfa476a	-0.122206524
229	0xbc9901bf	-0.01867759
230	0xbd98b761	-0.07456852
231	0xbd284d78	-0.041089505
232	0xbdc04530	-0.093881965
233	0xbdc64686	-0.0968142
234	0xbd7c8ce5	-0.061657805
235	0xbd7aa627	-0.06119361
236	0xbdd8a43a	-0.10578199
237	0xbddf73be	-0.10910748
238	0xbd482e9f	-0.048872586
239	0xbdd94b17	-0.106100254
240	0xbe1517d8	-0.14559877
241	0xbd7a5aa0	-0.061121583
242	0xbe0f82ed	-0.14014788
243	0xbd585c81	-0.052822594
244	0xbe036cdf	-0.128345
245	0xbd4b0977	-0.049569573
246	0xbd98eac4	-0.07466653
247	0xbd188456	-0.03723558
248	0xbdb6e668	-0.08930665
249	0xbd070507	-0.03296378
250	0xbd36ab6d	-0.044597078
251	0xbd4b3148	-0.049607545
252	0xbdaed790	-0.08537209
253	0xbdb72ed7	-0.08944481
254	0xbe00f797	-0.12594448
255	0xbde07fbe	-0.10961865

fc4.weight f4 [1, 300]
0	0xbca3c5fb	-0.019991865
1	0x3d05c79e	0.032661073
2	0x3c8e8cfd	0.017401213
3	0xbcae7445	-0.021295676
4	0x3ce46bb3	0.027883386
5	0x3cbe0ac2	0.02319849
6	0x3c471475	0.012150873
7	0x3ac8b1c5	0.0015311769
8	0xbbdbd266	-0.006708431
9	0x3be8661c	0.0070922505
10	0xbca813b5	-0.02051721
11	0xbc885cbf	-0.016645787
12	0xbc708b65	-0.014681672
13	0xbcc2e768	-0.023791984
14	0xbd0b7898	-0.034050554
15	0x3cd5a2f6	0.026078682
16	0x3ce6cec2	0.028174762
17	0x3da2231c	0.07916853
18	0xbbf90470	-0.007599406
19	0xbc0d984e	-0.008642269
20	0x3cbaea8f	0.022816924
21	0xbd168692	-0.03674943
22	0x3c5cb9cf	0.013472035
23	0x3db6a9e8	0.08919126
24	0x3c947779	0.018123375
25	0x396e4b5b	0.00022725521
26	0xba6b0e61	-0.0008966681
27	0xbc601483	-0.013676765
28	0x3be81e6e	0.0070837056
29	0xbb7a7d2b	-0.0038221579
30	0x3c8d65f8	0.017260537
31	0xbd5ce8be	-0.053932898
32	0xbc10ebfc	-0.008845326
33	0x3d87022e	0.065922126
34	0xbc1d45ed	-0.009599191
35	0x3a63c29c	0.0008688362
36	0xbca2a046	-0.019851815
37	0x3c2afae3	0.010435793
38	0xbd1a1fba	-0.037627913
39	0x3c8ae5f8	0.01695536
40	0xbca57aad	-0.020200098
41	0x3d1847f0	0.03717798
42	0xbc8b744a	-0.017023224
43	0xbb92fffe	-0.004486083
44	0xbc79967f	-0.015233635
45	0x3d0248a7	0.031807568
46	0xbb32cbfb	-0.0027282226
47	0xbc549425	-0.0129747735
48	0x3be6abf3	0.007039541
49	0x3ced4745	0.028964648
50	0x3bdfc005	0.0068283104
51	0x3c77353d	0.015088377
52	0xbaf6d19f	-0.0018830783
53	0x3d40492e	0.04694479
54	0xbd7fa337	-0.062411513
55	0x3c774a8b	0.015093456
56	0xbcd750e8	-0.026283696
57	0xbccc477e	-0.024936434
58	0x3d00a194	0.031404093
59	0xbc5172fa	-0.01278376
60	0xbc94101a	-0.018074084
61	0xbba5e3aa	-0.00506254
62	0xbc680ffc	-0.014163967
63	0x3d5680ee	0.05236905
64	0x3d407ff0	0.04699701
65	0xbce0a3b8	-0.027421817
66	0xbd1a0991	-0.03760678
67	0xbd41d5a0	-0.04732287
68	0x3c833cd4	0.016020216
69	0xbb463db3	-0.0030249178
70	0xbcbe4cf4	-0.023230053
71	0x3ce72450	0.028215557
72	0x3c72a2c9	0.014809319
73	0xbcd5ca5c	-0.026097469
74	0x3d30da6b	0.04317705
75	0x3c6e6881	0.014551283
76	0xbc7ade59	-0.015311801
77	0xbbf41c09	-0.007449631
78	0xbca63946	-0.020290982
79	0x3c976147	0.018479003
80	0xbb609d33	-0.0034273386
81	0xbc230930	-0.009950921
82	0x3d4c7b14	0.049922064
83	0xbcf3c7ed	-0.029758418
84	0x3cb49ae6	0.022046518
85	0xbc41e0c1	-0.011833371
86	0xbcbf46d4	-0.023349203
87	0x3c9f43c3	0.019441491
88	0xbca35fa1	-0.01994306
89	0xbc21679f	-0.009851365
90	0x3d43c89c	0.047798738
91	0x3d2c011b	0.04199324
92	0x3d01cd9e	0.031690232
93	0xbc22becf	-0.009933188
94	0x3d4186ab	0.04724757
95	0x3b9675a4	0.0045916606
96	0xbca6b151	-0.020348223
97	0xbc8a1d30	-0.01685962
98	0x3d116cfd	0.03550433
99	0xbd12107e	-0.03566026
100	0x3cd4b8fb	0.025967112
101	0x3c18466f	0.009294136
102	0x3d68f188	0.056870967
103	0xbcc96c7f	-0.024587868
104	0x3c620e43	0.013797346
105	0xbd293fa7	-0.04132047
106	0x3c6013f1	0.013676629
107	0xbcc1d98e	-0.023663308
108	0xba23b55e	-0.00062449824
109	0xbc7722ad	-0.015083951
110	0xbcbcc9a4	-0.023045368
111	0xbd828c25	-0.06374387
112	0x3e0ca4b7	0.13734709
113	0xbc3b248c	-0.011422288
114	0x3b699ee5	0.0035647687
115	0xbd14b394	-0.03630407
116	0x3c095f67	0.008384562
117	0xbcd6c40b	-0.026216527
118	0xbc103c7e	-0.008803485
119	0x3bd76ebf	0.0065744813
120	0x3b928aa6	0.0044720946
121	0xbc53f9cc	-0.012937974
122	0xbc2d9858	-0.010595404
123	0x3ce2cde1	0.027686061
124	0xbc1cc770	-0.009569034
125	0x3c85fd81	0.016356232
126	0xbc5b6fb5	-0.013393332
127	0xbbd2e50f	-0.0064359973
128	0xbcb57886	-0.022152197
129	0xbcbaf2e3	-0.022820896
130	0xbc8a9a14	-0.016919173
131	0x3c41b437	0.011822752
132	0xbc8fb871	-0.017544003
133	0x3c6ddc47	0.01451785
134	0x3b4be81e	0.0031113694
135	0xbc59fcaf	-0.013304873
136	0x3cc11ad5	0.023572365
137	0xbbea4124	-0.0071488786
138	0x3c6416f9	0.013921493
139	0xbcffc469	-0.031221585
140	0xbcd674b5	-0.026178697
141	0xbda9cb6f	-0.08290755
142	0x3cbbbfa4	0.02291853
143	0xbc80873c	-0.015689485
144	0x3cf4e2d5	0.029893318
145	0x3db201c7	0.08691745
146	0x3c985fce	0.01860037
147	0x3db29c39	0.08721203
148	0x3d261cbb	0.040554743
149	0xbd0efd56	-0.03490957
150	0xbc2add5f	-0.010428756
151	0xbc146668	-0.009057619
152	0x3c8284b5	0.01593242
153	0x3cab7973	0.020931935
154	0xbc85f18e	-0.016350534
155	0x3c238449	0.00998027
156	0xbb96f3e6	-0.0046067117
157	0xbc7b9164	-0.015354488
158	0x3c9ab384	0.018884428
159	0x3b84c559	0.004051846
160	0xbd4b5eea	-0.049651064
161	0xbc6df2fc	-0.014523264
162	0xbcde396d	-0.027126992
163	0xbccd6975	-0.0250747
164	0xb86e1fff	-5.677342e-05
165	0xbb2a0386	-0.0025942042
166	0xbb5bea4e	-0.0033556405
167	0x3c8ce443	0.017198687
168	0xbd0a2c44	-0.03373362
169	0xbd9d4994	-0.076800495
170	0x3c904c7a	0.017614592
171	0x3d2846c9	0.04108313
172	0xbc450740	-0.012025654
173	0x3d004422	0.031314977
174	0xbcfbcd1f	-0.030737458
175	0xbd8aa419	-0.067695804
176	0x3d3df505	0.046376247
177	0xbc9c7429	-0.019098358
178	0x3d6c044d	0.05762129
179	0xbd205187	-0.03914025
180	0x3c41ae26	0.011821305
181	0xbd098cdd	-0.033581603
182	0xbcd66bc8	-0.026174441
183	0xbc6f92e9	-0.014622428
184	0xb9139e66	-0.0001407802
185	0x3cf81710	0.030284435
186	0x3cb504a2	0.022096936
187	0x3d6f1204	0.05836679
188	0x3d2b63e3	0.041843306
189	0x3c8663a6	0.016404938
190	0xbc85891b	-0.016300729
191	0xbd0e1556	-0.034688316
192	0xbccb3304	-0.0248046
193	0xbbc35ace	-0.0059617525
194	0xbc8651ca	-0.016396422
195	0x3cb3b89d	0.021938616
196	0xbd399a62	-0.045313247
197	0xbc378c2e	-0.011202855
198	0xbad38c28	-0.0016139792
199	0x3d5c20b0	0.05374211
200	0x3b64f76d	0.0034937516
201	0xbcf75fcd	-0.030197049
202	0xbd049214	-0.032365873
203	0xbc8a47da	-0.016879965
204	0x3bf4552b	0.007456442
205	0x3c4d01a3	0.012512597
206	0x3d034db6	0.032056533
207	0x3acb4572	0.0015508367
208	0x3c16d4f1	0.009206043
209	0xbd8753fe	-0.06607817
210	0x3c745225	0.014912163
211	0xbcd265be	-0.02568328
212	0xbc1b4000	-0.009475708
213	0x3c946eef	0.018119304
214	0xbcf965be	-0.030444022
215	0x3c079791	0.008275882
216	0x3caf508c	0.021400712
217	0x3d409fa2	0.047027238
218	0xbbb2a635	-0.0054519423
219	0xbd8217a6	-0.06352167
220	0x3c233acc	0.009962749
221	0x3c956e91	0.018241199
222	0xbd7827f3	-0.060584974
223	0x3c1d24b8	0.009591274
224	0xbc9f2940	-0.01942885
225	0xbd029754	-0.0318826
226	0xbca6a218	-0.020340964
227	0xbca7267d	-0.020404095
228	0x3c84081e	0.016117152
229	0x3d5fbd4a	0.05462388
230	0xbcd3b47b	-0.025842896
231	0xbd27c75c	-0.04096161
232	0xbcdabaa2	-0.026700322
233	0xbb36af31	-0.0027875418
234	0xbac1c648	-0.0014783824
235	0xbc3c5cb8	-0.011496715
236	0xbcb3fbc8	-0.021970645
237	0x3b279c5b	0.0025575373
238	0xbb480b8b	-0.0030524458
239	0xbceb375f	-0.028712926
240	0xbd205812	-0.03914649
241	0x3d76803e	0.060180895
242	0x3ca5c8b8	0.020237312
243	0xbc3008ec	-0.010744315
244	0x3c0e719b	0.008694078
245	0x3c2a6c64	0.010401819
246	0xbcbaee7a	-0.022818793
247	0xbce1740f	-0.027521161
248	0xbcefeb4c	-0.029287003
249	0xbc41aa6c	-0.011820417
250	0xbc8b68ab	-0.017017683
251	0xbc1b52d0	-0.009480193
252	0xbcdd1fea	-0.026992757
253	0x3c5b4b35	0.01338463
254	0x3d80f227	0.06296187
255	0x3d0cc61a	0.034368612

bn1.weight f4 [400]
0	0x3e408ae8	0.18802989
1	0x3f065280	0.52469635
2	0x3f3d7e85	0.7402118
3	0x3cf54f6c	0.029945098
4	0x3f0cb89c	0.5496919
5	0x3f04112a	0.5158869
6	0x3f27956a	0.6546236
7	0x3ec7eb62	0.3904677
8	0x3f43de0b	0.76510686
9	0x3f1ff109	0.62477165
10	0x3e173b68	0.14768755
11	0x3ea555d9	0.3229206
12	0x3f220f53	0.6330463
13	0x3f310ad8	0.6915717
14	0x3eb23d3b	0.3481234
15	0x3e7e7867	0.24850617
16	0x3ebbf69d	0.36711589
17	0x3ebce09a	0.36890107
18	0x3e34ab31	0.1764343
19	0x3f40232e	0.7505368
20	0x3eb6530f	0.35610244
21	0x3e840f73	0.25793037
22	0x3ea92cc5	0.3304197
23	0x3f3bd046	0.73364675
24	0x3f587a76	0.8456186
25	0x3e94102b	0.28918585
26	0x3f01ea7d	0.50748426
27	0x3f202f90	0.62572575
28	0x3e9b357e	0.3031425
29	0x3f878a25	1.0589033
30	0x3f1c969b	0.61167306
31	0x3f1a0817	0.60168594
32	0x3f17e782	0.5933763
33	0x3e10dc16	0.14146456
34	0x3eccaed1	0.39977124
35	0x3eb0b1c4	0.34510624
36	0x3e09e737	0.13467108
37	0x3e9709eb	0.29499754
38	0x3e1d7f9d	0.15380712
39	0x3f465c20	0.7748432
40	0x3f49ab0b	0.78776616
41	0x3f086435	0.53277904
42	0x3c217914	0.009855527
43	0x3f51acaf	0.8190412
44	0x3f0b38c2	0.5438348
45	0x3f301a6d	0.6879032
46	0x3f5ad155	0.85475665
47	0x3f280d19	0.65644985
48	0x3d5ba8ed	0.053627897
49	0x3f526e65	0.821997
50	0x3f27bf06	0.65525854
51	0x3e396986	0.1810666
52	0x3ed59c54	0.4172083
53	0x3e545287	0.20734607
54	0x3f0ec4ab	0.5576884
55	0x3ebf768d	0.37395135
56	0x3d97b6f0	0.074079394
57	0x3ed77b22	0.4208613
58	0x3f43c3f5	0.7647088
59	0x3edd9dd1	0.43284467
60	0x3ede270e	0.4338917
61	0x3f34c3bb	0.7061116
62	0x3e9878dd	0.2977971
63	0x3f352203	0.7075502
64	0x3f2d5518	0.6770797
65	0x3f19cc8b	0.6007773
66	0x3ebfa1a8	0.3742802
67	0x3efa6ae4	0.48909676
68	0x3e7f9119	0.24957694
69	0x3e606471	0.21913315
70	0x3e82b54b	0.2552894
71	0x3e337c45	0.17527874
72	0x3f3a8182	0.72853863
73	0x3f2c46a6	0.672953
74	0x3ec1f5ce	0.37882847
75	0x3f471619	0.77768093
76	0x3d8ee46a	0.0697716
77	0x3f15ed37	0.58565086
78	0x3f160fdb	0.58617944
79	0x3f1f50a9	0.6223245
80	0x3f3f4a58	0.74722815
81	0x3d8ffee2	0.07031037
82	0x3e633f91	0.22192217
83	0x3f15e79d	0.5855654
84	0x3e8c5803	0.27410898
85	0x3f34412b	0.7041194
86	0x3f394b55	0.7238057
87	0x3e8bbe77	0.2729375
88	0x3f035c70	0.51312923
89	0x3f42d90e	0.7611245
90	0x3ef34033	0.47509918
91	0x3e7763e8	0.24159205
92	0x3c1a2d84	0.009410266
93	0x3ef5bdb4	0.47996294
94	0x3ee5ab6f	0.44857356
95	0x3f28031c	0.65629745
96	0x3f3a3519	0.7273727
97	0x3f38b212	0.72146714
98	0x3f24aeaf	0.64329046
99	0x3f47d9a8	0.7806649
100	0x3f1c86e2	0.61143315
101	0x3f18bc89	0.5966268
102	0x3f24508c	0.64185405
103	0x3ec0a4c9	0.3762572
104	0x3f0841f3	0.5322563
105	0x3f169e2e	0.58835113
106	0x3d812040	0.06304979
107	0x3f3362a8	0.7007241
108	0x3ef41438	0.47671676
109	0x3e8aa03d	0.27075377
110	0x3f401ce7	0.750441
111	0x3ec4595f	0.38349435
112	0x3f43a70f	0.76426786
113	0x3f3a7fa7	0.7285103
114	0x3f106dc9	0.5641752
115	0x3ea90f45	0.33019462
116	0x3edb5e2f	0.42845294
117	0x3f2d6735	0.67735606
118	0x3f2f8d52	0.6857501
119	0x3f2a24bd	0.6646231
120	0x3ee5c07e	0.44873422
121	0x3ca0a730	0.019610971
122	0x3ee68964	0.45026696
123	0x3de9ab90	0.11409676
124	0x3f305197	0.68874496
125	0x3ea3a5ad	0.31962338
126	0x3ea8f7a6	0.3300144
127	0x3e19afa4	0.15008408
128	0x3dca96d6	0.09892051
129	0x3f47851d	0.7793749
130	0x3f064774	0.5245278
131	0x3e51d52f	0.2049148
132	0x3f202e97	0.6257109
133	0x3edd8d84	0.4327203
134	0x3f39590b	0.72401494
135	0x3e75a310	0.23987985
136	0x3f238762	0.6387845
137	0x3f0edc4a	0.55804884
138	0x3f28979b	0.6585633
139	0x3f4581fb	0.7715146
140	0x3ea598bc	0.3234309
141	0x3f416418	0.75543356
142	0x3f09151f	0.53547853
143	0x3eb584b2	0.354528
144	0x3ea49d73	0.32151374
145	0x3eb53424	0.35391343
146	0x3f234121	0.63771254
147	0x3f2d3c52	0.67670166
148	0x3e9d0065	0.30664364
149	0x3ea5fb17	0.3241813
150	0x3efa34d3	0.48868427
151	0x3d863735	0.06553499
152	0x3e9060b5	0.28198782
153	0x3ebbc335	0.3667237
154	0x3ef00a4e	0.46882862
155	0x3ec96d55	0.39341226
156	0x3e9fe099	0.31226042
157	0x3f25c1fe	0.64749134
158	0x3eb24633	0.34819183
159	0x3eb4b03f	0.35290715
160	0x3e6e3804	0.23263556
161	0x3f552b37	0.83269066
162	0x3edb2db8	0.42808318
163	0x3c01190e	0.007879509
164	0x3f2be7a2	0.6715032
165	0x3f48f724	0.78502107
166	0x3f4d3673	0.8016121
167	0x3f13d136	0.57741106
168	0x3f4285da	0.7598549
169	0x3e2cec9d	0.16887136
170	0x3ee41575	0.4454762
171	0x3f05860c	0.52157664
172	0x3f1ce7c7	0.61291164
173	0x3c5b96c2	0.013402643
174	0x3f24d410	0.6438608
175	0x3f3be690	0.73398685
176	0x3ee21b62	0.44161516
177	0x3ee0d804	0.43914807
178	0x3e4a9f1d	0.1978726
179	0x3f3ec77a	0.7452313
180	0x3f08dcbb	0.5346181
181	0x3da78f0e	0.081815824
182	0x3db23060	0.08700633
183	0x3d7a2fde	0.061080806
184	0x3f547887	0.8299641
185	0x3f0949db	0.5362832
186	0x3d82a2ca	0.06378706
187	0x3f557f0d	0.8339699
188	0x3ed5c310	0.41750383
189	0x3f2bf933	0.6717712
190	0x3f53efb0	0.8278761
191	0x3f4cb655	0.79965717
192	0x3f88f6b7	1.0700291
193	0x3f3eb5f3	0.7449638
194	0x3f098f91	0.5373469
195	0xbb479e01	-0.0030459168
196	0x3df5e397	0.120063
197	0x3f085ea5	0.53269416
198	0x3e9b1db2	0.30296093
199	0x3f04460c	0.51669383
200	0x3e2248ef	0.15848134
201	0x3f41f63a	0.75766337
202	0x3e588d7a	0.21147719
203	0x3f6a7a70	0.91593075
204	0x3f7a31fa	0.9773251
205	0x3cca2814	0.024677314
206	0x3eb598c5	0.35468116
207	0x3e2989f1	0.16556527
208	0x3dec94c9	0.11551816
209	0x3d80ea9e	0.0629475
210	0x3ef4bc15	0.47799745
211	0x3f0a3725	0.53990394
212	0x3f11ed73	0.57002944
213	0x3ed88acc	0.42293394
214	0xbace67b6	-0.0015747461
215	0x3f62f51d	0.88655263
216	0x3f5c8010	0.8613291
217	0x3f0ecacf	0.5577821
218	0x3ecba8b8	0.3977716
219	0x3e5e704f	0.2172253
220	0x3d324a6c	0.043528005
221	0x3f0c5988	0.54824114
222	0x3e1a8510	0.15089822
223	0x3f577b8f	0.8417291
224	0x3f50b298	0.8152251
225	0x3d5cb0ff	0.053879734
226	0x3e976a55	0.29573312
227	0x3f0131b2	0.50466454
228	0x3e42f1c1	0.19037534
229	0x3f23019b	0.63674325
230	0x3f0596ca	0.5218321
231	0x3e34d2b7	0.17658506
232	0x3f0562cd	0.52103883
233	0x3f2f9deb	0.6860034
234	0x3ec7e6e2	0.39043337
235	0x3f11fbe7	0.57025
236	0x3f055142	0.52077115
237	0x3f36f2f8	0.7146449
238	0x3f51790c	0.8182533
239	0x3f8393f0	1.0279522
240	0x3e377c7f	0.17918585
241	0x3f52369a	0.82114565
242	0x3ecf36cf	0.40471503
243	0x3e8bd444	0.27310383
244	0x3f5a204c	0.8520553
245	0x3f159233	0.5842621
246	0x3dd6e924	0.10493687
247	0x3eb87079	0.3602331
248	0x3f11b1fc	0.5691221
249	0x3ed77e70	0.42088652
250	0x3ea17af9	0.31539133
251	0x3f4411ee	0.7658986
252	0x3e310b83	0.17289548
253	0x3f397f62	0.72459996
254	0x3e90c222	0.28273112
255	0x3f15ace1	0.5846692

bn1.bias f4 [400]
0	0x3e3ac74f	0.18240093
1	0xbd53057f	-0.051518913
2	0xbc5cc972	-0.013475763
3	0x3e87b505	0.26505294
4	0x3bd2977c	0.0064267498
5	0x3e41f72f	0.1894195
6	0x3d8c30a2	0.068452135
7	0x3daabeb6	0.083371565
8	0x3e1334c4	0.14375597
9	0x3e20debe	0.1570997
10	0x3d8f2232	0.06988944
11	0x3d1bcac6	0.038035177
12	0x3d3c8dc1	0.046033625
13	0x3dcd87bf	0.10035657
14	0x3df4382a	0.11924775
15	0x3dbcee50	0.09225142
16	0x3d9d1041	0.07669116
17	0xbddb6087	-0.107117705
18	0x3e38e36b	0.18055503
19	0xbcb93a38	-0.022610769
20	0x3ca190f1	0.019722434
21	0xbdb13916	-0.086534664
22	0xbc342db4	-0.010997225
23	0x3c0d4e05	0.008624558
24	0x3da592bb	0.08084627
25	0x3cdfc3b0	0.02731499
26	0x3d203ee6	0.039122485
27	0xbd2e656a	-0.042577185
28	0x3e18b3d9	0.14912356
29	0x3d64d930	0.05587119
30	0x3dc1bf20	0.09460282
31	0x3d68f5ba	0.056874968
32	0x3dbc3dff	0.09191512
33	0xbd92bd9a	-0.0716507
34	0x3ddb68f1	0.10713375
35	0xbc1b46f9	-0.00947737
36	0x3e2b3d6b	0.16722648
37	0x3d52307b	0.051315766
38	0x3d324779	0.043525193
39	0xbd28706b	-0.041122835
40	0x3d6e49c1	0.058175806
41	0xbc60009f	-0.013672023
42	0x3e1a5732	0.15072325
43	0x3db0809a	0.08618279
44	0x3e4bb957	0.1989492
45	0xbc90679e	-0.017627534
46	0x3c234cc2	0.009967031
47	0x3c86cbb6	0.016454559
48	0xbdd23400	-0.102638245
49	0x3dadc310	0.08484471
50	0xbcc9de94	-0.024642266
51	0x3e4edbe2	0.20201066
52	0x3cd5640f	0.026048688
53	0x3dd5ab0a	0.10433014
54	0x3e114222	0.14185384
55	0x3dba394d	0.090929605
56	0x3d4cc4de	0.049992435
57	0x3dfebeca	0.12438734
58	0x3e16a292	0.14710453
59	0x3dce9956	0.1008784
60	0x3d5d524b	0.05403356
61	0x3e0536a8	0.13009131
62	0xbe196e75	-0.14983542
63	0x3d98ff57	0.07470577
64	0x3de9e8d4	0.114213616
65	0x3d8201f5	0.063480295
66	0x3e610d87	0.21977817
67	0x3ca2dff4	0.01988218
68	0x3cdc0b6f	0.02686092
69	0x3e1b0974	0.15140325
70	0x3d88e56c	0.06684384
71	0x3d144378	0.036197156
72	0xbbffa368	-0.007801462
73	0x3de352e4	0.110997945
74	0x3d433c6a	0.047665037
75	0x3d82907b	0.06375214
76	0x3e33d7f1	0.17562844
77	0x3c3f03ba	0.011658603
78	0x3dd03dc9	0.101680346
79	0xbdca3872	-0.09874047
80	0x3dc412c9	0.095738955
81	0xbc05bb73	-0.008162367
82	0x3e23c0d2	0.15991524
83	0x3e09b236	0.13446888
84	0x3d214729	0.039374504
85	0x3d56eedf	0.0524739
86	0x3d34d9e5	0.044153113
87	0x3dedf029	0.116180725
88	0x3dea3974	0.114367396
89	0x3d6bc220	0.05755818
90	0x3dbd63d3	0.092475556
91	0xbbf20e78	-0.0073869787
92	0x3e511f69	0.20422138
93	0xbd4b749a	-0.049671747
94	0xbc9cbdfc	-0.01913356
95	0x3e5d5ae7	0.21616708
96	0x3daaafc8	0.08334309
97	0x3d58830d	0.052859355
98	0xbe0fb9e7	-0.1403576
99	0xbd833c55	-0.06407992
100	0x3d73d81a	0.059532262
101	0x3cd47c57	0.025938196
102	0x3e152d59	0.1456808
103	0x3e1a5bf3	0.15074138
104	0xbd2b8e82	-0.041883953
105	0x3d94924b	0.07254466
106	0xbe19c9e8	-0.15018427
107	0xbb52741c	-0.0032112664
108	0x3d9d1e5d	0.07671807
109	0x3db6b45b	0.08921119
110	0xbd13befd	-0.036070812
111	0x3dda5490	0.1066066
112	0x3dd3ffc1	0.103515156
113	0x3dc4f639	0.09617276
114	0x3db37f5c	0.08764526
115	0xbdb77774	-0.08958331
116	0x3c76265e	0.015023796
117	0x3dd03aa9	0.101674385
118	0xbc92b7e1	-0.017909946
119	0xbd71c66c	-0.05902712
120	0x3d93a8a4	0.072099
121	0xbe0bf7fb	-0.13668816
122	0x3dda0b1d	0.10646651
123	0x3e5c4f02	0.21514514
124	0x3daecd1a	0.08535214
125	0xbe0fcb30	-0.14042354
126	0x3e1e0909	0.15433134
127	0x3cf2474d	0.029575014
128	0xbd9820e1	-0.07428146
129	0x3e421406	0.18952951
130	0xbd5375f1	-0.05162615
131	0x3d1e1a0d	0.038599063
132	0x3d3b61f7	0.045747723
133	0x3e22c97a	0.1589717
134	0x3d4ff879	0.05077407
135	0x3de43ec9	0.11144788
136	0x3e19464d	0.14968224
137	0xbc662f91	-0.014049427
138	0x3def54ea	0.11686118
139	0x3cdf0100	0.027222157
140	0xbd56f09a	-0.05247555
141	0x3d840ab1	0.06447352
142	0xbde9bdc2	-0.114131466
143	0xbd6de0fb	-0.058075886
144	0x3de8e1c6	0.11371188
145	0x3e055d38	0.13023841
146	0x3ddc1963	0.1074703
147	0x3ddd8df9	0.10818095
148	0x3d5f2b8b	0.054484885
149	0xbd189830	-0.037254512
150	0x3de30372	0.110846415
151	0xbd825aa3	-0.06364944
152	0x3e06488a	0.13113609
153	0x3c6c8d0b	0.014437924
154	0x3d002daf	0.031293567
155	0x3e13aa38	0.14420402
156	0x3c104073	0.008804428
157	0x3d4b8d4a	0.04969529
158	0xbcf1b51b	-0.029505303
159	0x3e101922	0.14072087
160	0x3e114348	0.14185822
161	0x3dbfd17c	0.09366128
162	0x3d0282e5	0.031863112
163	0xbddf0f5a	-0.108916
164	0xbd3a7768	-0.04552403
165	0xbcc698db	-0.024242809
166	0x3d48bb93	0.04900701
167	0x3acade05	0.0015477544
168	0x3c0537d9	0.008130991
169	0x3d0d9964	0.034570113
170	0x3cef8999	0.029240416
171	0xbc26e65b	-0.010186757
172	0xbc40f203	-0.01177645
173	0x3e1278be	0.14303872
174	0xbdbe3c3b	-0.09288832
175	0xbc710e59	-0.014712893
176	0xbd97aeda	-0.07406397
177	0xbd2b3910	-0.041802466
178	0xbc567845	-0.013090198
179	0x3d4c5294	0.04988344
180	0x3db96437	0.090523176
181	0xbe4e1dcf	-0.20128559
182	0xbcca71d8	-0.024712488
183	0x3d0d4436	0.03448888
184	0xbd4e8d13	-0.050427508
185	0xbd5e428d	-0.054262687
186	0x3cd841d6	0.02639858
187	0x3c3a1d92	0.011359589
188	0x3d90fce8	0.07079488
189	0x3dc360c7	0.09539943
190	0x3d531d7b	0.051541787
191	0x3d8e6a4b	0.069538675
192	0x3e0ddbd3	0.13853388
193	0x3d5fe1eb	0.05465881
194	0x3cf63d29	0.03005846
195	0xbe396363	-0.1810432
196	0x3e106ced	0.14104052
197	0xbc4f9559	-0.012669885
198	0x3d16efbf	0.036849733
199	0xbda49fb6	-0.08038275
200	0x3d926a63	0.07149198
201	0x3d2a1b48	0.041529924
202	0x3dbae7fe	0.0912628
203	0x3d2cb99d	0.042169202
204	0x3dd242a9	0.10266621
205	0x3e1944d5	0.14967664
206	0xbaa96612	-0.0012924096
207	0x3c75d4fc	0.015004393
208	0x3de956e0	0.11393523
209	0xbd8dc011	-0.069213994
210	0xbcd6a4f3	-0.0262017
211	0x3d847042	0.06466724
212	0x3e1ddcfd	0.15416332
213	0xbd7be115	-0.06149395
214	0xbdf2439f	-0.11829304
215	0x3d7a083b	0.061043005
216	0x3d381ef6	0.0449514
217	0x3da95d33	0.082697295
218	0xbd90e923	-0.07075717
219	0xbd19392e	-0.037408046
220	0xbe9d7209	-0.30751064
221	0x3da36fa5	0.07980279
222	0xbdca2bb4	-0.09871617
223	0x3e1ea3da	0.15492192
224	0x3d4f4917	0.050606813
225	0x3cc0943a	0.02350818
226	0x3d227ef1	0.039671842
227	0x3d569242	0.052385576
228	0x3d31df3f	0.043425795
229	0x3bc98aca	0.006150578
230	0xbd06f2b2	-0.032946296
231	0x3d2b9a77	0.041895356
232	0x3d26c016	0.04071053
233	0xbbe0c082	-0.006858886
234	0xbd205eca	-0.039152898
235	0x3e15564a	0.14583698
236	0x3dc9ca93	0.09853091
237	0x3e04ec8f	0.12980865
238	0x3da7c039	0.081909604
239	0x3dc671ec	0.096896976
240	0x3d71f411	0.05907065
241	0x3c6588d1	0.01400967
242	0x3e5ae1bb	0.21375172
243	0xbd776395	-0.060397703
244	0x3e0bf794	0.13668662
245	0x3d62c84b	0.055366796
246	0xbdf10d9d	-0.11770175
247	0x3deaaf8d	0.11459265
248	0xba036e15	-0.0005013657
249	0x3c5ddf77	0.013542048
250	0x3d85cde2	0.0653341
251	0x3c7c222c	0.015389007
252	0xbd6a950d	-0.057271052
253	0x3ddf10f9	0.10891909
254	0xbde457cd	-0.11149559
255	0x3d37d1dd	0.044877876
