checkpoint_critic_final.pth (torch_old, 532746 bytes, 9 tensors)

fc1.weight f4 [400, 24]
0	0xbca71a8d	-0.020398403
1	0x3e482e8f	0.1954901
2	0x3a7dd77a	0.00096832926
3	0xbd619b39	-0.055079672
4	0x3d4533da	0.048145153
5	0x3e3d6fd9	0.18499698
6	0xbd349aeb	-0.044093054
7	0xbd11d759	-0.035605762
8	0x3c4abc8f	0.012374057
9	0x3e1754de	0.14778468
10	0xbccc04a4	-0.024904557
11	0x3cdbe6b5	0.026843408
12	0x3d9821ae	0.07428299
13	0x3e059bdd	0.13047738
14	0xbd0b6b6c	-0.034037992
15	0xbd2e573d	-0.042563666
16	0xbd85e9ca	-0.06538732
17	0x3da50092	0.080567494
18	0xbd0a9700	-0.03383541
19	0xbdad0a8e	-0.08449279
20	0xb911bd9d	-0.00013898914
21	0x3de3a726	0.111158654
22	0xbd3e222f	-0.04641932
23	0xbde223d2	-0.110419884
24	0x3d3e10d3	0.046402764
25	0xbe2ffb4b	-0.17185704
26	0xbce799ad	-0.02827152
27	0x3d5d78a9	0.05407015
28	0x3b109ef3	0.0022067397
29	0x3e07832e	0.13233635
30	0x3caf5c90	0.021406442
31	0x3c957c98	0.018247887
32	0xbd503c0c	-0.050838515
33	0xbe195d19	-0.1497692
34	0xbc805a05	-0.015667925
35	0x3dc9665a	0.09833975
36	0xbd3a37ad	-0.045463253
37	0x3e0e31b7	0.13886152
38	0x3d418eec	0.04725544
39	0x3de0226f	0.10944068
40	0xbca9214f	-0.020645766
41	0xbd9715a6	-0.07377176
42	0xbd9409fb	-0.07228466
43	0x3b56cada	0.0032774718
44	0xbddda46b	-0.10822376
45	0x3c9f28e7	0.019428683
46	0xbd9a4c42	-0.07534076
47	0xbc41753f	-0.011807739
48	0x3c984c40	0.018591046
49	0xbdba183f	-0.09086656
50	0xbd056c54	-0.032574013
51	0xbd1da5dd	-0.038488258
52	0x3e0728c6	0.13199148
53	0x3e2c6db9	0.16838731
54	0xbd5c4316	-0.053774916
55	0x3c957b5c	0.018247299
56	0x3d471cf2	0.04861159
57	0xbd84597d	-0.06462381
58	0xbd084e9e	-0.0332781
59	0xbd2ca23f	-0.042146917
60	0x3df87da9	0.12133343
61	0x3e169a1c	0.14707226
62	0x3c4f42e1	0.0126502225
63	0xbbb8d47f	-0.005640566
64	0xbd0ff7bf	-0.03514838
65	0xbd731c08	-0.059352905
66	0x3d335bea	0.043788828
67	0x3d9d11cf	0.07669412
68	0xbc405fb7	-0.01174157
69	0x3db438e7	0.08799916
70	0x3cbce187	0.023056759
71	0x3da5e31a	0.08099957
72	0xbd97a2e3	-0.07404115
73	0xbcc53d30	-0.024077028
74	0x3b0a133d	0.0021068596
75	0xbd7baa2b	-0.06144158
76	0xbde1f08c	-0.11032209
77	0x3d6227a8	0.0552136
78	0xbd735e40	-0.059416056
79	0xbdec7fb0	-0.11547792
80	0xbe0addfc	-0.13561243
81	0xbbc820b8	-0.006107416
82	0xbd408156	-0.046998344
83	0x3c8d85bf	0.01727569
84	0xbd9871a4	-0.0744355
85	0x3dd828b1	0.10554636
86	0xbb96a89c	-0.0045977365
87	0x3c29efff	0.010372161
88	0xbbacf86f	-0.005278639
89	0xbac146fa	-0.0014745884
90	0x3d0c1a3d	0.03420471
91	0x3c08197c	0.008306857
92	0xbcb480ea	-0.022034127
93	0x3e0779a7	0.1323
94	0x3d2fa292	0.04287965
95	0x3d109a17	0.0353032
96	0x3db68471	0.0891198
97	0xbe13e0e9	-0.14441265
98	0xbc8e85be	-0.017397758
99	0xbd4d09a0	-0.050058007
100	0x3d0e92bd	0.03480791
101	0xbcdf33ae	-0.027246322
102	0x3d37ca78	0.044870824
103	0xbdbeb85b	-0.09312507
104	0x3cb54ea1	0.02213222
105	0xbda53b65	-0.08067969
106	0xbd2e56ac	-0.042563125
107	0x3d5af3a8	0.053455025
108	0x3d9dbb9a	0.07701798
109	0xbc57bad6	-0.013167104
110	0xbdbce6ff	-0.092237465
111	0x3d9fe826	0.07807951
112	0x3ca795bd	0.020457143
113	0xbe07ab92	-0.13249043
114	0x3d25c310	0.04046923
115	0xbd8946b3	-0.06702938
116	0xbc7e1b4b	-0.015509437
117	0xbc20ed34	-0.009822179
118	0x3d88afe9	0.06674177
119	0xbdccb2ee	-0.09995066
120	0x3d608cde	0.05482184
121	0x3e092fb8	0.1339711
122	0x3bdf3335	0.0068115243
123	0x3bc7ef6f	0.0061015408
124	0x3df30631	0.11866415
125	0xbe0795f9	-0.13240804
126	0xbd78ea5d	-0.06077038
127	0x3d29ddf4	0.041471437
128	0x3d2adead	0.041716266
129	0x3dc1d980	0.09465313
130	0xbd5cc96c	-0.05390303
131	0x3d32d795	0.043662626
132	0x3e2ea6e6	0.17055854
133	0xbd854174	-0.06506625
134	0xbb21b8af	-0.002467673
135	0x3d72f044	0.059311166
136	0xbd2662aa	-0.040621437
137	0x3c992aa5	0.018697092
138	0x3ca6a694	0.020343103
139	0xbdc935d2	-0.098247185
140	0x3d19bf68	0.037536055
141	0x3de46669	0.11152346
142	0xbc272d1f	-0.010203629
143	0xbdd2f7b5	-0.103011526
144	0x3d6dad13	0.058026385
145	0x3ddea6de	0.10871671
146	0x3d05847c	0.03259705
147	0x3df7eb43	0.121054195
148	0x3dcccea2	0.100003496
149	0xbc57c494	-0.0131694265
150	0xbd733471	-0.059376184
151	0x3df3cf5a	0.119047835
152	0x3d5ae53b	0.053441267
153	0x3d829706	0.06376462
154	0x3c401e1a	0.011725927
155	0x3d647ff3	0.055786084
156	0x3d6debde	0.05808627
157	0x3db5f1ae	0.08883987
158	0x3c1b8e27	0.009494341
159	0x3d91eea8	0.07125598
160	0x3d7b314f	0.06132632
161	0x3cb3837b	0.02191328
162	0x3ca7559f	0.02042657
163	0x3de52321	0.11188341
164	0x3d3d4248	0.04620579
165	0x3e4c64ff	0.19960402
166	0x3cdd2c11	0.026998552
167	0x3dfbf267	0.12302094
168	0x3b9936d4	0.0046757255
169	0xbb89a200	-0.00420022
170	0xbd3b19cf	-0.04567891
171	0x3d943d39	0.0723824
172	0xbd402334	-0.046908572
173	0x3d223572	0.03960175
174	0x3d128acc	0.0357769
175	0x3d57f9a9	0.05272833
176	0x3ca54f44	0.020179398
177	0xbd1d9d33	-0.038479995
178	0x3b900d7c	0.0043961387
179	0x3ddd37c5	0.10801653
180	0xbd9b8555	-0.075937904
181	0xbdd046a4	-0.10169724
182	0x3c8d5ebe	0.01725709
183	0x3ddb9460	0.1072166
184	0x3ca14d50	0.019690186
185	0xbb98285e	-0.004643484
186	0xbd186c9d	-0.037212957
187	0x3df18d83	0.11794569
188	0xbdff70e6	-0.124727055
189	0xbe84d5bb	-0.25944313
190	0xbc3c1396	-0.011479279
191	0x3d936291	0.071965344
192	0x3d855a65	0.06511382
193	0x3cd52717	0.026019616
194	0xbc0c1ce2	-0.008551808
195	0x3d73d894	0.059532717
196	0x3c2dc8c4	0.010606948
197	0x3d5729a9	0.052529965
198	0x3c1cb1bc	0.00956386
199	0x3d5e4642	0.05426622
200	0x3de192c0	0.110143185
201	0x3cd3b9e6	0.02584548
202	0x3c3c5351	0.011494474
203	0x3d7cfd16	0.0617648
204	0xbdf3be8f	-0.119015805
205	0xbc9cc4f6	-0.019136887
206	0xbc350e9a	-0.011050845
207	0xbc6a826b	-0.014313321
208	0x3dd44450	0.10364592
209	0xbbb9493e	-0.005654483
210	0xbc09465e	-0.008378593
211	0xbd9bd5e4	-0.07609156
212	0xbe256ffa	-0.16155997
213	0xbe00d725	-0.12582071
214	0x3cd6d4b7	0.026224477
215	0xbd9c208f	-0.076233976
216	0x3d2c8d4a	0.04212693
217	0xbe8e8358	-0.27834582
218	0x3cfab2cc	0.030602835
219	0xbcf6126b	-0.03003808
220	0x3adde3ca	0.0016928848
221	0xbcf5e89b	-0.030018141
222	0x3c1ab402	0.009442331
223	0xbd002fb3	-0.03129549
224	0xbc847ae8	-0.016171888
225	0xbe6484ed	-0.22316332
226	0x3b0d592e	0.0021568048
227	0x3e024192	0.12720326
228	0xbc97ceb1	-0.018531175
229	0x3cfc27f4	0.03078077
230	0x3c0d2fcb	0.008617352
231	0x3dffc475	0.12488643
232	0x3d92b4dd	0.07163403
233	0xbe2a653b	-0.16640179
234	0x3c9bcbe7	0.019018127
235	0xbded9372	-0.116003886
236	0xbdb21de6	-0.08697109
237	0xbc0c4bbc	-0.008562978
238	0x3c035793	0.008016485
239	0xbdfcdf69	-0.123472996
240	0x3d7af4fe	0.0612688
241	0x3da8ea7f	0.082478516
242	0xbd083989	-0.033257995
243	0xbd8e7a56	-0.069569275
244	0xbde09bfe	-0.10967253
245	0xbde176b9	-0.11008973
246	0x3c8c8231	0.017151924
247	0xbbb2569e	-0.0054424545
248	0x3dbba72d	0.091627456
249	0x3c9f2bfe	0.019430157
250	0xbd15c26c	-0.03656237
251	0xbdd11782	-0.10209562
252	0xbd9b110b	-0.0757161
253	0xbe2ab53a	-0.16670695
254	0x3cbd922f	0.023140995
255	0xbc661b66	-0.014044618

fc1.bias f4 [400]
0	0x3be1bb3b	0.0068887747
1	0x3d0aeb2f	0.033915695
2	0x3de8867e	0.11353777
3	0x3a85a4a9	0.0010196167
4	0xbe04cada	-0.12968007
5	0xbde42a33	-0.11140861
6	0xbd5396da	-0.051657535
7	0xbca73f0a	-0.020415802
8	0xbd86f8c6	-0.065904185
9	0xbea6fd36	-0.3261506
10	0x3d7c41e1	0.061586265
11	0x3e35e3c0	0.17762661
12	0xbe406635	-0.18788989
13	0x3d785262	0.06062544
14	0xbd1f206d	-0.038849283
15	0xbe53b3a0	-0.2067399
16	0x3e6abad1	0.22922827
17	0xbe2b7b04	-0.16746145
18	0xbd853d1b	-0.065057956
19	0xbe436274	-0.19080526
20	0xbdae9199	-0.08523864
21	0x3dfd4141	0.12365962
22	0xbd9f6ebd	-0.077847935
23	0xbe92dddc	-0.2868489
24	0x3d15ada4	0.03654255
25	0xbdddc652	-0.10828842
26	0xbe383798	-0.17989957
27	0xbcc43248	-0.023949757
28	0xbe8b6c74	-0.2723118
29	0x3df9a8b3	0.1219038
30	0xbea15a14	-0.31514037
31	0x3d93c96a	0.07216151
32	0xbd65be6d	-0.056089807
33	0x3e09e7a1	0.13467266
34	0xbe44dee0	-0.19225645
35	0xbe3f8f4c	-0.18707007
36	0x3d98fb6f	0.07469832
37	0xbe4274b0	-0.18989825
38	0x3d02b104	0.031907097
39	0xbe8d1712	-0.27556664
40	0xbb1e9bca	-0.0024201744
41	0xbe0df818	-0.13864172
42	0x3e185373	0.14875583
43	0x3cabdf40	0.020980477
44	0xbd59d0ce	-0.053177647
45	0xbdefab20	-0.117025614
46	0xbdcb68ac	-0.09932074
47	0x3aa19634	0.0012328089
48	0x3e3fb68e	0.18721983
49	0x3dc390ed	0.09549127
50	0x3e0c24dc	0.13685936
51	0x3ddb05b8	0.1069445
52	0xbe65bbc5	-0.2243491
53	0xbe9914ef	-0.29898784
54	0x3dd0d910	0.101976514
55	0x3d976441	0.07392169
56	0xbe5c9414	-0.21540862
57	0xbd9ba8a9	-0.07600529
58	0x3e04b03c	0.12957853
59	0xbe137ba5	-0.14402635
60	0xbd6724cc	-0.056431577
61	0xbe4027df	-0.1876521
62	0xbe06a3a4	-0.13148361
63	0x3c4a92b2	0.012364076
64	0x3dcf9fdf	0.10137915
65	0xbe00a3c7	-0.12562476
66	0xbd504181	-0.05084372
67	0xbd24660b	-0.04013638
68	0xbe68a16d	-0.22717829
69	0x3dceb472	0.10093011
70	0x3cdcbd70	0.0269458
71	0xbe835953	-0.25654086
72	0xbdef4dd0	-0.116847634
73	0xbd94abd8	-0.07259339
74	0xbe8fb064	-0.28064263
75	0xbd89db8b	-0.067313276
76	0xbe30dd81	-0.17271997
77	0x3d40e464	0.04709281
78	0x3e1720c6	0.14758596
79	0xbda887dd	-0.08229039
80	0x3e17ead8	0.1483568
81	0xbe77990b	-0.24179475
82	0x3d0f19c7	0.034936693
83	0x3dbc978c	0.09208593
84	0xbe80244c	-0.25027692
85	0x3d347cdb	0.044064384
86	0xbaa0f2df	-0.0012279412
87	0xbe8caddc	-0.27476394
88	0xbe17d453	-0.14827089
89	0xbdc6fa78	-0.09715742
90	0xbdaccc36	-0.08437388
91	0x3d4e2afc	0.05033396
92	0x3dbd63af	0.09247529
93	0x3cce0c5d	0.02515238
94	0xbed7467d	-0.42045966
95	0xbdd4c301	-0.103887565
96	0x3d26a524	0.040684834
97	0x3e0f6f41	0.14007284
98	0x3db492ca	0.0881706
99	0xbe876e1e	-0.264512
100	0x3d986d84	0.074427634
101	0xbdf9ebb1	-0.12203158
102	0xbdcb7557	-0.0993449
103	0xbe56f3fe	-0.20991513
104	0x3e806a0e	0.25080913
105	0xbdecea6d	-0.11568151
106	0x3bae6c00	0.005322933
107	0x3e065c28	0.13121092
108	0xbe50ca48	-0.20389664
109	0x3daf4e29	0.0855983
110	0xbde97f12	-0.1140119
111	0xbeb72d8b	-0.35776934
112	0xbe35d34d	-0.17756386
113	0xbc9cb30c	-0.019128345
114	0xbe5213ed	-0.20515414
115	0xbe863dcb	-0.2621902
116	0xbe1c54b8	-0.15266693
117	0x3d47b966	0.048760794
118	0xbe2c77b6	-0.16842541
119	0xbe9c8cf9	-0.30576304
120	0x3c71e6d6	0.014764508
121	0x3d025ac0	0.031824827
122	0xbe9f933e	-0.31167024
123	0xbe1d568b	-0.15365045
124	0xbe06782b	-0.13131778
125	0xbe939261	-0.28822616
126	0x3c9a0bcf	0.018804459
127	0x3d7778c8	0.06041792
128	0xbe3c1244	-0.18366343
129	0xbe54f01d	-0.20794721
130	0x3dacb3bc	0.08432719
131	0x3d898295	0.0671436
132	0xbe622de0	-0.22087812
133	0xbd65fe81	-0.056150917
134	0x3e39c033	0.18139724
135	0xbcce4647	-0.025179995
136	0x3b8987b6	0.004197086
137	0xbd35405b	-0.044250827
138	0xbd92e149	-0.07171876
139	0xbe0071d4	-0.12543422
140	0xbd1ab431	-0.0377695
141	0xbe6e54db	-0.23274557
142	0xbda82f38	-0.08212131
143	0xbe5b22ec	-0.2140004
144	0xbe102623	-0.14077048
145	0x3df43b4c	0.119253725
146	0xbe8334e6	-0.25626296
147	0xbded9caf	-0.11602151
148	0xbe171cef	-0.14757131
149	0xbe1f5c3d	-0.1556253
150	0x3d4ddf0e	0.05026155
151	0x3db6c529	0.08924324
152	0xbe14b6ba	-0.1452283
153	0xbeaed6c3	-0.34148225
154	0xbe9fe0a4	-0.31226075
155	0xbd7fdc1c	-0.062465772
156	0x3e29c972	0.16580752
157	0x3cd8c007	0.026458753
158	0x3ca5feab	0.020263037
159	0xbdeb285b	-0.114823066
160	0xbe0944c8	-0.13405144
161	0xbb38fe72	-0.0028227833
162	0xbe81494e	-0.2525124
163	0x3d8eb67b	0.06968399
164	0xbd3d4a12	-0.046213217
165	0xbe045e0c	-0.12926501
166	0xbc86913c	-0.016426675
167	0xbe844420	-0.25833225
168	0x3d455391	0.0481754
169	0x3c450a6b	0.01202641
170	0xbe613ab2	-0.21995047
171	0x3daafa4e	0.08348523
172	0xbd18a97d	-0.03727101
173	0xbe263596	-0.16231379
174	0xbe7a7e20	-0.24462175
175	0xbd9ae95b	-0.0756404
176	0xbc0a7252	-0.008450108
177	0xbe6f114a	-0.23346439
178	0xbe901ec1	-0.28148463
179	0xbe64717b	-0.22308914
180	0xbdd64c7e	-0.104638085
181	0xbd92b035	-0.07162515
182	0xbe83203b	-0.25610527
183	0xbe53c772	-0.20681551
184	0x3c36b986	0.011152631
185	0xbd55d410	-0.05220419
186	0xbe07edce	-0.13274309
187	0xbe4c8267	-0.1997162
188	0xbe9c7dcf	-0.30564734
189	0xbdc6b307	-0.097021155
190	0x3dcc2dec	0.099696964
191	0xbe5a5a2b	-0.21323459
192	0x3e5b6321	0.21424533
193	0xbe2663b7	-0.16248976
194	0xbe17da52	-0.14829376
195	0x3cff2ec6	0.031150233
196	0xbe66dbc4	-0.22544771
197	0xbe99e41c	-0.30056846
198	0xbe8424c5	-0.25809303
199	0xbe120cf7	-0.14262758
200	0xbd3fae4a	-0.046797074
201	0xbda5c069	-0.0809334
202	0x3e1e62ba	0.15467349
203	0xbe00cb20	-0.12577486
204	0x3d10b03f	0.03532433
205	0xbe48b15b	-0.19598906
206	0x3daf94f3	0.08573332
207	0xbdc4599f	-0.09587406
208	0x3e0bcdd3	0.13652734
209	0x3e665bf2	0.22496012
210	0x3c3f9bb1	0.011694835
211	0xbe5c1d6f	-0.21495603
212	0x3cbc4aa3	0.022984808
213	0x3da0f417	0.078590564
214	0xbe6cdfc4	-0.23132235
215	0xbdda5803	-0.10661318
216	0xbdb6b064	-0.089203626
217	0x3d9a6fe3	0.07540872
218	0xbe39e4f7	-0.1815375
219	0x3dd427ad	0.1035913
220	0xbd1a9258	-0.03773722
221	0xbd91c90d	-0.071184255
222	0xbd948e1e	-0.07253669
223	0xbd098475	-0.033573586
224	0x3e123a9d	0.14280172
225	0xbe135461	-0.14387657
226	0xbc937bca	-0.018003363
227	0xbdb96bdb	-0.09053775
228	0xbd52e423	-0.0514871
229	0xbea88396	-0.32912892
230	0xbea03ebd	-0.31297866
231	0xbe5bb401	-0.21455385
232	0xbe9792c4	-0.2960416
233	0x3e1297a8	0.14315665
234	0x3e0e319c	0.13886112
235	0x3d2a870e	0.041632704
236	0xbe1a883f	-0.15091036
237	0xbe77aafc	-0.24186319
238	0x3d9934d6	0.07480781
239	0x3cde45f6	0.02713297
240	0x3da03008	0.07821661
241	0xbe3b25e5	-0.18276174
242	0xbc9768e6	-0.018482637
243	0x3c2344a0	0.009965092
244	0xbd9449ce	-0.072406396
245	0x3db7b8bb	0.089707814
246	0x3d0f2443	0.03494669
247	0x3e534e26	0.2063528
248	0xbd71486b	-0.058906954
249	0xbe769986	-0.24082002
250	0xbe7423b9	-0.23841752
251	0xbe8fedd0	-0.28111124
252	0xbe39bdd7	-0.18138824
253	0x3dac4418	0.08411425
254	0x3e20f895	0.15719827
255	0xbd8f0be7	-0.06984692

fc2.weight f4 [300, 402]
0	0xbdaf819a	-0.085696414
1	0x3c575495	0.0131427245
2	0x3d9e9877	0.07743924
3	0xbe44d6b0	-0.19222522
4	0x3b9eb1e0	0.0048429817
5	0x3d1ddb95	0.038539488
6	0xbbc8c579	-0.006127056
7	0xbe275efe	-0.1634483
8	0xbd135e7e	-0.035978787
9	0xbe43ae4c	-0.19109458
10	0xbcba0b4d	-0.022710467
11	0xbc488fcd	-0.012241316
12	0x3cf17142	0.02947295
13	0xbcd879f4	-0.02642534
14	0xbcd600b0	-0.026123375
15	0xbca6e757	-0.020373983
16	0x3d29210b	0.041291278
17	0x3d8ff3b2	0.07028903
18	0xbe565dc4	-0.20934206
19	0xbbc4af6c	-0.006002357
20	0x3dc1e2ec	0.0946711
21	0x3ae5c580	0.0017530173
22	0x3d686dae	0.056745224
23	0xbcb17da3	-0.021666354
24	0x3bbafc3e	0.005706339
25	0xbd70545e	-0.05867421
26	0x3ccd1301	0.025033476
27	0x3d4b4480	0.049625874
28	0xbdc8fcb4	-0.09813824
29	0xbd06e4f3	-0.032933187
30	0x3af13bce	0.0018404664
31	0xbd0bf31e	-0.0341674
32	0xbde337a0	-0.11094594
33	0x3d98b92b	0.07457193
34	0xbc0fe109	-0.00878168
35	0xbd47a8f7	-0.04874512
36	0xbc3ae387	-0.011406786
37	0xbcfd19fb	-0.030896178
38	0xbd518bf5	-0.051158864
39	0x3cce2d41	0.025168063
40	0x3da1751b	0.07883664
41	0x3d15db6f	0.03658622
42	0xbe274007	-0.16333018
43	0x3d355a34	0.044275478
44	0xbc5e306d	-0.01356135
45	0x3cdab326	0.026696753
46	0x3c37b7e1	0.011213274
47	0xbbd12865	-0.006382989
48	0x3cd60590	0.0261257
49	0x3cb5a898	0.022175118
50	0xbcc7facd	-0.024411583
51	0xbcfa09a4	-0.030522175
52	0xbe2c9677	-0.16854273
53	0xbe556238	-0.20838249
54	0x3d8dbd28	0.06920844
55	0xbd12d797	-0.035850134
56	0xbe1d3a02	-0.1535416
57	0xbe0e07e4	-0.13870198
58	0xbc1d520c	-0.009602081
59	0xbad4b06d	-0.0016226895
60	0x3d226430	0.039646327
61	0xbcf4cc02	-0.029882435
62	0xbce2b448	-0.027673855
63	0xbd1d4ac9	-0.0384014
64	0xbcc1230a	-0.023576278
65	0x3c198efb	0.009372468
66	0xbd91f41f	-0.071266405
67	0xbd49583d	-0.049156416
68	0xb99f676a	-0.00030403893
69	0xbdad5e86	-0.084652945
70	0x3e1f54ba	0.15559664
71	0x3c4f6b16	0.012659809
72	0x3ce00f5b	0.027351072
73	0xbdd94e32	-0.10610618
74	0xbe18b1e8	-0.14911616
75	0x3d2356ff	0.039877888
76	0xbdfaceac	-0.12246451
77	0xbc94dc0b	-0.01817133
78	0xbe45686e	-0.19278118
79	0xbcf17ead	-0.029479349
80	0xbd0870b8	-0.033310622
81	0x3d992e28	0.07479507
82	0xbd8c36ce	-0.06846391
83	0x3d3227f2	0.043495126
84	0x3d09ecca	0.033673085
85	0x3d03b246	0.032152437
86	0x3db3ba81	0.08775807
87	0xbd3c31ec	-0.045946047
88	0x3c75cb58	0.015002094
89	0x3d53d4aa	0.051716484
90	0x3d13931a	0.03602896
91	0xbc85be32	-0.016326044
92	0xbdfe3797	-0.12412947
93	0x3b58cd9e	0.0033081542
94	0xbdffc410	-0.12488568
95	0x3d51cad7	0.051218834
96	0xbc1a47ec	-0.009416562
97	0x3c873181	0.016503097
98	0x3d4cd9a4	0.050012246
99	0xbbe666cd	-0.007031298
100	0x3d29d28c	0.04146056
101	0xbb6a802e	-0.0035781967
102	0xbc28df5d	-0.01030716
103	0xbc8e92f4	-0.017404057
104	0xbd271cd9	-0.040798996
105	0xbd148513	-0.036259722
106	0x3d421bf7	0.04738995
107	0x3c7e6da6	0.015529072
108	0x3cea5235	0.028603652
109	0x3c896136	0.016769987
110	0x3cd859b9	0.02640997
111	0x3d2487c3	0.040168535
112	0x3bfd2a59	0.0077259955
113	0x3daa47bc	0.083144635
114	0xbdbd273c	-0.09235999
115	0xbd1034e1	-0.03520668
116	0x3c016987	0.007898695
117	0x3c473402	0.012158396
118	0xbca8cfdd	-0.02060693
119	0xbb83adc6	-0.004018518
120	0xbd43cf61	-0.047805194
121	0x3d701947	0.058617856
122	0x3d0ece16	0.034864508
123	0xbd84fffa	-0.06494136
124	0xbcd2491f	-0.025669632
125	0xbbb169d9	-0.0054142294
126	0xbbc42c23	-0.005986707
127	0x3d717b74	0.058955625
128	0x3d9fa3ef	0.0779494
129	0xbd6ccac2	-0.057810552
130	0x3dafd55d	0.08585618
131	0x3b1464c1	0.0022643062
132	0x3d08b0a0	0.033371568
133	0x3d1c6a9d	0.03818761
134	0xbb8bfeee	-0.0042723333
135	0xbd504666	-0.050848387
136	0xbdfa44e4	-0.12220171
137	0xbd567dd1	-0.05236608
138	0xbd7a125a	-0.061052658
139	0x39bc8fea	0.0003596538
140	0x3cbaeebf	0.022818921
141	0x3cb8e719	0.022571133
142	0x3dbf77f4	0.09349051
143	0x3d4c3dd6	0.04986366
144	0xbd029d18	-0.031888098
145	0xbd7a12c5	-0.061053056
146	0xbcd95c2b	-0.026533207
147	0xbda852c2	-0.0821891
148	0x3df7d780	0.1210165
149	0xbbd4d4d6	-0.0064950986
150	0x3d55dc86	0.05221226
151	0x3cb99d47	0.022658003
152	0x3bc2acef	0.0059410254
153	0xbdf6f709	-0.12058837
154	0x3cc9ba3d	0.024624938
155	0xbd5e4d9f	-0.054273244
156	0x3d034377	0.03204676
157	0x3b16b459	0.002299568
158	0x3c5a2479	0.01331436
159	0x3ca8eed6	0.020621698
160	0x3da83079	0.082123704
161	0x3c154b0b	0.00911213
162	0xbd012187	-0.031526115
163	0x3dd1fc3a	0.102531865
164	0x3bb1980b	0.0054197363
165	0x3d78194d	0.060571004
166	0xbe068d41	-0.13139822
167	0x3c14230d	0.00904156
168	0xbd30575a	-0.043052055
169	0xbdc8e32b	-0.09808954
170	0x3d8ad5c6	0.06779055
171	0x3d5b1e10	0.053495467
172	0x3d8409ab	0.064471565
173	0xbdd43b69	-0.10362894
174	0x3d165ef3	0.036711644
175	0xbd51d07c	-0.051224217
176	0x3c3962dc	0.011315074
177	0xbc0a2b88	-0.00843323
178	0xbc4883dd	-0.01223847
179	0x3afb586a	0.001917613
180	0x3d0c6721	0.03427804
181	0x3d5787e9	0.05261985
182	0x3db3178c	0.087447256
183	0xbd223276	-0.039598905
184	0x3d6fb33a	0.058520533
185	0x3d6b0ecd	0.057387162
186	0xbd5cc94b	-0.053902905
187	0x3db4e07a	0.08831878
188	0x3bc2cf04	0.0059450883
189	0xbc75f7ca	-0.015012691
190	0xbd333f66	-0.043761633
191	0xbd3f357a	-0.04668186
192	0xbd9432c6	-0.07236247
193	0x3d31a2f0	0.04336828
194	0xbd32c560	-0.043645263
195	0x3df17ca9	0.11791355
196	0xbdb7370a	-0.08946045
197	0xbddb0fa6	-0.10696344
198	0x3cda6f59	0.026664423
199	0xbc66fffd	-0.014099118
200	0x3c535c4f	0.012900426
201	0x3d428495	0.04748972
202	0xbd5f936f	-0.054583963
203	0x3d4acd96	0.04951247
204	0x3d111e5b	0.03542934
205	0xbde3f68b	-0.11131009
206	0xbc862bd6	-0.016378324
207	0xbd8758e8	-0.066087544
208	0x3bd16970	0.006390743
209	0x3cd50077	0.026001198
210	0x3cf73134	0.030174829
211	0x3d84d88d	0.06486616
212	0xbd26aa58	-0.040689796
213	0xbcec8c81	-0.028875591
214	0x3dd76cc6	0.10518794
215	0x3c361445	0.011113231
216	0xbcf235bc	-0.029566638
217	0xbe396466	-0.18104705
218	0x3cbdc819	0.023166703
219	0xbe313ea6	-0.17309055
220	0x3de2b558	0.11069745
221	0xbc72370d	-0.014783633
222	0x3d74f86a	0.05980722
223	0xbddf0de6	-0.10891323
224	0xbcacf1b5	-0.021111349
225	0xbc3e4a9b	-0.011614467
226	0xbd183f99	-0.037170026
227	0xbc0f6d6a	-0.008754114
228	0x3d2bcc38	0.041942805
229	0xbdd8867d	-0.105725266
230	0xbd9ed849	-0.07756097
231	0x3d75511a	0.059891798
232	0x3ca59c56	0.020216148
233	0x3db5304e	0.08847104
234	0xbd4fa15b	-0.05069099
235	0xbd923cc6	-0.07140498
236	0x3dc6cc1f	0.09706902
237	0xbd18a4e5	-0.03726663
238	0x3b920cf5	0.004457111
239	0x3be62d7d	0.0070244656
240	0x3cb3d7fb	0.021953573
241	0x3d228542	0.039677866
242	0xba87ab5b	-0.001035075
243	0xbbb5c7db	-0.0055475063
244	0x3dcc8b9f	0.09987568
245	0xbb6d55b4	-0.0036214413
246	0x3d545232	0.0518362
247	0xbc80e5ae	-0.01573452
248	0xbb16e8c1	-0.0023026916
249	0x3cb6f0cc	0.022331618
250	0x3d42ccf5	0.047558744
251	0x3d40af17	0.04704198
252	0xbb23ee0c	-0.0025013713
253	0x3d19a3d0	0.03750974
254	0xbd7e4afa	-0.062083222
255	0xbd0c8075	-0.034302194

fc2.bias f4 [300]
0	0xbe2f50cc	-0.17120665
1	0xbd4e9ac2	-0.050440557
2	0xbc5eaf69	-0.013591626
3	0xbd810f55	-0.063017525
4	0xbdbb7ff4	-0.091552645
5	0xbe4909b2	-0.19632605
6	0xbe094079	-0.134035
7	0xbda20ded	-0.079128124
8	0xbd217414	-0.03941734
9	0xbd907957	-0.07054394
10	0xbc0965b6	-0.008386066
11	0xbd5012e4	-0.050799266
12	0xbd9e19b3	-0.077197455
13	0xbd7b7fc6	-0.06140115
14	0xbd829bd0	-0.06377375
15	0x3c10f10d	0.0088465335
16	0xbe358744	-0.17727381
17	0xbe235307	-0.15949641
18	0x3ce2c276	0.027680617
19	0xbc7589d0	-0.01498647
20	0xbe03e747	-0.12881194
21	0xbdacc072	-0.084351435
22	0xbe1045ce	-0.14089128
23	0xbdd6d99f	-0.10490727
24	0xbdaf4b11	-0.0855924
25	0xbddfe7f2	-0.10932912
26	0xbe2542ad	-0.16138716
27	0xbd6f2029	-0.05838028
28	0xbdef2cac	-0.11678442
29	0xbd21e32a	-0.03952328
30	0xbe0e1319	-0.13874473
31	0xbe11c284	-0.14234358
32	0xbdfcdb0f	-0.123464696
33	0xbdf8b606	-0.12144093
34	0xbdbcb8de	-0.09214948
35	0xbda93a92	-0.082631245
36	0xbe25b597	-0.16182552
37	0xbe4149fa	-0.18875876
38	0xbdcb597b	-0.099291764
39	0xbdb6afb2	-0.0892023
40	0xbdd4bad0	-0.10387194
41	0xbe190849	-0.14944567
42	0xbdd841d4	-0.10559431
43	0xbe15a1c7	-0.14612494
44	0xbdb29f7e	-0.08721827
45	0xbe354329	-0.17701401
46	0xbd5e2e81	-0.05424357
47	0xbd47b249	-0.04875401
48	0xbde28776	-0.110609934
49	0xbdf87465	-0.121315755
50	0xbd6bb404	-0.057544723
51	0xbdd5e13b	-0.1044335
52	0xbe10005c	-0.14062637
53	0xbd63bdd6	-0.055600964
54	0xbd8d9ee3	-0.06915071
55	0xbd981322	-0.07425524
56	0xbdaeb143	-0.08529904
57	0xbd6d4075	-0.0579228
58	0xbe2f3d7b	-0.17113297
59	0xbdb511c6	-0.08841281
60	0xbe272f61	-0.16326667
61	0xbdcb6d8e	-0.09933005
62	0xbdcaa4fc	-0.098947495
63	0xbd5b7f0a	-0.05358795
64	0xbda957f1	-0.082687266
65	0xbd8e5204	-0.06949237
66	0xbe016ee5	-0.12639959
67	0xbce79237	-0.028267963
68	0xbd8820ed	-0.06646905
69	0xbdbfab62	-0.093588606
70	0xbd988cbf	-0.0744872
71	0xbd99f7dd	-0.07517979
72	0xbe010cbb	-0.12602513
73	0xbe077e4f	-0.13231777
74	0xbdbaf99c	-0.091296405
75	0xbd51332a	-0.051074184
76	0x3ba51605	0.0050380253
77	0xbddd003c	-0.1079106
78	0xbde20a57	-0.110371284
79	0xbd1000a2	-0.035156853
80	0xbe2f39a7	-0.17111836
81	0xbd821e89	-0.0635348
82	0xbd4edc2a	-0.050502934
83	0xbdecbb62	-0.11559178
84	0xbd9af748	-0.075666964
85	0xbd32c112	-0.043641157
86	0xbd244230	-0.040102184
87	0xbe117486	-0.14204606
88	0xbd9df3e0	-0.07712531
89	0xbd7a8099	-0.061157797
90	0xbe4061a6	-0.1878725
91	0xbe00523e	-0.12531373
92	0xbe33607f	-0.17517279
93	0xbdef9764	-0.11698797
94	0xbe356a8a	-0.17716423
95	0xbe01f929	-0.12692703
96	0xbdb45e0d	-0.08807001
97	0xbdbe936e	-0.09305464
98	0xbe318e8f	-0.17339538
99	0xbde60b61	-0.11232639
100	0xbdc5ffd8	-0.09667939
101	0xbda1a09e	-0.078919634
102	0xbdfbf980	-0.12303448
103	0xbe1d3afa	-0.15354529
104	0xbd2fe1ba	-0.04293988
105	0xbd6fd4a6	-0.058552407
106	0xbd68aacc	-0.05680351
107	0xbd872f0e	-0.06600772
108	0xbe0f7b51	-0.14011885
109	0xbd46d91f	-0.048546907
110	0xbd9b254e	-0.07575475
111	0xbe2a86f4	-0.16653043
112	0xbe12a01c	-0.1431889
113	0xbe0341ad	-0.12818022
114	0xbd9317b9	-0.07182259
115	0xbddf4296	-0.10901372
116	0x3c9ad5be	0.018900748
117	0xbe09d783	-0.13461117
118	0xbd557504	-0.052113548
119	0xbdb4dd8c	-0.08831319
120	0xbe010acc	-0.12601775
121	0xbe003d79	-0.1252345
122	0xbc8ae1bb	-0.01695334
123	0xbd9f741a	-0.077858165
124	0xbe242cef	-0.16032766
125	0xbd7c983d	-0.061668623
126	0xbde9c04c	-0.11413631
127	0xbddcefcd	-0.10787926
128	0xbdb07196	-0.08615415
129	0xbdbaa7fa	-0.0911407
130	0xbdc4ed9a	-0.096156314
131	0xbde8105b	-0.113312446
132	0xbe076c85	-0.1322499
133	0xbda54df5	-0.0807151
134	0xbd995164	-0.07486227
135	0xbd8140cd	-0.06311188
136	0xbd0a93d2	-0.03383238
137	0xbddfbdb6	-0.10924856
138	0xbe1acbf0	-0.15116858
139	0xbe1cf2f8	-0.1532706
140	0xbdd6633a	-0.10468145
141	0xbda8e0a1	-0.082459696
142	0xbd9f3f8d	-0.07775793
143	0xbdd1f8e9	-0.10252554
144	0xbe15e1bb	-0.1463689
145	0xbe203272	-0.15644243
146	0xbdf88688	-0.12135035
147	0xbda8ea7c	-0.08247849
148	0xbda48d70	-0.080347896
149	0xbd934b32	-0.07192077
150	0xbdc14784	-0.09437469
151	0xbdb5f886	-0.08885293
152	0xbe20ef8b	-0.15716378
153	0xbd3593c0	-0.04433036
154	0xbcef5f3f	-0.029220222
155	0xbd9a08de	-0.075212225
156	0xbdccd733	-0.100019835
157	0xbd98121d	-0.0742533
158	0xbde1171b	-0.10990735
159	0xbe0606f6	-0.13088593
160	0xbdbf14d3	-0.09330144
161	0xbdb2805c	-0.08715889
162	0xbdc8a1ec	-0.09796509
163	0xbc58cd00	-0.01323247
164	0xbdfe83e8	-0.12427503
165	0xbca2e4af	-0.019884435
166	0xbdcc2d27	-0.099695496
167	0xbe08c04f	-0.1335461
168	0xbd774341	-0.060366873
169	0xbe2299fb	-0.15879051
170	0xbdc62c12	-0.096763745
171	0xbe0d2c34	-0.13786393
172	0xbdc52161	-0.09625507
173	0xbe035390	-0.12824845
174	0xbe09b3ac	-0.13447446
175	0xbdb01903	-0.085985206
176	0xbdb64cfa	-0.08901401
177	0xbdf4908f	-0.11941635
178	0xbda5c4b4	-0.08094159
179	0xbdfeb2cc	-0.124364465
180	0xbd00eca2	-0.03147567
181	0xbd1ce519	-0.038304422
182	0xbe17384d	-0.14767571
183	0xbdc3a301	-0.09552575
184	0xbdcaa2c1	-0.09894324
185	0xbdfff38c	-0.12497625
186	0xbe03b91b	-0.12863581
187	0xbe0d224d	-0.13782616
188	0xbdf21471	-0.11820305
189	0xbdaf9b11	-0.085744984
190	0xbd45dac1	-0.048304323
191	0xbda4314d	-0.08017216
192	0xbdcd4734	-0.100233465
193	0xbdb0f233	-0.08639946
194	0xbdcd9f6a	-0.100401714
195	0xbd2c7513	-0.04210384
196	0xbe3e33ba	-0.1857442
197	0xbcc639aa	-0.024197418
198	0xbdaaa1e9	-0.08331663
199	0xbda9cb73	-0.08290758
200	0xbd19bd7f	-0.037534233
201	0xbd8926c1	-0.06696845
202	0xbe374d8c	-0.17900676
203	0xbd858569	-0.065195866
204	0xbd7dc6b1	-0.061957065
205	0xbd2fff3b	-0.042968016
206	0xbdb9608f	-0.0905162
207	0xbd144ea0	-0.036207795
208	0x3bc3c671	0.005974584
209	0xbdaaa6fa	-0.083326295
210	0xbde23339	-0.11044926
211	0xbd86ebe4	-0.06587961
212	0xbd662ba9	-0.05619398
213	0xbe19dbb0	-0.1502521
214	0xbd626825	-0.0552751
215	0xbe08919b	-0.13336794
216	0x3a64af38	0.00087236194
217	0xbe087c80	-0.13328743
218	0xbc977bf7	-0.018491728
219	0xbda4dbfb	-0.080497704
220	0xbcc3344c	-0.023828648
221	0xbd9828b4	-0.074296385
222	0xbdb32f62	-0.08749272
223	0xbd2a17b7	-0.041526522
224	0xbdd9996a	-0.106249645
225	0xbdf78c9a	-0.120873645
226	0xbdef60aa	-0.11688359
227	0xbdd6fa2f	-0.104969375
228	0xbe141068	-0.14459383
229	0xbc6675f5	-0.014066209
230	0xbdb245f9	-0.087047525
231	0xbd73e07d	-0.05954026
232	0xbdd562a5	-0.104192056
233	0xbdd17bc9	-0.10228688
234	0xbd858f30	-0.065214515
235	0xbdc07057	-0.09396427
236	0xbe0b94aa	-0.1363093
237	0xbdf1e48e	-0.118111715
238	0xbd5aeb5c	-0.053447112
239	0xbdf47770	-0.119368434
240	0xbe339bde	-0.17539927
241	0xbd840357	-0.064459495
242	0xbe1e9733	-0.15487365
243	0xbda51169	-0.08059961
244	0xbe07feb5	-0.13280757
245	0xbd30ebc7	-0.043193605
246	0xbdbbc80f	-0.091690175
247	0xbd627e20	-0.055296063
248	0xbdbc0b00	-0.091817856
249	0xbd42d847	-0.04756954
250	0xbd771d5d	-0.060330737
251	0xbd9d36bb	-0.07676455
252	0xbdd7e788	-0.10542208
253	0xbd9fd9c4	-0.07805207
254	0xbdeca17e	-0.1155424
255	0xbe1038f0	-0.1408422

fc4.weight f4 [1, 300]
0	0xbdda18a2	-0.106492296
1	0x3d121029	0.035659943
2	0x3c7a4179	0.015274399
3	0xbdcc9ff7	-0.099914484
4	0x3d2ec853	0.042671513
5	0x3dced731	0.10099638
6	0x3d91ae6b	0.07113346
7	0xbb205ce6	-0.0024469434
8	0xbd008bdd	-0.031383384
9	0x3cf292fd	0.029611105
10	0xbd183a79	-0.03716514
11	0xbce7c724	-0.0282932
12	0xbd072354	-0.032992676
13	0xbdb8e863	-0.09028699
14	0xbe438659	-0.19094218
15	0x3cec9442	0.028879289
16	0x3da9a24c	0.08282909
17	0x3d5838ab	0.052788418
18	0xbc51de17	-0.012809298
19	0xbdfca0fa	-0.12335391
20	0x3d31e5c2	0.043432005
21	0xbd42a7ed	-0.047523428
22	0x3d3b542c	0.04573457
23	0x3dbf12b8	0.09329742
24	0x3c1b6b72	0.009486066
25	0xbafe069d	-0.0019380633
26	0xbaf94485	-0.0019017613
27	0xbc86cdbf	-0.01645553
28	0x3be81e6e	0.0070837056
29	0x3a93a189	0.0011263351
30	0x3cd9caeb	0.026586017
31	0xbd7b4756	-0.061347328
32	0xbdc22ea9	-0.09481556
33	0x3deb8397	0.11499708
34	0xbcebfce8	-0.028807119
35	0xb8825f7e	-6.21667e-05
36	0xbd7f3f05	-0.06231596
37	0x3bea2820	0.0071458966
38	0xbd7b9927	-0.061425354
39	0x3d0833a3	0.03325237
40	0xbcca9301	-0.0247283
41	0x3d946928	0.072466195
42	0xbd161a5c	-0.036646232
43	0x3b634c60	0.0034682974
44	0xbd1da122	-0.038483746
45	0x3ddd4323	0.10803821
46	0x3d3a2101	0.04544163
47	0xbd166159	-0.03671393
48	0xbba56ef3	-0.0050486266
49	0x3d74d294	0.059771135
50	0x3c804a03	0.015660292
51	0x3cd3c277	0.025849564
52	0x3abff0ff	0.0014643966
53	0x3d6300f6	0.05542084
54	0xbe142f53	-0.14471178
55	0x3cd96905	0.026539335
56	0xbd10c50f	-0.03534418
57	0xbd10dd3f	-0.035367247
58	0x3dcec4d2	0.10096134
59	0xbd8f9b05	-0.070119895
60	0xbd6a4a51	-0.05719978
61	0xb8c27271	-9.271957e-05
62	0xbce2c84e	-0.027683403
63	0x3d6385f6	0.055547677
64	0x3d61ee92	0.05515916
65	0xbd0b2482	-0.033970363
66	0xbdf28a8e	-0.118428335
67	0xbd5bd45b	-0.053669315
68	0x3ce7e2d9	0.028306412
69	0xbd130d0c	-0.035901114
70	0xbdda3ec6	-0.10656504
71	0x3d28ec93	0.04124124
72	0x3cc8611e	0.024460372
73	0xbd69036c	-0.05688803
74	0x3dc6fc82	0.09716131
75	0x3cc73bfb	0.024320593
76	0xbce8963c	-0.02839195
77	0xbcc6259f	-0.024187861
78	0xbd81a3b0	-0.06330049
79	0x3cb69535	0.022287944
80	0xbb7a6ac0	-0.00382106
81	0xbd1a8d22	-0.03773225
82	0x3d5b1eaf	0.05349606
83	0xbd785b04	-0.060633674
84	0x3ce21d6e	0.027601924
85	0xbd444d26	-0.047925137
86	0xbc9b3a1f	-0.018948613
87	0x3d304047	0.04303005
88	0xbd771428	-0.060321957
89	0xbd5fe62d	-0.054662872
90	0x3daf1647	0.08549171
91	0x3d66d9ea	0.056360163
92	0x3d0dcb31	0.034617607
93	0xbd7dc53e	-0.061955683
94	0x3d951918	0.07280177
95	0x3d0c1423	0.03419889
96	0xbd1780c2	-0.036988027
97	0xbd81fc0d	-0.06346903
98	0x3d60e733	0.05490799
99	0xbe27b95e	-0.16379306
100	0x3d147ae1	0.03625
101	0x3c49cc1f	0.012316733
102	0x3d847a8b	0.06468686
103	0xbd53383c	-0.0515673
104	0x3cb4ed39	0.022085773
105	0xbe04a823	-0.12954764
106	0x3d8e4312	0.069463864
107	0xbd40aa16	-0.047037207
108	0xbba7e650	-0.005123891
109	0xbcc73045	-0.024315009
110	0xbd288c04	-0.041149154
111	0xbe00c305	-0.12574394
112	0x3df1aa4c	0.1180006
113	0xbcfc283c	-0.030780904
114	0x3ba6369f	0.0050724293
115	0xbd0d684b	-0.03452329
116	0x3cba9a0b	0.022778532
117	0xbd4227f0	-0.04740137
118	0xbca24a74	-0.019810893
119	0x3bd76ebf	0.0065744813
120	0x3b928aa6	0.0044720946
121	0xbcb9d70d	-0.022685552
122	0xbc93d906	-0.01804782
123	0x3d221f5f	0.0395807
124	0xbdc49cb6	-0.09600203
125	0x3c4c121f	0.012455492
126	0xbdb20b1c	-0.08693525
127	0xbc6f2bef	-0.014597877
128	0xbd0dfc54	-0.034664467
129	0xbd4eb9c0	-0.050470114
130	0xbd85cb0f	-0.06532871
131	0x3cf14269	0.029450612
132	0xbd9c78fb	-0.07640263
133	0x3ccac1a2	0.024750534
134	0x3b0f0bbd	0.0021827065
135	0xbcdda5af	-0.027056543
136	0x3ce681cc	0.028138064
137	0xbcad226a	-0.021134574
138	0x3ce6c8e6	0.028171968
139	0xbdb41262	-0.08792569
140	0xbd907011	-0.07052625
141	0xbde192ac	-0.110143036
142	0x3d40ce8b	0.047071975
143	0xbcbce927	-0.023060394
144	0x3db15ee9	0.08660681
145	0x3d83e314	0.06439796
146	0x3dd3569c	0.10319254
147	0x3e00b404	0.1256867
148	0x3da40ac1	0.08009864
149	0xbd6b6cd7	-0.057476845
150	0xbd51d868	-0.05123177
151	0xbcc58259	-0.024110006
152	0x3d3d2ea3	0.046187054
153	0x3cc0ff12	0.023559127
154	0xbcdec36e	-0.027192798
155	0x3cbacc25	0.022802422
156	0xba0926e3	-0.000523193
157	0xbc82370b	-0.015895387
158	0x3d9f5a7f	0.07780933
159	0x3b557414	0.0032570409
160	0xbd82d94a	-0.06389101
161	0xbcfaa5f6	-0.030596714
162	0xbdb79de9	-0.08965666
163	0xbd634016	-0.05548104
164	0xba219bfc	-0.0006164906
165	0xbd2f3b8a	-0.04278139
166	0xbb8736e4	-0.0041264165
167	0x3dcaac1e	0.0989611
168	0xbdd171a6	-0.10226755
169	0xbe2c7464	-0.16841274
170	0x3cc0ad8d	0.023520255
171	0x3dce6a3d	0.10078857
172	0xbca4e150	-0.020126969
173	0x3dc2b88f	0.09507858
174	0xbd30e80e	-0.043190055
175	0xbe09fde2	-0.13475755
176	0x3d8bf475	0.06833736
177	0xbd1024d1	-0.03519136
178	0x3da5eed8	0.081021965
179	0xbdc5c194	-0.09656063
180	0x3cf81e6b	0.030287942
181	0xbde5dbaf	-0.11223542
182	0xbd3cbb6a	-0.04607717
183	0xbd98bb7c	-0.07457635
184	0x3b557e01	0.0032576325
185	0x3de6ece9	0.11275656
186	0x3cdbb552	0.026819859
187	0x3deeed2c	0.11666331
188	0x3d0f1600	0.03493309
189	0x3c86bfb2	0.01644883
190	0xbd1d7e73	-0.03845067
191	0xbda3ba43	-0.07994511
192	0xbd90eda8	-0.07076579
193	0xbdca527a	-0.098790124
194	0xbd19437f	-0.037417885
195	0x3d06a838	0.03287527
196	0xbd2539a2	-0.040338166
197	0xbd2e2157	-0.042512264
198	0x3b422628	0.0029624794
199	0x3dae0691	0.08497346
200	0x3acdf303	0.0015712682
201	0xbd2f8a90	-0.042856753
202	0xbda597e1	-0.08085609
203	0xbcaac373	-0.02084515
204	0x3ced4b65	0.028966615
205	0x3cc3c365	0.023896882
206	0x3d22defc	0.039763436
207	0x3b5927c4	0.0033135274
208	0x3cb70138	0.022339448
209	0xbddf8964	-0.10914877
210	0x3cf5f58f	0.030024318
211	0xbd23a6a5	-0.039953846
212	0xbc8c3c18	-0.017118499
213	0x3d74304e	0.05961638
214	0xbd789176	-0.060685597
215	0x3c98c6a2	0.018649403
216	0x3ce23cf9	0.027616965
217	0x3d81dcfe	0.06340979
218	0xbc4c092e	-0.0124533605
219	0xbda91ded	-0.08257661
220	0x3c65f39d	0.014035133
221	0x3cda7913	0.02666906
222	0xbdf4fa2d	-0.1196178
223	0x3c40e696	0.011773726
224	0xbd20eac1	-0.03928638
225	0xbd029754	-0.0318826
226	0xbcfad26a	-0.030617911
227	0xbd1221fa	-0.035676934
228	0x3d7fd38f	0.062457617
229	0x3d524032	0.051330753
230	0xbd66d7b3	-0.05635805
231	0xbdb750d6	-0.08950965
232	0xbd85d2b9	-0.06534333
233	0x3b61c4f4	0.0034449669
234	0xbb3e0955	-0.0028997262
235	0xbd85d493	-0.06534686
236	0xbdb7f610	-0.089824796
237	0xbad47272	-0.0016208424
238	0xbb17b568	-0.0023148898
239	0xbd0b060b	-0.03394131
240	0xbd8deb5f	-0.06929659
241	0x3de6910f	0.112581365
242	0x3d22f3d2	0.039783306
243	0xbd49dc56	-0.049282394
244	0x3ca6b23c	0.02034866
245	0x3c99602b	0.018722614
246	0xbe03053d	-0.12794967
247	0xbd264102	-0.04058934
248	0xbd0ff74e	-0.035147958
249	0xbd1f0117	-0.0388194
250	0xbd07cd1b	-0.03315459
251	0xbc81fac1	-0.01586664
252	0xbd860f7c	-0.06545922
253	0x3cb25159	0.021767305
254	0x3d9c28c9	0.07624967
255	0x3dcdbdfd	0.10046003

bn1.weight f4 [400]
0	0x3e212c63	0.15739588
1	0x3eb0a593	0.34501323
2	0x3f1052e3	0.56376475
3	0x3d04b6ac	0.032400772
4	0x3ed64c6b	0.41855177
5	0x3eef0f48	0.46691346
6	0x3f053f35	0.5204957
7	0x3ea7bbf3	0.3276058
8	0x3f508048	0.8144574
9	0x3efc2c15	0.49252382
10	0x3e8dc3dc	0.2768849
11	0x3e8b9856	0.2726466
12	0x3f1ddcdc	0.6166513
13	0x3f01b659	0.50668865
14	0x3e62b1e8	0.22138178
15	0x3e58d62c	0.2117545
16	0x3ef3fe6c	0.47655046
17	0x3e9c313d	0.30506316
18	0x3e4a8594	0.19777519
19	0x3f290745	0.6602672
20	0x3eb1111d	0.3458337
21	0x3e52d790	0.20590043
22	0x3e1b040c	0.15138263
23	0x3f1b9248	0.6077008
24	0x3f40f8f5	0.7537988
25	0x3ea86310	0.3288808
26	0x3ece882f	0.40338275
27	0x3ebdea5a	0.3709286
28	0x3e58e29d	0.21180196
29	0x3f902ace	1.1263063
30	0x3f106f2e	0.56419647
31	0x3efc5095	0.4928023
32	0x3edb02bf	0.42775533
33	0x3d79e83c	0.06101249
34	0x3e87c32c	0.26516092
35	0x3e4294e1	0.19002105
36	0x3e19efad	0.15032835
37	0x3ea7eae9	0.3279641
38	0x3bb2ecc6	0.0054603545
39	0x3f259598	0.64681387
40	0x3f4c7c2c	0.7987697
41	0x3f003fdd	0.5009745
42	0x3a3ae72b	0.00071297836
43	0x3f352b5f	0.70769304
44	0x3f03c149	0.51466805
45	0x3ef278c0	0.4735775
46	0x3f5464bc	0.8296621
47	0x3ee31374	0.4435078
48	0x3d28a76d	0.041175295
49	0x3f30fc89	0.6913534
50	0x3ee13607	0.43986532
51	0x3df8aa4f	0.12141859
52	0x3f186e91	0.5954371
53	0x3e39cf9f	0.18145607
54	0x3f54961b	0.8304154
55	0x3ea34d09	0.3189471
56	0x3da56478	0.080758035
57	0x3f3f0990	0.74623966
58	0x3f3b5ea5	0.7319129
59	0x3eb49449	0.35269383
60	0x3ec5a868	0.38605046
61	0x3f1a4199	0.60256344
62	0x3e439d66	0.19103011
63	0x3f1ac4c4	0.6045649
64	0x3f14a831	0.5806914
65	0x3ed1a1b0	0.4094367
66	0x3e9dc6b5	0.30815664
67	0x3ebed783	0.37273797
68	0x3e22d39f	0.1590104
69	0x3e96e988	0.29475045
70	0x3ea673e3	0.3251029
71	0x3e5e97c4	0.21737581
72	0x3f1c0a2f	0.6095304
73	0x3f09cb1b	0.5382554
74	0x3f02097a	0.5079571
75	0x3f3f5bec	0.74749637
76	0x3d8f5f95	0.07000653
77	0x3f1cb9b5	0.61220866
78	0x3f14a72d	0.5806759
79	0x3f1ac702	0.6045991
80	0x3f127c27	0.5722069
81	0x3dcd6872	0.10029687
82	0x3e6567a3	0.22402816
83	0x3f10eea5	0.5661414
84	0x3ea2a1e7	0.31764147
85	0x3f29ede8	0.6637864
86	0x3f2bb3c5	0.6707118
87	0x3ea22d20	0.31675053
88	0x3f179206	0.5920719
89	0x3f36532d	0.71220666
90	0x3ecc679f	0.39922807
91	0x3eb80e8c	0.35948598
92	0x3cd34eff	0.025794504
93	0x3ecf8782	0.40533072
94	0x3f0bf536	0.5467104
95	0x3f0b5ef0	0.5444174
96	0x3f00811d	0.5019701
97	0x3f15e90c	0.58558726
98	0x3f004f6b	0.5012118
99	0x3f237f7b	0.63866395
100	0x3f0127af	0.5045118
101	0x3f23190c	0.63710093
102	0x3f1cb6ee	0.6121663
103	0x3edf2651	0.4358392
104	0x3ed084c7	0.407263
105	0x3f0417f1	0.5159903
106	0x3da7ac86	0.08187203
107	0x3ef76ec0	0.48326683
108	0x3ece3d05	0.4028093
109	0x3e90d4cb	0.28287348
110	0x3f35c9e6	0.710112
111	0x3efba690	0.49150515
112	0x3f0ec592	0.5577022
113	0x3f06decc	0.5268371
114	0x3eeb742d	0.45987073
115	0x3e421be6	0.18955955
116	0x3e81b335	0.25332037
117	0x3f048780	0.51769257
118	0x3f84b4c4	1.0367665
119	0x3f0d8f4f	0.55296797
120	0x3edaaccf	0.42709967
121	0x3d1fc4da	0.03900609
122	0x3eb74be9	0.35800102
123	0x3dddfafb	0.10838886
124	0x3f0551e3	0.52078074
125	0x3e77482f	0.2414863
126	0x3ea06930	0.31330252
127	0x3c8f6517	0.017504258
128	0x3da6b3f2	0.081397906
129	0x3f0fcb5a	0.56169665
130	0x3ed15137	0.40882275
131	0x3e5e2302	0.21693042
132	0x3ee88de8	0.45420766
133	0x3eacdd94	0.337628
134	0x3f0be7bb	0.5465047
135	0x3ec02d2c	0.37534463
136	0x3f0f11f1	0.5588675
137	0x3ecf0678	0.40434623
138	0x3f03df32	0.51512444
139	0x3f25ec45	0.64813644
140	0x3ea4e898	0.32208705
141	0x3f2a6ead	0.6657513
142	0x3ec39c80	0.38205338
143	0x3e6c20d5	0.230594
144	0x3e53d648	0.2068721
145	0x3e99fb8c	0.30074728
146	0x3f02cf5f	0.51097673
147	0x3effdced	0.4997324
148	0x3eadf48f	0.33975646
149	0x3e9c3954	0.30512488
150	0x3eed0391	0.46291783
151	0x3abed61a	0.0014559657
152	0x3e59bf71	0.21264435
153	0x3eb4e84e	0.35333484
154	0x3f548dc3	0.8302881
155	0x3ebeaa09	0.37239102
156	0x3e9bdbdc	0.30441177
157	0x3f07519d	0.52858907
158	0x3e8c40b8	0.27393126
159	0x3ead951c	0.33902824
160	0x3e555858	0.20834482
161	0x3f2e7f4e	0.68163
162	0x3e9dc154	0.3081156
163	0xbb34ee9c	-0.0027608043
164	0x3f14813e	0.5800971
165	0x3f3f655e	0.7476405
166	0x3f8366b8	1.0265722
167	0x3ee86fcb	0.4539779
168	0x3f1b9787	0.6077809
169	0x3e202338	0.15638435
170	0x3e9c778a	0.3055995
171	0x3ea201de	0.3164205
172	0x3f09f66d	0.5389164
173	0x3d1c259e	0.038121812
174	0x3efd94cd	0.49527588
175	0x3f0c5522	0.548174
176	0x3e9b407b	0.30322632
177	0x3ec5c5d1	0.38627484
178	0x3e8531e0	0.26014614
179	0x3f2919d7	0.66055053
180	0x3edbe50c	0.42948186
181	0x3d92a64b	0.07160624
182	0x3e1f6365	0.1556526
183	0x3e577230	0.21039653
184	0x3f434eca	0.762921
185	0x3f43200c	0.76220775
186	0x3e819ba7	0.25314066
187	0x3f49f07d	0.7888258
188	0x3ec0178d	0.37517968
189	0x3f17e75a	0.5933739
190	0x3f36c3bb	0.7139241
191	0x3f0b69f4	0.54458547
192	0x3f8c79ea	1.0974705
193	0x3f2d6f16	0.6774763
194	0x3ebd35c7	0.3695509
195	0xbd28eb30	-0.041239917
196	0x3dc83103	0.09774973
197	0x3ede06f1	0.4336467
198	0x3ee12aa8	0.43977857
199	0x3ed8d41b	0.42349324
200	0x3e19f3dd	0.15034433
201	0x3f51a594	0.8189328
202	0x3dee48ec	0.116350025
203	0x3f6673ee	0.90020645
204	0x3f81124b	1.0083708
205	0x3cd241fd	0.025666231
206	0x3e14b839	0.145234
207	0x3e7255e2	0.23665574
208	0x3e183bbf	0.14866541
209	0x3dd9e20c	0.10638818
210	0x3eb7a3b7	0.35867092
211	0x3ed37d9c	0.4130677
212	0x3f1ac760	0.6046047
213	0x3eaeb469	0.34122017
214	0xbcc7fdaf	-0.024412958
215	0x3f3fba3c	0.74893546
216	0x3f4b35fe	0.7937926
217	0x3f09a058	0.5376029
218	0x3e39aad3	0.1813157
219	0x3eaf6355	0.34255472
220	0x3d054541	0.03253675
221	0x3f19a5dd	0.6001871
222	0x3dede876	0.11616604
223	0x3f4198e0	0.75623894
224	0x3f60a076	0.87744844
225	0x3d165de7	0.036710646
226	0x3edd91b9	0.4327524
227	0x3ec778b7	0.38959286
228	0x3e1ab736	0.15108952
229	0x3f1d814e	0.6152543
230	0x3eee7fc9	0.46581867
231	0x3d64b914	0.055840567
232	0x3ee99036	0.45617837
233	0x3eee8107	0.46582815
234	0x3e5868a2	0.21133664
235	0x3f07aa55	0.5299428
236	0x3f152466	0.58258665
237	0x3f042fc4	0.51635385
238	0x3f1f7853	0.62292975
239	0x3f842d0d	1.0326248
240	0x3e1d4b2b	0.15360706
241	0x3f4834f4	0.782058
242	0x3ed263c2	0.41091734
243	0x3e18bc8b	0.14915673
244	0x3f72fe4f	0.94919294
245	0x3eeaf150	0.45887232
246	0x3dc2edec	0.09518036
247	0x3edb51ac	0.42835748
248	0x3f2679e9	0.6502977
249	0x3f001295	0.50028354
250	0x3e6e0345	0.23243435
251	0x3f49681f	0.786745
252	0x3ae54820	0.0017492808
253	0x3f23288b	0.6373374
254	0x3e0c277a	0.13686934
255	0x3ebfdfb9	0.37475374

bn1.bias f4 [400]
0	0x3e4ea021	0.20178272
1	0xbd3f346e	-0.04668086
2	0x3cd9eb29	0.02660139
3	0x3ea165e8	0.3152306
4	0x3c810d31	0.01575336
5	0x3e64f9e8	0.22360957
6	0x3ddd1597	0.107951336
7	0x3dc8df1a	0.09808178
8	0x3e55519c	0.20831913
9	0x3e51b0b6	0.20477566
10	0x3dc89200	0.09793472
11	0x3ce0adb1	0.027426573
12	0x3d989e57	0.07452076
13	0x3e2e070c	0.16994876
14	0x3e047176	0.12933907
15	0x3dc0bfb8	0.094115674
16	0x3dc208d7	0.09474342
17	0xbdcd850f	-0.100351445
18	0x3e665996	0.22495112
19	0x3d07f8a0	0.03319609
20	0x3cd2b89a	0.02572279
21	0xbdbe496f	-0.0929135
22	0x3cc56eec	0.024100743
23	0x3d29e1b8	0.041475028
24	0x3e07a7fd	0.13247676
25	0x3d1188bb	0.035530787
26	0x3dab5a84	0.08366874
27	0xbc7e602e	-0.015525861
28	0x3e252e51	0.1613095
29	0x3dccb9b0	0.099963546
30	0x3e127855	0.14303716
31	0x3d55b253	0.052172016
32	0x3e0a2345	0.13490017
33	0xbd41b1e3	-0.047288787
34	0x3e06eccd	0.1317627
35	0xbc6acdbe	-0.014331279
36	0x3e3bca90	0.1833899
37	0x3dcf40b4	0.10119763
38	0x3b805c80	0.003917277
39	0xbcd8a16a	-0.026444156
40	0x3d296431	0.041355316
41	0xbbb099a7	-0.0053894105
42	0x3e478190	0.19483018
43	0x3e0e30c8	0.13885796
44	0x3e5e6130	0.21716762
45	0x3c9a7d94	0.018858708
46	0x3d75ed49	0.060040746
47	0x3d8bc3e0	0.068244696
48	0xbddcc4cb	-0.10779723
49	0x3dda9605	0.10673145
50	0xbbd3b43a	-0.0064606937
51	0x3e71ec97	0.23625408
52	0x3de0f41d	0.10984061
53	0x3de02e88	0.10946375
54	0x3e273eac	0.16332501
55	0x3de3201e	0.1109011
56	0x3d545211	0.051836077
57	0x3e25c705	0.16189201
58	0x3e43eec8	0.19134057
59	0x3e06ee9e	0.13176963
60	0x3dae0153	0.08496346
61	0x3e1a62b5	0.15076716
62	0xbe1197f0	-0.14218116
63	0x3de922a0	0.11383557
64	0x3e0b120c	0.13581103
65	0x3dc1d824	0.09465054
66	0x3e7e846e	0.24855205
67	0x3d1c7baa	0.038203873
68	0x3d51fc73	0.051266145
69	0x3e33e475	0.17567618
70	0x3dd8ee44	0.105923206
71	0x3d9ad62f	0.075603835
72	0x3d191063	0.037369143
73	0x3e024411	0.12721278
74	0x3de8ed00	0.11373329
75	0x3e0089bf	0.12552546
76	0x3e5fcb1e	0.21854827
77	0xbc0f74f4	-0.008755911
78	0x3e22fc3c	0.15916532
79	0xbd71dfbb	-0.059051257
80	0x3deee641	0.11665011
81	0xbb897c12	-0.0041956985
82	0x3e4c4f2e	0.1995208
83	0x3e2a00b8	0.16601837
84	0x3d8f2748	0.06989914
85	0x3e0e47da	0.13894597
86	0x3dc90dad	0.098170616
87	0x3df152c6	0.11783366
88	0x3e23e815	0.16006501
89	0x3ddbaa01	0.10725785
90	0x3dea01a8	0.11426097
91	0x3d34abb0	0.044109046
92	0x3e7b09d2	0.24515465
93	0xbc96f129	-0.018425541
94	0x3cc94a3a	0.024571527
95	0x3e834f32	0.2564636
96	0x3db4d43c	0.08829543
97	0x3dc65d0f	0.09685718
98	0xbe1f89d0	-0.15579915
99	0xbd7f4a10	-0.06232649
100	0x3d742a99	0.059610937
101	0x3dce4f7a	0.10073753
102	0x3e47f76f	0.19527982
103	0x3e555be6	0.20835838
104	0xbd5767bc	-0.052589163
105	0x3dae18bc	0.085008115
106	0xbe3e7bab	-0.18601863
107	0x3c6d5cdc	0.014487471
108	0x3dc30436	0.095222875
109	0x3da6a04b	0.08136042
110	0xbcfaa680	-0.030596972
111	0x3df16a25	0.117878236
112	0x3dc0abb2	0.09407748
113	0x3e01c0a3	0.12671141
114	0x3da45973	0.080248736
115	0xbdc48735	-0.09596101
116	0x3d81044f	0.0629965
117	0x3e279c17	0.16368137
118	0x3d0ad667	0.033895876
119	0xbd717608	-0.058950454
120	0x3db74f59	0.08950681
121	0xbe3101c7	-0.17285834
122	0x3dd2997f	0.10283183
123	0x3e8c67cb	0.27422938
124	0x3e1e92de	0.15485713
125	0xbe2076d8	-0.15670335
126	0x3e35ad2c	0.17741841
127	0x3c1b99f9	0.009497159
128	0xbd500010	-0.05078131
129	0x3e7bbd46	0.24583921
130	0xbc6b25d6	-0.0143522825
131	0x3d36e417	0.044651117
132	0x3d5d74b5	0.05406638
133	0x3e1bde17	0.1522144
134	0x3d81bab1	0.06334437
135	0x3e0b393f	0.13596056
136	0x3e3c6dd8	0.18401277
137	0xbb4a1fbd	-0.0030841671
138	0x3e06603a	0.13122645
139	0x3db61ae2	0.08891846
140	0xbd19189e	-0.037376992
141	0x3dd4e50f	0.10395252
142	0xbe072bbc	-0.13200277
143	0xbd2a19e5	-0.0415286
144	0x3de79fb6	0.11309759
145	0x3e27d2b0	0.16388965
146	0x3e2a3e15	0.16625245
147	0x3e2723a6	0.16322193
148	0x3d256bda	0.04038606
149	0xbc593dbf	-0.01325935
150	0x3e093202	0.13397983
151	0xbaa214da	-0.0012365833
152	0x3e1ada23	0.15122275
153	0x3d83bdf5	0.06432716
154	0x3da4a496	0.08039205
155	0x3e16ad7a	0.14714614
156	0x3d0e0472	0.034672208
157	0x3d882d42	0.06649257
158	0xbc24b224	-0.010052238
159	0x3e3513ec	0.17683381
160	0x3e15a843	0.14614968
161	0x3ddea10b	0.1087056
162	0x3d281fe1	0.041046027
163	0xbe0cfcdd	-0.13768335
164	0x3bd5e4ce	0.00652752
165	0xbb1e5734	-0.0024160864
166	0x3dbf91db	0.093539916
167	0x3d843bfb	0.06456753
168	0x3d193803	0.037406933
169	0x3d6d5ff7	0.057952847
170	0x3d91c561	0.07117725
171	0xbd137ddd	-0.036008704
172	0x3cfee887	0.031116737
173	0x3e3d392d	0.18478842
174	0xbe031fbe	-0.12805077
175	0x3c90e9ee	0.017689671
176	0xbdc64994	-0.09682003
177	0xbcd2a6a3	-0.025714224
178	0x3c9d9e14	0.019240417
179	0x3e1113ae	0.14167663
180	0x3e2bbbc3	0.16770844
181	0xbe6c29c7	-0.23062812
182	0xbc8122bb	-0.015763631
183	0x3d969cc6	0.07354121
184	0xbd025e71	-0.031828348
185	0xbd739cc1	-0.059475664
186	0x3d8fe36d	0.070258
187	0xbb567181	-0.0032721462
188	0x3e1495e2	0.14510301
189	0x3dfe013c	0.12402579
190	0x3da1d26c	0.07901463
191	0x3e0a3e44	0.13500315
192	0x3e3ce5db	0.18447058
193	0x3d9988de	0.074968085
194	0x3d423087	0.04740956
195	0xbe618e36	-0.22026905
196	0x3e29ce77	0.16582666
197	0x3d16ee9e	0.036848657
198	0x3dca7a34	0.0988659
199	0xbd96b9bf	-0.07359647
200	0x3dbac9da	0.091205314
201	0x3caefc38	0.021360502
202	0x3dcbabc1	0.09944869
203	0x3d717b57	0.058955517
204	0x3dce554a	0.10074861
205	0x3e3b7a23	0.1830831
206	0x3c146957	0.009058318
207	0x3d5b3a62	0.053522475
208	0x3e13d0f5	0.1443518
209	0xbdb3f93f	-0.08787774
210	0xbabbb92e	-0.0014322156
211	0x3db1ea02	0.086872116
212	0x3e76f55c	0.24117035
213	0xbdac1784	-0.08402923
214	0xbe155a7e	-0.14585301
215	0x3e0155c0	0.12630367
216	0x3dbd1e29	0.09234268
217	0x3df664d2	0.12030949
218	0xbd51c9e8	-0.051217943
219	0x3afcabb4	0.0019277246
220	0xbeb6601f	-0.3562021
221	0x3dfddde2	0.123958364
222	0xbdf19b65	-0.11797217
223	0x3e49461a	0.19655648
224	0x3d76fcef	0.06029981
225	0x3c2f8be1	0.010714502
226	0x3d91c2b1	0.071172126
227	0x3db5e422	0.088814035
228	0x3d5903b5	0.05298205
229	0x3da2b3e5	0.079444684
230	0xbcb4d2b4	-0.022073127
231	0x3c6c58d4	0.014425475
232	0x3dbf00bb	0.09326311
233	0x3d0d3659	0.034475658
234	0x3d0fb1cd	0.035081673
235	0x3e1f8482	0.15577891
236	0x3de186e3	0.11012056
237	0x3e3fbafd	0.18723674
238	0x3d92c127	0.07165747
239	0x3db65ef0	0.08904827
240	0x3d696ff3	0.05699153
241	0xbb4656e6	-0.0030264198
242	0x3e7d380e	0.24728414
243	0xbd9ccaf7	-0.076559
244	0x3e898c05	0.2686464
245	0x3dc7d377	0.097571306
246	0xbe004385	-0.12525757
247	0x3e1a9b4e	0.15098307
248	0x3ca4805a	0.020080734
249	0x3d1c521c	0.038164243
250	0x3da9a2a4	0.08282974
251	0x3d82fe86	0.06396203
252	0xbb18efbf	-0.002333626
253	0x3dfedbdd	0.12444279
254	0xbdb8a9b6	-0.09016745
255	0x3dabac97	0.08382528
