checkpoint_actor_final.pth (torch_old, 531550 bytes, 10 tensors)

fc1.weight f4 [400, 24]
0	0xbd9a5dc5	-0.07537416
1	0x3d43f09a	0.047836877
2	0xbce287a1	-0.027652564
3	0x3d316f93	0.043319296
4	0x3e749c78	0.23887813
5	0xbc7eb43a	-0.015545899
6	0x3cb0ae53	0.0215675
7	0x3d1f914b	0.03895692
8	0xbbf63770	-0.007513933
9	0x3e0ae6e3	0.13564639
10	0xbb869f2f	-0.0041083316
11	0x3d47b900	0.048760414
12	0x3d92bc4e	0.071648225
13	0xbcd73c9a	-0.026274014
14	0x3bb3d411	0.005487927
15	0x3c3f924a	0.011692593
16	0x3db5bf91	0.08874429
17	0x3de49501	0.11161233
18	0x3cbfe11c	0.02342277
19	0xbcc946ff	-0.024569986
20	0xbe6ce191	-0.23132922
21	0xbc3b5a34	-0.01143508
22	0xbd17199c	-0.036889657
23	0x3c6047fa	0.013689036
24	0xbc933e84	-0.017974146
25	0xbd46abff	-0.048503872
26	0x3c4236f6	0.011853924
27	0x3a56c0cd	0.00081921817
28	0x3d377ce7	0.04479685
29	0xbdde5110	-0.10855305
30	0xbc0bc3ed	-0.008530599
31	0x3d87fd78	0.06640142
32	0x3cae684f	0.021289973
33	0x3d13fb82	0.03612853
34	0xbcb47bdc	-0.022031717
35	0x3d338098	0.04382381
36	0xbba3fe3f	-0.0050046737
37	0x3e12c8be	0.1433439
38	0x3d2bb561	0.041921023
39	0xbb006dc8	-0.0019596685
40	0x3d5c3974	0.05376573
41	0x3cd7da3c	0.02634918
42	0xbc51d60a	-0.012807379
43	0xbca8e55e	-0.020617183
44	0xbda2a7c6	-0.079421565
45	0x3f225690	0.63413334
46	0x3cc91802	0.02454758
47	0xbd4bfcda	-0.049801685
48	0xbd382d04	-0.044964805
49	0x3e44e2f7	0.19227205
50	0x3a86b92a	0.0010278572
51	0xbe264716	-0.16238055
52	0xbe418790	-0.18899369
53	0xbe3061cd	-0.17224808
54	0x3ccd663e	0.025073167
55	0xbe2c87f8	-0.16848743
56	0x3cae09bd	0.021244878
57	0x3dbe400a	0.09289558
58	0x3c602be2	0.0136823375
59	0xbe088fc4	-0.13336092
60	0xbd653447	-0.05595806
61	0xbdbc0229	-0.091800995
62	0xbcb0c9c2	-0.02158058
63	0xbda8df72	-0.08245744
64	0x3c8d6bd6	0.017263334
65	0x3baaaedc	0.005208833
66	0x3ccd8c01	0.025091173
67	0xbd0e820b	-0.034791987
68	0xbdb1a1e1	-0.08673454
69	0x3ceda075	0.029007176
70	0x3ce93ca8	0.028471306
71	0xbd4d7037	-0.050155845
72	0xbda74072	-0.08166589
73	0xbd800656	-0.062512085
74	0xbd495b3a	-0.049159266
75	0x3cc182f3	0.023622012
76	0x3c4e2ebc	0.0125843845
77	0xbd32fc2a	-0.043697514
78	0xbd4cf56e	-0.050038747
79	0x3d048e57	0.03236231
80	0xbd445f70	-0.04794258
81	0xbe276ac0	-0.16349316
82	0x3ce8fd99	0.028441237
83	0xbca51e6d	-0.02015611
84	0xbc543873	-0.012952912
85	0xbdba9b95	-0.09111706
86	0x3dd3c8b4	0.103410155
87	0xbd86c135	-0.0657982
88	0x3d1ebcfb	0.038754445
89	0xbd22b30f	-0.039721545
90	0x3ce8ed60	0.028433502
91	0x3e7f2a5f	0.24918507
92	0x3c7b78f6	0.015348664
93	0xbe11fbbe	-0.14256188
94	0xbd885640	-0.06657076
95	0x3e31b90a	0.17355743
96	0x3d2fa480	0.04288149
97	0x3dba2951	0.09089912
98	0x3d027e56	0.031858765
99	0x3dfba17a	0.122866586
100	0xbd552452	-0.05203659
101	0x3daa4d93	0.08315577
102	0x3d89c059	0.067261405
103	0x3e448128	0.19189894
104	0x3cbf626f	0.023362366
105	0x3e47bafe	0.19504926
106	0xbbe0bcb3	-0.006858432
107	0xbd4346e4	-0.04767503
108	0xbddda8fc	-0.10823247
109	0x3dd8eab3	0.1059164
110	0x3d4a8807	0.049446132
111	0xbb9f4ae9	-0.004861225
112	0x3d4ff486	0.050770305
113	0x3e125387	0.14289676
114	0x399bbe09	0.0002970549
115	0x3cc25ab5	0.023724893
116	0xbd9443c4	-0.07239488
117	0x3e300b35	0.17191775
118	0xbda4e528	-0.080515206
119	0xbd88451b	-0.06653806
120	0x3cf53a44	0.02993501
121	0x3d9d57a7	0.07682734
122	0xbbacd133	-0.005273962
123	0x3d02f700	0.03197384
124	0xbd90b3f5	-0.07065574
125	0xbe4f5988	-0.20248997
126	0xbcf60b34	-0.030034639
127	0xbcf91d73	-0.03040955
128	0x3dbd5d64	0.092463285
129	0x3dd8dde2	0.10589196
130	0xbd138c7a	-0.03602264
131	0x3c4bb9a9	0.012434402
132	0x3c88c297	0.01669435
133	0xbe3c4826	-0.18386897
134	0xbc4cde16	-0.012504121
135	0xbc3b80ba	-0.011444265
136	0x3e27ec85	0.16398819
137	0x3e05096b	0.12991874
138	0x3c6e61fc	0.0145497285
139	0xbd3bee2b	-0.04588143
140	0x3cc87ead	0.024474466
141	0xbe389a2f	-0.18027566
142	0xbd301655	-0.042990047
143	0x3a86a354	0.0010272064
144	0x3cc404c4	0.023928054
145	0xbd63f608	-0.055654556
146	0xbbefbc05	-0.007316115
147	0xbea78527	-0.32718775
148	0x3dd0ec0c	0.10201272
149	0xbd346692	-0.04404313
150	0x3d113a31	0.035455886
151	0xbeb1e449	-0.3474448
152	0x3d5d30e4	0.054001704
153	0x3c384291	0.011246339
154	0x3d099147	0.033585813
155	0xbc9ccaa5	-0.019139597
156	0x3d9be35b	0.07611724
157	0xbd820849	-0.063492365
158	0xbd25e882	-0.04050494
159	0x3d2415e6	0.040059946
160	0x3cabc3d9	0.02096741
161	0x3d5411bb	0.05177472
162	0x3c412deb	0.011790733
163	0x3be9c62b	0.007134219
164	0xbd0e5370	-0.03474754
165	0xbd3c5f6a	-0.04598943
166	0x3d1682f3	0.036745977
167	0x3cd66110	0.02616933
168	0xbdccdef9	-0.10003466
169	0xbe4c278b	-0.1993696
170	0x3b7aa209	0.0038243553
171	0x3d5b1d31	0.053494636
172	0x3e3797c1	0.17928983
173	0xbe1bd49e	-0.15217826
174	0x3c486fd5	0.012233694
175	0x3ddddc14	0.10832992
176	0xbd440abf	-0.04786181
177	0xbdd65684	-0.1046572
178	0xbb813078	-0.0039425455
179	0xbdd7298d	-0.10505972
180	0x3b38988c	0.0028167097
181	0xbe245309	-0.160473
182	0xbd95b6b0	-0.073102355
183	0xbd33585e	-0.043785445
184	0xbd82057b	-0.063487016
185	0xbde381d5	-0.11108748
186	0x3c736f75	0.014858116
187	0x3d0cb5d6	0.0343531
188	0xbce80493	-0.028322494
189	0xbd12fa1c	-0.035883054
190	0x3b928620	0.0044715554
191	0x3db061d2	0.08612408
192	0x3e1ccc7a	0.15312377
193	0xbd5f59d5	-0.05452903
194	0x3b93b7fa	0.0045080157
195	0xbe031300	-0.12800217
196	0x3dd8738c	0.10568914
197	0x3db985dc	0.09058735
198	0xbcd88a4d	-0.026433134
199	0xbe41d086	-0.18927202
200	0x3ddee825	0.10884122
201	0xbd8a0e5a	-0.067410186
202	0xbc300b20	-0.01074484
203	0x3de429b8	0.1114077
204	0x3e378a83	0.17923932
205	0x3bce6ac3	0.006299348
206	0xbafe9f7f	-0.0019426196
207	0x3d3716b7	0.044699397
208	0x3dbf8450	0.093514085
209	0xbd3a7a33	-0.045526695
210	0xbcb3c621	-0.021945061
211	0xbcb44433	-0.022005176
212	0x3df716b1	0.12064875
213	0x3d412430	0.04715365
214	0x3c9789ae	0.018498268
215	0xbcd842fd	-0.02639913
216	0xbd3b89fd	-0.045785893
217	0xbd8fd0f7	-0.07022279
218	0x3d058464	0.03259696
219	0xbd821ce3	-0.06353166
220	0xbd5b265e	-0.053503387
221	0xbe6d63f3	-0.23182659
222	0xbd03f467	-0.032215502
223	0xba108114	-0.0005512398
224	0x3d54c485	0.051945228
225	0xbd939fdf	-0.07208227
226	0xbc5eb360	-0.013592571
227	0xbd59bc79	-0.053158257
228	0xbc29f6e5	-0.010373806
229	0xbe8a17cc	-0.2697128
230	0xbd9d16fb	-0.07670399
231	0xbca4a2a5	-0.020097086
232	0xbd283037	-0.041061606
233	0xbdc3d5f4	-0.09562293
234	0xbc8f2d8a	-0.01747777
235	0xbd8f679f	-0.07002186
236	0x3db1fe34	0.086910635
237	0xbe96345b	-0.2933682
238	0xbae5d96d	-0.0017536111
239	0xbcffb59d	-0.03121453
240	0x3d69776a	0.056998648
241	0xbcea1215	-0.028573075
242	0xbddfa5a9	-0.10920269
243	0x3dbaed65	0.09127311
244	0xbda41aae	-0.08012901
245	0xbe57a9c6	-0.21060857
246	0xbd0099e2	-0.031396754
247	0x3da9ba0b	0.08287438
248	0x3d6b8dd1	0.057508294
249	0xbd8ec7a7	-0.069716744
250	0x3d1b25e1	0.03787792
251	0x3e1f0505	0.15529259
252	0xbd24d28c	-0.040239856
253	0xbddf5f5e	-0.10906862
254	0x3d38ea62	0.0451454
255	0x3ddf6292	0.10907473

fc1.bias f4 [400]
0	0xbe2908e4	-0.16507298
1	0xbe4a6ed6	-0.19768843
2	0x3da578d8	0.0807969
3	0xbc7dc4ee	-0.015488846
4	0xbe9f620c	-0.3112949
5	0xbe3a1570	-0.1817224
6	0xbde748e6	-0.11293201
7	0x3c86d9a5	0.016461203
8	0xbe0d2fa2	-0.13787702
9	0xbe76d611	-0.24105097
10	0x3d1c7e0a	0.038206138
11	0x3d8984ac	0.06714758
12	0xbe6f2639	-0.23354425
13	0xbd662a9e	-0.056192987
14	0xbd651404	-0.05592729
15	0xbe08df94	-0.13366538
16	0x3de681ce	0.11255227
17	0xbe1d5997	-0.15366207
18	0xbd2cb4c1	-0.042164568
19	0xbdd26bce	-0.10274468
20	0xbe06aa91	-0.13151003
21	0xbde1ab74	-0.1101903
22	0xbdd73449	-0.105080195
23	0xbe42ee8d	-0.19036312
24	0xbd9d1fb3	-0.07672062
25	0xbe529b18	-0.20566976
26	0xbe493aa7	-0.1965128
27	0xbda33f74	-0.07971087
28	0xbe2bc262	-0.1677337
29	0x3bfee073	0.0077782213
30	0xbe7dc7c5	-0.24783237
31	0x3d578f30	0.05262679
32	0xbdbe605f	-0.09295725
33	0x3d08abe2	0.033367045
34	0xbe287ef3	-0.16454677
35	0xbe2c3615	-0.16817506
36	0xbb232fba	-0.0024900273
37	0xbe37446e	-0.17897198
38	0x3d8ec3c5	0.06970934
39	0xbe6fd98b	-0.2342283
40	0xbc02ed9f	-0.007991224
41	0xbe81e2df	-0.253684
42	0x3e2f79d8	0.17136323
43	0x3d8de972	0.06929292
44	0xbb0b1bfc	-0.0021226397
45	0xbd339b5c	-0.043849334
46	0x3e0a6b26	0.13517436
47	0x3d749c28	0.059719235
48	0x3d75c96c	0.060006544
49	0xbddde3eb	-0.108344875
50	0x3e254e04	0.16143042
51	0x3d97d8c7	0.07414394
52	0xbd8c09d3	-0.06837811
53	0xbe58f993	-0.21188955
54	0x3ce4d090	0.027931482
55	0xbdb9f29d	-0.09079478
56	0xbe71f7b6	-0.2362965
57	0xbf028ece	-0.5099915
58	0x3c76bb02	0.015059235
59	0xbe2bd4bf	-0.16780375
60	0xbe08dbd2	-0.13365105
61	0xbef15a0e	-0.4713902
62	0xbe565527	-0.2093092
63	0xbe46e808	-0.1942445
64	0x3dc9ac43	0.098473094
65	0xbdfb1c87	-0.122613005
66	0x3c53e8dc	0.012933936
67	0xbe03a26f	-0.12854932
68	0xbe4faebf	-0.20281504
69	0x3c66a34e	0.014077021
70	0xbdad258d	-0.08454428
71	0x3e3ce76c	0.18447655
72	0xbe01b18a	-0.12665382
73	0xbdd01019	-0.101593204
74	0xbda5aa4f	-0.080891244
75	0xbe874532	-0.2641998
76	0xbe3ce772	-0.18447664
77	0x3d9b070f	0.07569706
78	0x38cda5c0	9.806035e-05
79	0x3d2a7ae6	0.04162111
80	0x3e50843f	0.20362948
81	0xbea03b1b	-0.31295094
82	0x3dd0683a	0.1017613
83	0x3db815cd	0.08988533
84	0xbe840573	-0.25785407
85	0x3d863daf	0.06554734
86	0xbd1a1e21	-0.03762639
87	0xbe79bf16	-0.243893
88	0xbe916d67	-0.2840378
89	0xbd59976b	-0.05312292
90	0xbdd924a4	-0.10602692
91	0x3c1ed5aa	0.009694496
92	0x3e17c0a4	0.1481958
93	0x3da2ea3c	0.07954833
94	0xbda4034d	-0.08008442
95	0xbde621f4	-0.11236945
96	0xbdad9899	-0.08476371
97	0xbdbf26aa	-0.093335465
98	0x3cbed8f8	0.023296818
99	0xbea6cacf	-0.32576606
100	0xbb6e56f2	-0.0036367741
101	0xbdd9e349	-0.10639054
102	0xbda6605f	-0.0812385
103	0xbd2ff464	-0.04295768
104	0x3e657d03	0.2241097
105	0xbc8ee178	-0.017441496
106	0xbdc5a669	-0.09650881
107	0x3e2a159c	0.16609806
108	0xbe876330	-0.26442862
109	0x3d9733e5	0.07382945
110	0x3d528f83	0.051406395
111	0xbe9a7fe6	-0.30175704
112	0xbd99b841	-0.07505847
113	0xbd1b4141	-0.037904028
114	0xbe8b6bf0	-0.27230787
115	0xbe78b2ba	-0.24286929
116	0xbc908047	-0.017639292
117	0x3a153d13	0.00056929997
118	0xbe7fcf56	-0.24981436
119	0xbeb3beb6	-0.35106438
120	0x3daef6f8	0.08543199
121	0xbe56fe26	-0.20995387
122	0xbe7d5694	-0.24740058
123	0xbe8f6b82	-0.2801171
124	0xbe86c553	-0.2632242
125	0xbe89b15a	-0.2689312
126	0xbda0bed2	-0.07848896
127	0x3d984126	0.07434301
128	0xbe2b5494	-0.16731483
129	0xbe48ec8c	-0.19621485
130	0x3d051ed8	0.032500118
131	0xbd23e5a6	-0.04001393
132	0xbeb9b7d3	-0.3627306
133	0xbd5d8134	-0.054078296
134	0xbd5fc7d5	-0.054633934
135	0xbe20db4c	-0.15708655
136	0xbd287ee7	-0.04113665
137	0xbd650c3b	-0.055919867
138	0xbcd7894b	-0.026310584
139	0xbe215f18	-0.15758932
140	0x3acf87e8	0.001583335
141	0xbeb2a8f3	-0.34894523
142	0xbe5009c6	-0.20316228
143	0xbe41d69d	-0.18929525
144	0xbe39d111	-0.18146159
145	0x3d1df6f6	0.0385656
146	0xbe7dfefc	-0.248043
147	0xbdc167b6	-0.094436094
148	0xbd025182	-0.031816013
149	0xbd84c29e	-0.06482433
150	0xbe552091	-0.20813204
151	0xbcccc76c	-0.024997436
152	0xbdb8d992	-0.09025873
153	0xbe7e801c	-0.24853557
154	0xbe8ef662	-0.2792235
155	0x3c81b9e8	0.015835717
156	0x3c32fdeb	0.010924797
157	0x3cec03d4	0.02881042
158	0x3da3709e	0.079804644
159	0xbe4a58e8	-0.19760478
160	0xbe59fa42	-0.21286872
161	0xbda4e7d2	-0.08052029
162	0xbebe9202	-0.3722077
163	0x3bced7eb	0.0063123605
164	0xbda8d9fa	-0.08244701
165	0xbd927c91	-0.071526654
166	0xbdaa3e38	-0.083126485
167	0xbe522448	-0.20521653
168	0x3cbb3871	0.022854062
169	0x3ce7f6e7	0.028315974
170	0xbe0ac4c4	-0.13551623
171	0xbd79d76e	-0.060996465
172	0x3d04fee2	0.032469638
173	0xbde233a1	-0.11045004
174	0xbec164ef	-0.3777232
175	0xbea5ff1e	-0.324212
176	0x3cae0d1b	0.021246484
177	0xbd8e34c2	-0.069436565
178	0xbe7bf95b	-0.2460684
179	0xbe5a63d4	-0.21327144
180	0xbdc91a38	-0.09819454
181	0xbe33156c	-0.1748864
182	0xbec4a3f6	-0.38406342
183	0xbe51fa26	-0.2050558
184	0x3ca6a0fa	0.020340431
185	0xbca0227d	-0.019547695
186	0xbe62f97e	-0.22165486
187	0xbe4c288b	-0.19937341
188	0xbe8d8094	-0.2763716
189	0xbe3a40ac	-0.18188733
190	0xbe812ae4	-0.25228035
191	0xbe2c258e	-0.16811201
192	0xbdd8b7e6	-0.10581951
193	0xbe630f86	-0.2217389
194	0xbe03bf6a	-0.12865987
195	0x3d91fad7	0.07127922
196	0xbe75f26b	-0.24018256
197	0xbe8e3428	-0.27774167
198	0xbe8d0a91	-0.27547124
199	0x3d023cd0	0.031796277
200	0x3d6108f3	0.054940175
201	0xbf051325	-0.5198234
202	0xbddedb92	-0.108817235
203	0x3c7f8b5f	0.0155971935
204	0xbd674a61	-0.056467418
205	0xbe610b74	-0.21977025
206	0x3dcbb844	0.09947255
207	0xbe1b4895	-0.15164407
208	0xbe1dbe62	-0.15404657
209	0x3e062513	0.1310008
210	0xbd46bc5b	-0.048519474
211	0xbe9fecb6	-0.31235284
212	0x3da17f11	0.07885564
213	0x3ddf32fe	0.10898398
214	0xbe772069	-0.24133457
215	0xbd4ad955	-0.04952367
216	0xbe19626b	-0.1497895
217	0xbe0993cb	-0.13435285
218	0xbe9207cd	-0.28521577
219	0xbad8eb89	-0.0016549687
220	0xbe990481	-0.2988625
221	0xbe53d86f	-0.20688032
222	0x3b0530c4	0.0020323256
223	0xbe4d6eb7	-0.20061766
224	0xbcd63419	-0.026147889
225	0xbe8400bd	-0.25781813
226	0xbdc5967d	-0.09647844
227	0xbdcdb41b	-0.10044118
228	0xbe04dd81	-0.12975122
229	0xbe232824	-0.15933281
230	0xbe4f8211	-0.2026446
231	0xbdf2101b	-0.11819478
232	0xbe95d251	-0.2926202
233	0xbc001f18	-0.007819913
234	0xbdac925b	-0.084263526
235	0x3d7ded64	0.06199397
236	0xbc86dc58	-0.01646249
237	0xbe26f226	-0.1630331
238	0x3b5b487c	0.0033459952
239	0x3d015b79	0.031581376
240	0x3e36c5dd	0.17848916
241	0xbdc1d0c4	-0.09463647
242	0x3d995930	0.07487714
243	0xbc431440	-0.011906683
244	0x3deaae68	0.114590466
245	0x3d7a4574	0.061101392
246	0x3dc7803e	0.09741257
247	0xbd734bb3	-0.059398364
248	0xbe1125c6	-0.14174566
249	0xbe8e19dc	-0.27754104
250	0xbe7601c5	-0.24024113
251	0xbe42d783	-0.19027524
252	0xbeab957b	-0.33512482
253	0x3e71ed8a	0.2362577
254	0xbe759c45	-0.23985393
255	0xbe8e528a	-0.27797347

fc2.weight f4 [300, 400]
0	0x3e12367f	0.14278601
1	0x3dfd3a0b	0.123645864
2	0x3e0b0d80	0.13579369
3	0xbdb54c8e	-0.08852492
4	0xbd00ed6e	-0.03147643
5	0xbd4ff254	-0.05076821
6	0x3d950855	0.0727698
7	0x3dc868ab	0.09785589
8	0xbd26a081	-0.040680412
9	0xbdca7c00	-0.098869324
10	0x3df01326	0.11722402
11	0x3d92a5d8	0.071605384
12	0xbddba1b0	-0.10724199
13	0xbd5afb65	-0.053462405
14	0x3ebd1c04	0.36935437
15	0x3e3cfad5	0.1845506
16	0xbda5fb92	-0.08104624
17	0x3e3b24dd	0.18275781
18	0x3cd90615	0.026492158
19	0x3e2f5305	0.17121513
20	0xb71b2a80	-9.248615e-06
21	0xbe31ba84	-0.17356306
22	0xbce7fd18	-0.028318927
23	0x3dabb420	0.083839655
24	0x3d81225d	0.063053824
25	0x3d5fc89e	0.054634683
26	0xbdd21f59	-0.10259885
27	0xbc530ae8	-0.012881018
28	0xbd6192f0	-0.05507177
29	0x3e045a90	0.12925172
30	0x3c9a6e76	0.0188515
31	0xbd2b96a7	-0.04189172
32	0x3d9f0acf	0.077657335
33	0x3e20a180	0.15686607
34	0x3dbb4056	0.091431305
35	0xbd4070f7	-0.04698273
36	0xbe33cb0c	-0.17557925
37	0x3de53e00	0.11193466
38	0x3cfb65ad	0.030688131
39	0x3ce09e79	0.027419316
40	0x3d997885	0.074936904
41	0xbdbf690d	-0.09346209
42	0x3d30763f	0.04308152
43	0xbdade0c6	-0.08490138
44	0x3db54eaf	0.08852898
45	0xbd46b269	-0.04850999
46	0xbcb5c4a9	-0.022188501
47	0xbda5a2fa	-0.08087726
48	0xbe042a6b	-0.12906806
49	0x3d23f92c	0.04003255
50	0xbc48ce4d	-0.012256217
51	0x3d1555ba	0.03645871
52	0xbd7696bb	-0.06020234
53	0x3d64787f	0.055778977
54	0x3ca6437c	0.020295851
55	0xbdb83aed	-0.08995614
56	0xbd4f9360	-0.050677657
57	0x3eb53531	0.35392144
58	0xbd5a8118	-0.05334577
59	0x3e051d97	0.12999569
60	0x3dc57b8a	0.09642704
61	0x3ca27b5a	0.01983421
62	0x3e130be2	0.14360002
63	0x3e7708ed	0.24124499
64	0xbd9edbfb	-0.07756802
65	0xbe036e14	-0.1283496
66	0x3d0a6fb1	0.033797923
67	0x3e20cc85	0.15703018
68	0x3d385d4a	0.045010842
69	0xbdfceea4	-0.123502046
70	0xbbea3ba5	-0.0071482235
71	0xbd836cfe	-0.06417273
72	0x3e71c559	0.23610438
73	0x3d204310	0.039126456
74	0x3d123c16	0.035701834
75	0x3da41348	0.0801149
76	0xbd93af78	-0.072112024
77	0x3ded4ee2	0.11587311
78	0x3d278497	0.040897932
79	0x3d8b9988	0.06816393
80	0xbd84f094	-0.06491199
81	0x3db336b6	0.0875067
82	0x3e04c2c0	0.12964916
83	0xbd1f44e9	-0.038884077
84	0xbd27cf3b	-0.040969115
85	0x3dbe64c9	0.09296567
86	0x3e49e846	0.19717512
87	0x3d8779cd	0.066150285
88	0x3dbf407a	0.0933847
89	0xbdc73a37	-0.097279005
90	0xbd6893b8	-0.0567815
91	0xbe000d41	-0.12505056
92	0x3e1eb842	0.15499976
93	0xbd17761b	-0.03697787
94	0xbd0ffbe9	-0.03515235
95	0xbdee5266	-0.1163681
96	0x3de3f467	0.111306004
97	0x3d9f329f	0.07773327
98	0x3dba5575	0.09098331
99	0x3e242476	0.16029534
100	0xbcf49a1a	-0.029858638
101	0xbe0acb41	-0.13554098
102	0xbe5a7bbe	-0.21336266
103	0xbcffa946	-0.031208646
104	0xbc008188	-0.007843383
105	0xbd6f4cca	-0.05842284
106	0xbcd69a48	-0.026196614
107	0x3dda3131	0.10653914
108	0xbd2c6067	-0.042084124
109	0x3c83fe6f	0.016112534
110	0x3cf4f239	0.029900657
111	0x3e084418	0.13307226
112	0x3daa99bd	0.083301045
113	0xbca165c5	-0.019701848
114	0x3d92f551	0.07175697
115	0x3ba5ddd5	0.005061845
116	0xbe24133c	-0.16022962
117	0x3df8f5d9	0.12156267
118	0xbdba6f10	-0.09103215
119	0xbdb28c84	-0.087182075
120	0x3db98c70	0.090599895
121	0x3ced1e4f	0.028945116
122	0x3d2b821b	0.041872125
123	0xbdff144f	-0.124550454
124	0x3d46a772	0.048499532
125	0xbcbb29ec	-0.022847138
126	0x3d61fe6a	0.05517427
127	0x3dad886a	0.084732845
128	0x3d59d8bc	0.05318521
129	0xbdc4bda2	-0.09606482
130	0xbdbc2c98	-0.09188193
131	0x3d32e998	0.043679804
132	0x3e0c6233	0.13709335
133	0x3e343af8	0.1760062
134	0x3be120e7	0.0068703773
135	0x3e02cf71	0.12774445
136	0x3d25bb69	0.04046193
137	0x3e297e08	0.16551983
138	0xbd086b98	-0.033305734
139	0xbdfb9977	-0.122851305
140	0xbd6baee1	-0.057539824
141	0xbe31cb36	-0.17362675
142	0x3cd2ce2b	0.025733074
143	0x3d1bc650	0.038030922
144	0xbe1efee4	-0.1552692
145	0xbd70d034	-0.058792308
146	0x3d3c8d73	0.046033334
147	0xbc7a208a	-0.015266547
148	0x3d8b1d86	0.067927405
149	0xbd571a79	-0.05251548
150	0xbd80c3da	-0.06287356
151	0x3c952ba8	0.018209293
152	0x3d3b66fc	0.04575251
153	0x3c7a546e	0.015278919
154	0xbdbf16ae	-0.09330498
155	0xbdabee0a	-0.08395012
156	0xbcb548ae	-0.022129383
157	0xbd9ecada	-0.077535346
158	0xbd0521e0	-0.03250301
159	0x3e2a009b	0.16601793
160	0xbe04a30c	-0.12952822
161	0xbd05e851	-0.032692257
162	0xbc20d9e7	-0.009817577
163	0xbc0bed37	-0.008540443
164	0x3e092f61	0.1339698
165	0xbd9796e7	-0.07401829
166	0x3c8a48c5	0.016880402
167	0x3dd1fe5f	0.102535956
168	0x3bdcaa1a	0.006734145
169	0x3da22042	0.07916309
170	0xbd96a168	-0.073550045
171	0x3be40290	0.0069583133
172	0x3cd2afcd	0.025718594
173	0xbd99e361	-0.07514072
174	0xbdaf011e	-0.08545135
175	0xbd3c55cc	-0.04598026
176	0xbbb95b35	-0.0056566247
177	0x3e44002d	0.19140692
178	0x3e1682cf	0.14698337
179	0xbd962e03	-0.07332995
180	0x3e3f3b8c	0.18675059
181	0xbccf795d	-0.025326425
182	0xbc90ed7d	-0.017691368
183	0xbd81b016	-0.06332414
184	0xbd99c735	-0.07508699
185	0x3cb34637	0.021884067
186	0x3c533930	0.0128920525
187	0xbd2cb1d2	-0.04216177
188	0x3cbab00c	0.022789024
189	0x3c442f4f	0.01197417
190	0xbdd6629a	-0.104680255
191	0x3dd0154e	0.101603135
192	0x3dccf583	0.10007765
193	0x3d2c70e5	0.042099852
194	0xbd2a37b6	-0.041557036
195	0xbcec7df9	-0.028868662
196	0x3ddd349a	0.108010486
197	0xbda59e11	-0.080867894
198	0x3be877bb	0.007094351
199	0x3d3b8f89	0.045791183
200	0x3df03033	0.11727943
201	0x3e275e41	0.16344549
202	0x3bec5e89	0.007213418
203	0xbe03def6	-0.12878022
204	0x3dd0637e	0.10175227
205	0xbd591446	-0.05299785
206	0x3e3ba94d	0.18326302
207	0xbd4a070d	-0.04932313
208	0x3e5eb241	0.21747686
209	0x3c848f66	0.016181659
210	0x3d23ceff	0.03999233
211	0x3de1421c	0.109989375
212	0xbe6a069b	-0.22854082
213	0xbba763b4	-0.005108321
214	0x3d4f18f5	0.05056091
215	0x3d95392a	0.07286294
216	0xbc121520	-0.008916169
217	0x3e19fd22	0.15037969
218	0xbdd35634	-0.10319176
219	0xbdcbb7a8	-0.09947139
220	0xbb6f6104	-0.0036526332
221	0xbe236baf	-0.15959047
222	0x3d8b6470	0.06806266
223	0x3dbbd5da	0.09171648
224	0xbc2e65ce	-0.010644389
225	0xbe1eab7b	-0.15495102
226	0xbbb6a3c0	-0.0055737197
227	0xbd8bba56	-0.0682265
228	0x3d3d9289	0.046282325
229	0x3dea3ff9	0.11437983
230	0x3c05315e	0.008129446
231	0xbd7a9779	-0.06117961
232	0x3e1edd9b	0.15514223
233	0x3c1f3343	0.009716812
234	0xbcc0207a	-0.023452986
235	0x3d7ddbdd	0.061977256
236	0xbd7d4534	-0.061833575
237	0x3e305244	0.17218882
238	0x3bf080c1	0.0073395674
239	0xbdf23348	-0.11826187
240	0xbd0df033	-0.0346529
241	0x3de96cba	0.11397691
242	0x3d03671c	0.032080755
243	0xbcff3ede	-0.031157907
244	0x3e3e5c25	0.18589838
245	0x3c2114b0	0.009831592
246	0x3def4d3f	0.116846554
247	0xbcd9f3b6	-0.026605468
248	0xbdb598ad	-0.08867011
249	0x3e0f7580	0.14009666
250	0xbdd40659	-0.10352773
251	0xbcb379d3	-0.021908676
252	0xbdde8c6b	-0.10866626
253	0x3dafbd22	0.08580996
254	0xbda8db6c	-0.082449764
255	0xbdeb6b08	-0.11495024

fc2.bias f4 [300]
0	0xbc12a770	-0.008951053
1	0xbd17a94b	-0.037026685
2	0xbdd57b1b	-0.10423871
3	0xbdb46417	-0.08808153
4	0xbd35d2f5	-0.044390637
5	0xbdb229d5	-0.08699385
6	0xbd476fe2	-0.048690684
7	0x3d412dd8	0.04716286
8	0xbdbd8ec1	-0.09255744
9	0x3c0a21c1	0.008430899
10	0xbd298f31	-0.041396324
11	0xbc322d31	-0.010875032
12	0xbce07c88	-0.027403131
13	0xbd4b3966	-0.049615286
14	0xbcd8bcf9	-0.026457297
15	0xbd9e5a29	-0.077320404
16	0xbd8666d5	-0.065625824
17	0xbe021796	-0.1270431
18	0xbce26303	-0.027635103
19	0xbddb02b3	-0.10693874
20	0x3c01ad24	0.007914815
21	0xbd27031c	-0.04077445
22	0x3b2838ff	0.0025668738
23	0xbc6e9d4a	-0.014563868
24	0xbdbe6d5e	-0.09298204
25	0xbd128a8f	-0.03577667
26	0x3c9a95f5	0.018870333
27	0xbdbddcc9	-0.09270627
28	0xbd95e548	-0.073191226
29	0xbc6a0ffa	-0.014286036
30	0xbdb5422f	-0.08850514
31	0xbdc6acb1	-0.09700907
32	0x3a9ef641	0.0012127833
33	0xbd18eee5	-0.037337203
34	0xbdcd15b2	-0.10013904
35	0xbdb704b2	-0.089364424
36	0xbd5c74d1	-0.053822342
37	0xbd7ccc3d	-0.061718214
38	0x3d1d5b6c	0.038417265
39	0xbd8c1c74	-0.068413645
40	0xbd9a57dd	-0.0753629
41	0xbd4ae56c	-0.0495352
42	0xbd7aa344	-0.06119086
43	0x3df94019	0.12170429
44	0x3cae0423	0.021242207
45	0x3cf8c4f2	0.030367348
46	0xbdb694d4	-0.089151055
47	0xbd5631ef	-0.052293714
48	0xbd64dd01	-0.05587483
49	0xbe3e3c07	-0.18577586
50	0xbcde8190	-0.02716139
51	0xbdd8a7eb	-0.10578903
52	0x3d42ea2b	0.0475866
53	0xbcfae041	-0.03062451
54	0x3c5c64fd	0.013451812
55	0xbd642104	-0.05569555
56	0x3d678ab9	0.05652878
57	0xbd0d89fa	-0.034555413
58	0xbb426151	-0.0029660056
59	0xbca5596b	-0.02018424
60	0x3d91b28f	0.071141355
61	0xbc4ce552	-0.012505846
62	0xbcddb413	-0.027063405
63	0x3ca44ac5	0.020055184
64	0xbdd44f4b	-0.103666864
65	0x3cbab036	0.022789102
66	0xbc6a49aa	-0.014299789
67	0xbcafb2f0	-0.021447629
68	0xbd72f25f	-0.059313174
69	0xbca59696	-0.020213407
70	0x3c61b91b	0.013777043
71	0xbd8bee52	-0.06832565
72	0xbdeedd07	-0.11663251
73	0xbdc4b5d7	-0.09604996
74	0xbb713041	-0.0036802443
75	0xbdb0b885	-0.08628944
76	0xbdbf7b33	-0.0934967
77	0xbd9eba70	-0.07750404
78	0xbd83595e	-0.0641353
79	0xbdcf472f	-0.10120999
80	0x3d434474	0.047672704
81	0xbc3c2736	-0.011483958
82	0xbd9ebd8d	-0.07750998
83	0xbd84a8bb	-0.06477495
84	0x3c302264	0.010750387
85	0xbe1cc9ea	-0.15311399
86	0x3d20b26d	0.03923266
87	0xbe17bdb8	-0.14818466
88	0xbda072bf	-0.07834386
89	0xbc914744	-0.017734177
90	0xbcb07e84	-0.021544702
91	0xbd83ce11	-0.064357884
92	0xbe07cbe1	-0.13261367
93	0xbdc67443	-0.09690144
94	0xbce3c95c	-0.027805977
95	0xbdc7c728	-0.09754783
96	0xbda08393	-0.07837596
97	0x3adb2386	0.0016718961
98	0xb9274982	-0.00015953745
99	0xbd0d39af	-0.03447884
100	0xbd959af9	-0.07304949
101	0x3d3872ba	0.045031287
102	0xbdad8c2d	-0.08474002
103	0x3b9c3e82	0.0047681937
104	0x3d3f2d90	0.04667431
105	0xbbdd448f	-0.0067525576
106	0xbd9bccf5	-0.07607452
107	0xba9b6e50	-0.0011858437
108	0xbd4ad62e	-0.049520664
109	0xb9ffd07f	-0.00048792732
110	0x3cd7e10b	0.026352426
111	0xbd9c737d	-0.07639215
112	0xbd4ade83	-0.04952861
113	0xbcbd723c	-0.02312576
114	0xbe137dc1	-0.1440344
115	0xbd3e5d8a	-0.046475925
116	0x3cee50f8	0.029091343
117	0xbd9e89ea	-0.07741149
118	0xbdb9f137	-0.09079211
119	0xbdb0d253	-0.08633866
120	0xbd93f422	-0.07224299
121	0x3c97113b	0.018440833
122	0xbd8388a8	-0.064225495
123	0xbd3f02a4	-0.046633378
124	0x3d81a906	0.06331067
125	0xbcbf10dc	-0.023323469
126	0x3be07b1c	0.0068506133
127	0xbe2afaae	-0.16697189
128	0xbd55cd3b	-0.052197676
129	0xbd8b570d	-0.06803713
130	0x3c003c68	0.007826902
131	0xbd813f3c	-0.06310889
132	0xbd2a7fe3	-0.04162587
133	0xbc2b1373	-0.010441649
134	0xbdf988a6	-0.12184267
135	0xbd8c0968	-0.068377316
136	0xbdd3111d	-0.103059985
137	0x3d8786a0	0.066174746
138	0xbd9b516a	-0.07583888
139	0x3da27c25	0.07933835
140	0x3d4a331e	0.049365155
141	0xbd9f0ca6	-0.077660844
142	0xbcc8008b	-0.024414321
143	0xbe061263	-0.13092951
144	0xbd629001	-0.055313114
145	0xbe237103	-0.1596108
146	0xbcd51e1e	-0.026015338
147	0xbc02ba56	-0.007978996
148	0x3bab71de	0.00523208
149	0xbdffd16f	-0.12491118
150	0xbb86dc14	-0.004115591
151	0xbd2dcda9	-0.04243246
152	0xbd783944	-0.060601488
153	0xbd72de7f	-0.05929422
154	0x3dddf537	0.10837787
155	0xbd57c2bd	-0.05267595
156	0xbd09d3e2	-0.033649333
157	0x3b6068d7	0.0034242177
158	0xbc889df6	-0.016676884
159	0x3cccc3e7	0.024995757
160	0xbdc6c6fa	-0.097059205
161	0xbdc29d9b	-0.09502717
162	0x3c6faae7	0.014628149
163	0xbacb358f	-0.0015503633
164	0xbddd781e	-0.10813926
165	0xbd39e91e	-0.045388333
166	0xbc3e8c35	-0.011630108
167	0xbcb643b0	-0.022249073
168	0xbcc0ebf9	-0.02355002
169	0xbd4f1fce	-0.05056744
170	0x3d4fd816	0.050743185
171	0x3d2392c5	0.039934892
172	0xbdc6441e	-0.09680961
173	0x3c8e5af1	0.017377349
174	0xbd40dd26	-0.047085904
175	0x3c926130	0.017868608
176	0xbad4740d	-0.0016208902
177	0xbe0115a2	-0.12605909
178	0xbd8dc760	-0.069227934
179	0xbce6b5b0	-0.028162807
180	0xbde404b6	-0.11133711
181	0xbcdfa9b1	-0.027302595
182	0xbdd8aea7	-0.10580187
183	0xbda91e48	-0.08257729
184	0xbda74b5b	-0.0816867
185	0x3b0b443c	0.0021250388
186	0xbcba9c66	-0.022779655
187	0xbbd08323	-0.006363289
188	0xbda2a4a6	-0.079415604
189	0xbda9ce20	-0.08291268
190	0xbd36a8fb	-0.044594746
191	0xbda0ddb5	-0.07854787
192	0x3d2f47a4	0.04279293
193	0xbd58248a	-0.05276922
194	0xbc29a361	-0.010353894
195	0x3d872860	0.06599498
196	0xbc8ddedb	-0.01731818
197	0xbd41e13c	-0.04733394
198	0xbd8af7f0	-0.067855716
199	0xbd08e7e2	-0.033424266
200	0xbd7e8ec9	-0.06214789
201	0xbd2013a4	-0.03908123
202	0xbd994f77	-0.0748586
203	0xbabde2c4	-0.0014487137
204	0xbd2816ea	-0.041037478
205	0xbe1c9c32	-0.15293959
206	0xbc8eea8a	-0.017445821
207	0xbd97d288	-0.074132025
208	0xbdb1ca48	-0.0868116
209	0xbd817380	-0.06320858
210	0xbd609891	-0.054833
211	0x35845fbb	9.862628e-07
212	0xbd8e1284	-0.06937125
213	0xbd5c0b7e	-0.053721897
214	0xbdd7ed64	-0.105433255
215	0xbcd14c90	-0.025549203
216	0xbc961788	-0.018321767
217	0xbcbad899	-0.02280836
218	0xbd4c3686	-0.049856685
219	0xbd76ee23	-0.0602857
220	0x3c0b1d44	0.008490864
221	0xbcba43bf	-0.022737382
222	0xbda317eb	-0.07963546
223	0xbd9845ed	-0.07435212
224	0xbe25c6e9	-0.1618916
225	0xbd945e00	-0.072444916
226	0xbdafbc82	-0.08580877
227	0x3b5c073a	0.0033573643
228	0xbd0bf3d4	-0.03416808
229	0xbd5b1420	-0.05348599
230	0x3b90466d	0.0044029267
231	0xbd846543	-0.06464627
232	0xbd46584c	-0.04842405
233	0x3d51b3f0	0.051196992
234	0xbd3d016b	-0.04614393
235	0xbcbecde0	-0.023291528
236	0xbc62130f	-0.013798489
237	0xbcaa6510	-0.020800143
238	0xbd65768d	-0.056021262
239	0xbda3fa58	-0.08006734
240	0xbd029365	-0.031878848
241	0xbd5da308	-0.054110557
242	0xbdef2b8b	-0.11678227
243	0xbca24007	-0.019805921
244	0x3a94f382	0.0011364075
245	0xbe000bea	-0.12504545
246	0xbdbb4494	-0.091439396
247	0xbd7ad5fd	-0.06123923
248	0x3d4c1d4d	0.04983263
249	0xbc6193f7	-0.013768188
250	0x3d0cf551	0.03441364
251	0x3ac764ae	0.00152125
252	0xbd1d689d	-0.038429845
253	0xbdd6507b	-0.10464569
254	0x3c1a7571	0.009427414
255	0xbc58e5d2	-0.013238387

fc3.weight f4 [2, 300]
0	0xbcd2467b	-0.025668373
1	0xbcf13073	-0.029442048
2	0x3ee5e7d3	0.4490343
3	0x3d6978c8	0.05699995
4	0xbe60c7ee	-0.21951267
5	0xbd9e7e34	-0.07738915
6	0x3e4f2fd4	0.20233089
7	0x3ccd71bd	0.025078649
8	0xbd333f35	-0.04376145
9	0xbe544569	-0.20729603
10	0x3d1c38e5	0.038140196
11	0x3e12552e	0.14290306
12	0x3bba0c51	0.0056777378
13	0xbdbfc27f	-0.09363269
14	0xbd19d787	-0.03755906
15	0x3e6baecc	0.23015898
16	0x3d8b7773	0.068098925
17	0x3eab730f	0.3348622
18	0x3e81a301	0.25319675
19	0xbc8c9542	-0.017161015
20	0xbe04fbf6	-0.1298674
21	0x3cf9b000	0.030479431
22	0x3d1f6efc	0.038924202
23	0x3db59192	0.08865656
24	0x3d9cbdc1	0.0765338
25	0x3e51f602	0.20504001
26	0xbbbdc4d7	-0.0057912874
27	0x3d799ea4	0.060942307
28	0x3d2fb288	0.04289487
29	0x3c7e3e75	0.015517821
30	0x3e7ef539	0.24898233
31	0x3e3a1841	0.18173315
32	0x3dda91d7	0.10672348
33	0xbe4961ad	-0.19666167
34	0x3ec6e53c	0.38846767
35	0x3e91487b	0.2837561
36	0xbe56b694	-0.20968086
37	0xbdaf574a	-0.08561571
38	0xbe849549	-0.25895146
39	0x3c1e0976	0.00964581
40	0xbd4fb694	-0.05071123
41	0xbde63b57	-0.11241787
42	0xbecf3353	-0.40468845
43	0xbdb93ee8	-0.090452015
44	0xbd89f272	-0.06735696
45	0xbda97fe8	-0.08276349
46	0xbda5c114	-0.08093467
47	0xbdede209	-0.116153784
48	0xbd17274a	-0.036902703
49	0xbe36cbbd	-0.17851157
50	0xbd359c66	-0.044338606
51	0x3e1918f7	0.1495093
52	0xbd3648d0	-0.044503033
53	0x3c93732c	0.017999254
54	0xbe60f197	-0.21967159
55	0xbbeea486	-0.0072827963
56	0xbdaa8125	-0.083254136
57	0x3e0ed410	0.13948083
58	0xbda181ca	-0.078860834
59	0x3d20eaff	0.03928661
60	0xbe212e4a	-0.15740314
61	0xbe02242f	-0.12709115
62	0x3de7e7af	0.11323487
63	0xbd9e5ff3	-0.077331446
64	0x3ec523c7	0.38503858
65	0x3ddd487b	0.1080484
66	0x3beddac8	0.007258747
67	0x3c91856e	0.01776382
68	0xbea97e1a	-0.3310402
69	0xbce24273	-0.027619576
70	0xbd8949f8	-0.067035615
71	0x3d3b5bfd	0.045742024
72	0x3e06ec0a	0.1317598
73	0x3e2bf676	0.16793236
74	0x3c16ed56	0.009211859
75	0xbdcaaffc	-0.098968476
76	0x3ee8ada3	0.45444974
77	0xbe2718b5	-0.16318019
78	0x3ce26307	0.02763511
79	0x3bb39902	0.0054808864
80	0x3df2ad0d	0.11849413
81	0x3dfc17ef	0.123092525
82	0x3dad9e7d	0.08477495
83	0xbb0a2431	-0.00210787
84	0x3e441128	0.1914717
85	0xbe808c07	-0.25106832
86	0x3df27a85	0.11839775
87	0x3e2eb4a9	0.17061104
88	0xbe1bdfad	-0.15222044
89	0x3b5cd1c4	0.0033694366
90	0xbce7adee	-0.028281178
91	0xba267a37	-0.0006350609
92	0x3e77bcbd	0.24193092
93	0x3eba68ad	0.36407986
94	0xbde5b29f	-0.1121571
95	0x3d2e24b8	0.042515486
96	0xbe3a2035	-0.18176349
97	0xbdc532d4	-0.09628835
98	0xbdfb4d53	-0.12270608
99	0x3df8bf59	0.12145872
100	0xbda27739	-0.07932896
101	0x3d2e6a93	0.042582106
102	0xbde19776	-0.11015217
103	0xbd9e74c2	-0.077371135
104	0x3c9ad4f8	0.01890038
105	0xbda1d735	-0.079023756
106	0x3ede4ee0	0.43419552
107	0x3b5515fd	0.0032514327
108	0x3e6d5638	0.23177421
109	0x3e386b89	0.18009771
110	0xbd952225	-0.07281903
111	0x3e906d0a	0.2820819
112	0xbd05c8a8	-0.032662064
113	0xbe04e8fd	-0.12979503
114	0x3d71150e	0.05885797
115	0x3d9723b8	0.0737986
116	0xbd3c34c3	-0.045948755
117	0xbdfcf3ee	-0.123512134
118	0xbdbe56be	-0.092938885
119	0xbec39bd9	-0.3820484
120	0xbc2975f0	-0.01034306
121	0x3e3cc465	0.18434294
122	0xbe123292	-0.14277104
123	0x3e1b9ace	0.15195772
124	0xbd9b02cb	-0.07568892
125	0xbd7b3962	-0.06133402
126	0x3e05c9b0	0.13065219
127	0x3d0e3c40	0.034725428
128	0x3d87c4b1	0.06629313
129	0x3dd65087	0.10464578
130	0xbe0659c4	-0.1312018
131	0xbd9b575c	-0.07585022
132	0x3d72657b	0.05917881
133	0x3db53c30	0.088493705
134	0xbec6fa8e	-0.38863033
135	0x3df53bce	0.119742975
136	0xbed4b2f4	-0.4154278
137	0xbd076966	-0.0330595
138	0xbdd7c518	-0.105356395
139	0x3da1dee5	0.07903842
140	0xbcf1af39	-0.029502498
141	0x3e90ce73	0.28282508
142	0x3e92a542	0.28641707
143	0x3e026353	0.12733202
144	0xbe2580f3	-0.16162471
145	0xbe59b94e	-0.21262094
146	0xbd96b921	-0.07359529
147	0xbd43beba	-0.047789313
148	0xbd27eda6	-0.040998124
149	0x3d59cfab	0.053176563
150	0x3d1d2e74	0.03837438
151	0x3d4a6837	0.049415793
152	0x3e9790fd	0.29602805
153	0x3c80e76e	0.015735354
154	0x3c0c1ff1	0.008552537
155	0x3af7d3a7	0.0018907682
156	0xbd3a49d6	-0.04548057
157	0x3d3eaf7e	0.04655408
158	0x3e0155fd	0.12630458
159	0xbe619a18	-0.22031438
160	0x3e9c85fd	0.30570975
161	0x3cfd5985	0.030926475
162	0xbd7fd358	-0.062457412
163	0xbdcaf346	-0.09909682
164	0x3cea49f5	0.028599719
165	0xbda7688d	-0.08174238
166	0x3dbcdd22	0.09221865
167	0x3db3e4bc	0.08783862
168	0x3d9e46aa	0.07728322
169	0x3e237add	0.15964837
170	0xbd8cdc29	-0.0687793
171	0x3e1c5edb	0.1527056
172	0x3d17a8b3	0.03702612
173	0xbe2ec057	-0.1706556
174	0x3d0c8f18	0.034316152
175	0xbd5b2060	-0.053497672
176	0x3e0c53c5	0.1370383
177	0x3e20f949	0.15720095
178	0x3e016485	0.12636001
179	0xbb46a8ae	-0.0030312943
180	0x3d3f9555	0.046773273
181	0x3e4d865a	0.20070782
182	0x3ec6eb18	0.38851237
183	0xbdb99d09	-0.09063155
184	0xbdceeb17	-0.101034336
185	0xbca397f0	-0.01996991
186	0xbc86ec86	-0.016470205
187	0x3c4aea12	0.012384908
188	0x3a3b0f87	0.00071357976
189	0xbdd6d905	-0.10490612
190	0x3e6fad59	0.2340597
191	0x3e3ba471	0.18324448
192	0x3dc5a0dd	0.09649823
193	0x3df41d2e	0.11919628
194	0x3e5a2f92	0.21307209
195	0xbda72175	-0.08160678
196	0xbd86672c	-0.06562647
197	0x3f14a2d7	0.58060974
198	0xbca54877	-0.020176155
199	0xbd2f31bb	-0.042772036
200	0x3dc27077	0.09494107
201	0xbe67936a	-0.22614828
202	0x3d6c55e4	0.0576991
203	0xbd1f9448	-0.03895977
204	0x3d306f75	0.043075044
205	0xbda994f4	-0.08280364
206	0x3dcc2a18	0.09968966
207	0xbdf4d673	-0.119549654
208	0xbd55458f	-0.05206829
209	0x3ea8f649	0.330004
210	0xbdb12454	-0.08649507
211	0x3db2f650	0.08738387
212	0xbd188114	-0.037232473
213	0xbe632ca4	-0.22184998
214	0xbcd4f48c	-0.025995515
215	0xbdbfaf02	-0.09359552
216	0xbed3d267	-0.41371462
217	0xbd90a116	-0.07061975
218	0xbcc242fd	-0.023713583
219	0xbed7de15	-0.42161623
220	0x3e0fa67f	0.14028357
221	0x3d611830	0.054954708
222	0x3dc44bb7	0.09584754
223	0x3e330b94	0.17484885
224	0x3e64e62d	0.2235343
225	0x3e2fbdcd	0.17162247
226	0xbdbd3f2a	-0.09240563
227	0xbcb3a0bb	-0.021927228
228	0x3e407bb8	0.18797195
229	0xbe22cc28	-0.15898192
230	0xbc26b18a	-0.010174165
231	0xbdb153a9	-0.08658535
232	0xbea568aa	-0.32306415
233	0x3d511f6c	0.051055357
234	0xbc7c6802	-0.015405657
235	0x3e2cfbea	0.16892973
236	0xbe1c8aa2	-0.15287259
237	0x3e0fe4b1	0.14052083
238	0x3ee8e2e1	0.45485595
239	0xbe1dcfb6	-0.15411267
240	0xbda42cb6	-0.080163404
241	0xbc819aea	-0.01582094
242	0x3eb9c735	0.36284795
243	0x3e8c3145	0.2738134
244	0x3d4f5c3e	0.05062508
245	0x3e022700	0.1271019
246	0xbd93d80a	-0.072189406
247	0x3eb58fd6	0.354613
248	0xbe01aeab	-0.12664287
249	0xbd92660e	-0.07148372
250	0xbc43d6da	-0.01195308
251	0xbe52bb6f	-0.20579313
252	0x3dcf1892	0.10112108
253	0x3db13aec	0.086538166
254	0x3d1ca7a3	0.03824581
255	0xbe7f4a06	-0.24930581

fc3.bias f4 [2]
0	0xbd61bad6	-0.05510982
1	0x3d909659	0.070599265

bn1.weight f4 [400]
0	0x3f744998	0.95424795
1	0x3f1399b3	0.576564
2	0x3e813719	0.2523735
3	0x3e8b0623	0.2715312
4	0x3e4c6132	0.19958952
5	0x3ea93817	0.33050606
6	0x3f5193a7	0.81865925
7	0x3e57c6a2	0.21071866
8	0x3f7c17b0	0.98473644
9	0x3f1df7da	0.61706316
10	0x3f143e95	0.5790799
11	0x3f2b64ac	0.6695049
12	0x3ec3a86a	0.38214427
13	0x3f11d4b8	0.5696521
14	0x3f065439	0.52472264
15	0x3f3672a3	0.7126867
16	0x3f16cadd	0.58903295
17	0x3f28955b	0.658529
18	0x3f2c8d9f	0.67403597
19	0x3f5313da	0.82452166
20	0x3ebffd30	0.37497854
21	0x3e5f3f33	0.21801452
22	0x3f1151cf	0.56765455
23	0x3f0d1ebf	0.5512504
24	0x3ef108c2	0.47076994
25	0x3f07f28a	0.5310446
26	0x3e932f9d	0.28747264
27	0x3e8db168	0.27674413
28	0x3edceacc	0.43147886
29	0x3e44e3ed	0.19227572
30	0x3e8a951f	0.27066895
31	0x3d4b8604	0.049688354
32	0x3ec1dcef	0.3786387
33	0x3fa0c155	1.2559
34	0x3f72af4a	0.9479872
35	0x3f180c7b	0.59394044
36	0x3e8ae2d1	0.27126172
37	0x3f1f59cf	0.6224641
38	0x3ee961b4	0.45582354
39	0x3f1a1303	0.6018526
40	0x3ec49773	0.38396797
41	0x3f384526	0.7198051
42	0x3ed7389e	0.42035383
43	0x3f02ff52	0.5117084
44	0x3f70ad36	0.940143
45	0x3f24b080	0.6433182
46	0x3f6a12ae	0.9143475
47	0x3ebb06ae	0.36528534
48	0x3f4a979b	0.7913758
49	0x3eb58210	0.35450792
50	0x3f4078e8	0.7518449
51	0x3f037a95	0.5135892
52	0x3ef180f6	0.47168702
53	0x3ef86203	0.48512277
54	0x3f103596	0.56331766
55	0x3f444a14	0.76675534
56	0x3f63152f	0.887042
57	0x3f57a15e	0.842306
58	0x3eb619f8	0.35566688
59	0x3e9d5c8c	0.3073467
60	0x3f0fd982	0.56191266
61	0x3f91965f	1.1374015
62	0x3e955d04	0.29172528
63	0x3f48b7a5	0.7840522
64	0x3e2931f7	0.16522966
65	0x3f1124e6	0.5669693
66	0x3f4400fe	0.76564014
67	0x3f93109c	1.1489444
68	0xbe9fa495	-0.31180254
69	0x3f898346	1.0743186
70	0x3ee685ea	0.45024043
71	0x3e54ec54	0.20793277
72	0x3e8169aa	0.25275928
73	0x3ea6a7d3	0.32549915
74	0x3f070373	0.5273964
75	0x3fa870c4	1.3159413
76	0x3fa4e0e4	1.2881131
77	0x3f528334	0.8223145
78	0x3ec98277	0.3935735
79	0x3f3949fe	0.7237853
80	0x3f4b8fd4	0.7951634
81	0x3eb4ee48	0.35338044
82	0x3f458e33	0.77170104
83	0x3f3c622d	0.73587304
84	0x3ea47320	0.32119083
85	0x3f1cf7ba	0.613155
86	0x3eb72350	0.3576913
87	0x3f43c58d	0.76473314
88	0x3e83191b	0.2560509
89	0x3f8232fe	1.0171812
90	0x3efebec5	0.4975492
91	0xbeda61d4	-0.42652762
92	0x3eaf7187	0.34266302
93	0x3d351a61	0.04421461
94	0xbe4cbae8	-0.19993174
95	0x3f6c692e	0.9234799
96	0x3f03b264	0.5144408
97	0x3f3fb284	0.7488177
98	0x3f7016f5	0.9378503
99	0x3f823b23	1.0174297
100	0x3f51f3bf	0.8201255
101	0x3ee690c2	0.45032316
102	0x3f980669	1.1876956
103	0x3f0dc767	0.5538239
104	0x3f16a36c	0.5884311
105	0x3f11d14c	0.56959987
106	0x3f39177c	0.7230146
107	0x3ed8933d	0.42299834
108	0x3f775d3e	0.9662665
109	0x3e61194f	0.2198231
110	0x3f926ff3	1.1440414
111	0x3f670fdd	0.9025858
112	0x3f8d6c16	1.104861
113	0x3f75fab5	0.96085674
114	0x3eed9501	0.46402743
115	0x3edbece3	0.42954168
116	0x3f26b004	0.6511233
117	0x3f6adec5	0.9174617
118	0x3f8244a6	1.01772
119	0x3e97bbe9	0.29635552
120	0x3eb7a6b7	0.3586938
121	0x3f1e98be	0.61951816
122	0x3ea252d5	0.3170382
123	0x3f5e58f7	0.868545
124	0x3f916a99	1.1360656
125	0x3f1bfc1a	0.6093155
126	0x3f0f7a1f	0.56045717
127	0x3ec0420f	0.375504
128	0x3ea050a7	0.31311533
129	0x3e89739f	0.26846024
130	0x3e654751	0.22390486
131	0x3f42420b	0.75882024
132	0x3f89d230	1.0767269
133	0x3ef26569	0.47342995
134	0x3f6614c0	0.8987541
135	0x3f245584	0.64192986
136	0x3e19dd6d	0.15025873
137	0x3f5275ed	0.8221119
138	0x3ef7c7b2	0.48394543
139	0x3f53b0a4	0.8269141
140	0x3f4d73ae	0.8025464
141	0x3eac0d30	0.3360381
142	0xbe13ca1d	-0.14432569
143	0x3ebb5d42	0.36594588
144	0x3f7a48db	0.9776742
145	0x3f256e5e	0.6462153
146	0x3f18df44	0.59715676
147	0x3f64949c	0.8928926
148	0x3f5d6605	0.86483794
149	0x3f38fee6	0.72263944
150	0x3f946560	1.1593437
151	0x3ed49441	0.4151936
152	0x3edb25d2	0.42802292
153	0x3f55f856	0.83582056
154	0x3f541a8f	0.82853025
155	0x3f1340ea	0.57520926
156	0x3f90d008	1.1313486
157	0x3f521ad0	0.8207216
158	0x3f1c131b	0.6096665
159	0x3f26f19f	0.65212435
160	0x3f3af87d	0.73035413
161	0x3f0fc62a	0.5616175
162	0x3f44487e	0.76673114
163	0x3f63d432	0.8899566
164	0x3f494fdd	0.78637487
165	0x3f19f28d	0.6013573
166	0x3f59f67f	0.8514175
167	0x3ef34619	0.47514418
168	0x3f758809	0.959107
169	0x3f51278b	0.8170096
170	0x3f4e3336	0.8054689
171	0x3e91a1cb	0.2844375
172	0x3f6b7b2f	0.9198484
173	0x3f2d7e48	0.67770815
174	0x3f66dd42	0.9018136
175	0x3f412e78	0.7546153
176	0x3f36e848	0.71448183
177	0x3f1694d6	0.58820856
178	0x3f14bf0a	0.58104
179	0x3ec93008	0.39294457
180	0x3e551372	0.20808199
181	0x3f6926c6	0.9107479
182	0x3e952db1	0.29136422
183	0x3f2dd141	0.6789742
184	0x3e4e833a	0.20167246
185	0x3ee1de84	0.44115078
186	0x3f32df5a	0.6987206
187	0x3f21ec75	0.6325143
188	0x3f636663	0.88828105
189	0x3f235a72	0.63809884
190	0x3ec22b19	0.37923506
191	0x3ed721b5	0.42017904
192	0x3f4d1012	0.80102646
193	0x3f3e8413	0.7442028
194	0x3e0a55cf	0.13509296
195	0x3f458ca0	0.771677
196	0x3f276e49	0.65402657
197	0x3f4a00b9	0.7890735
198	0x3f50a602	0.8150331
199	0x3f5abce7	0.8544449
200	0x3f927d21	1.1444436
201	0x3f23150c	0.6370399
202	0x3f1f631c	0.62260604
203	0x3f49cbec	0.78826785
204	0x3eb3f381	0.35146716
205	0x3f4cbae2	0.7997266
206	0x3f66e006	0.9018558
207	0x3ed3bd1c	0.41355217
208	0x3f0bf75d	0.5467432
209	0x3f0d9ae7	0.5531449
210	0x3ea2bafe	0.3178329
211	0x3f0634b1	0.5242415
212	0x3f326fe8	0.69702005
213	0x3da4b2c6	0.08041911
214	0x3f58d2a4	0.8469641
215	0x3ebc84d9	0.36820105
216	0x3ec073e8	0.3758843
217	0x3f0f4ae1	0.5597363
218	0x3f5f2195	0.8716062
219	0x3f5f3fac	0.8720653
220	0x3f302b90	0.6881647
221	0x3f8b1d79	1.0868369
222	0x3f5cfaac	0.86319995
223	0x3f84f943	1.0388569
224	0x3f4f325a	0.80936205
225	0x3f4a16c7	0.78941005
226	0x3e03ab7a	0.12858382
227	0x3eb47d1b	0.35251698
228	0x3f2c1676	0.6722177
229	0x3ee65045	0.44983116
230	0x3f3b8f80	0.7326584
231	0x3f900daa	1.125417
232	0x3eafcad5	0.34334436
233	0x3ed989f9	0.42488077
234	0x3f0aa415	0.5415662
235	0x3f191a88	0.5980611
236	0x3f786959	0.9703575
237	0x3e646f03	0.22307973
238	0x3e56a583	0.20961575
239	0x3f82c917	1.0217618
240	0x3f64d486	0.89386785
241	0x3f215084	0.6301348
242	0x3f54701d	0.8298357
243	0x3ef1a1de	0.47193807
244	0x3f1286f4	0.5723717
245	0x3f388c95	0.7208951
246	0x3f2a1c49	0.6644941
247	0x3f1c2734	0.6099732
248	0x3f5f125f	0.8713741
249	0x3f066906	0.52504003
250	0x3f8ce07d	1.1006008
251	0x3ebf55cb	0.37370142
252	0x3eb91ad8	0.36153293
253	0x3ededd37	0.4352815
254	0x3f88acfb	1.067779
255	0x3ead7b21	0.33883002

bn1.bias f4 [400]
0	0xbda53275	-0.080662645
1	0x3d86ba0c	0.065784544
2	0xbd60a28a	-0.05484251
3	0x3d3905be	0.04517149
4	0x3bc86b78	0.006116327
5	0x3e2e1323	0.16999488
6	0xbd8e1a92	-0.06938662
7	0xbcbf7a70	-0.023373812
8	0xbd2174f7	-0.039418187
9	0x3c826890	0.015919
10	0x3dbac49f	0.09119534
11	0x3dce923d	0.100864865
12	0x3ddb24fd	0.10700414
13	0x3d90af12	0.07064642
14	0xbc0a056c	-0.008424144
15	0x3d5db115	0.054123957
16	0x3d0770ca	0.03306655
17	0xbe270bcb	-0.16313092
18	0xbd34b363	-0.04411639
19	0x3dc42a26	0.09578352
20	0xbe1d710b	-0.15375154
21	0xbdf324bb	-0.1187224
22	0xbcd4b4ec	-0.025965177
23	0xbd6db2ef	-0.058031972
24	0x3d82b3c7	0.06381946
25	0x3db4af1a	0.088224605
26	0xbcaa4b2a	-0.020787794
27	0xbddcf70c	-0.10789308
28	0xbdb18d4f	-0.086695306
29	0x3e35532c	0.17707509
30	0x3e1c46b7	0.1526135
31	0x3e0b555f	0.13606785
32	0x3d8afa1e	0.06785987
33	0x3d9992c5	0.07498697
34	0x3db1558b	0.08658894
35	0x3e0617db	0.13095038
36	0xbc274a25	-0.0102105485
37	0x3d89ee9a	0.06734963
38	0xbc89e72d	-0.016833866
39	0x3d87f40e	0.066383466
40	0x3d6f378f	0.058402594
41	0xbdd11d41	-0.10210658
42	0x3d5a94f8	0.053364724
43	0x3e0f1d02	0.1397591
44	0x3cdbc275	0.026826123
45	0x3e1b405e	0.15161273
46	0x3bc2f79c	0.0059499275
47	0x3da98012	0.082763806
48	0x3e230daf	0.15923189
49	0xbd20daea	-0.039271273
50	0x3e0dd6ec	0.13851517
51	0x3dac9a2f	0.08427846
52	0xbd56fb25	-0.052485604
53	0xbd8f5bbb	-0.06999918
54	0x3d7f8ba5	0.062389035
55	0xbd97e0a5	-0.074158944
56	0xbce1df7d	-0.027572388
57	0xbd97a64c	-0.074047655
58	0xbcaa7820	-0.020809233
59	0x3d913fa4	0.070922166
60	0xbd6e5b35	-0.05819245
61	0x3e01e7d5	0.12686093
62	0xbc08cb04	-0.008349184
63	0xbe640915	-0.2226909
64	0xbdb17bb5	-0.08666173
65	0xba6ad5c5	-0.0008958246
66	0xbdbe7d4e	-0.09301244
67	0xbd8b4b33	-0.068014525
68	0x3e19d94d	0.150243
69	0x3d200907	0.03907111
70	0x3c14000c	0.009033214
71	0xbe3b6997	-0.18301998
72	0x3d8d41ca	0.06897314
73	0xbd14d98c	-0.03634028
74	0x3c72a67a	0.014810199
75	0xbe7a9185	-0.24469574
76	0x3db69fd3	0.08917203
77	0x3dea4469	0.114388295
78	0xbe091130	-0.13385463
79	0x3dc7a9a2	0.09749152
80	0x3d733d75	0.059384782
81	0x3e236c96	0.15959391
82	0xbde516cc	-0.11185989
83	0x3d4552eb	0.04817478
84	0x3dd4ac15	0.103843845
85	0x3cf6d7c5	0.030132184
86	0x3c2b5d51	0.01045926
87	0x3c2bb448	0.010479994
88	0x3c658f1d	0.014011172
89	0xbd7154fb	-0.058918934
90	0x3cfaf22c	0.030633055
91	0xbe0ad86e	-0.13559124
92	0x3d785dba	0.06063626
93	0x3e8dee0e	0.27720684
94	0xbe4e3f61	-0.20141365
95	0x3da441af	0.08020341
96	0x3d801a20	0.06254983
97	0xbe017328	-0.12641585
98	0x3dbd1c1f	0.09233879
99	0x3d54c73e	0.051947825
100	0x3c3942d5	0.011307438
101	0x3c3a8e22	0.011386426
102	0x3eb7ddc9	0.35911396
103	0xbe1b1d42	-0.1514788
104	0xbe58b78b	-0.21163766
105	0x3d0ed860	0.03487432
106	0x3ca2caef	0.019872157
107	0x3cb65393	0.022256648
108	0x3d3acdc8	0.045606405
109	0x3d9103ca	0.07080801
110	0x3d16e34a	0.036837853
111	0x3d967364	0.07346228
112	0x3d5a58c0	0.053307295
113	0x3e254500	0.16139603
114	0x3d90f725	0.07078389
115	0x3d768e9a	0.06019459
116	0x3df87166	0.12131004
117	0x3d57d3b2	0.052692123
118	0xbc9b7854	-0.018978275
119	0x3d5c2787	0.053748634
120	0xbcbee671	-0.023303242
121	0x3d9819ea	0.07426818
122	0x3d09564f	0.033529576
123	0x3e0088e7	0.12552224
124	0x3cff66ff	0.031177042
125	0x3da59ae1	0.080861814
126	0xbbb7d39c	-0.0056099426
127	0xbdd6dadf	-0.10490965
128	0x3d7ff730	0.062491596
129	0xbc1123b4	-0.00885861
130	0x3e0b731b	0.13618128
131	0x3d68f140	0.0568707
132	0xbd8bff2a	-0.06835778
133	0xbdd3c109	-0.10339553
134	0x3e32b883	0.17453198
135	0x3d077ce8	0.033078104
136	0xbc3c4409	-0.01149083
137	0xbd3d3601	-0.04619408
138	0xbda7cc4d	-0.08193264
139	0x3d9e401e	0.07727073
140	0xbca71129	-0.020393925
141	0xbd0916eb	-0.033469122
142	0x3bf63f58	0.0075148754
143	0x3ce1d97f	0.02756953
144	0x3dc3246e	0.09528433
145	0xbd1a6f30	-0.037703693
146	0xbd222fb5	-0.03959628
147	0x3e0a1a89	0.13486685
148	0x3d740985	0.05957939
149	0x3d87d87c	0.06633088
150	0x3cd1c3d0	0.025606066
151	0xbd924b52	-0.071432725
152	0xbd21ecb6	-0.039532386
153	0x3e1a46be	0.15066049
154	0x3dfe4273	0.12415018
155	0xbc8351e5	-0.016030261
156	0x3dfc4275	0.12317363
157	0x3dc35423	0.09537532
158	0xbd8506b6	-0.06495421
159	0xbc99de06	-0.018782627
160	0xbd95e70e	-0.07319461
161	0xbd3d9e04	-0.046293274
162	0x3de07849	0.109604426
163	0xbd70b59b	-0.058766942
164	0x3d81f85a	0.063461974
165	0x3d29f426	0.041492604
166	0x3dea3557	0.11435955
167	0x3d998b66	0.07497291
168	0x3d933b8d	0.07189093
169	0x3c91ca68	0.01779671
170	0x3dabd85a	0.08390875
171	0x3e04013f	0.128911
172	0xbca45b6e	-0.020063128
173	0x3e4b798c	0.19870585
174	0x3dc093f5	0.094032206
175	0x3e50941f	0.20369004
176	0xbcd4229f	-0.025895415
177	0xbd522dec	-0.051313326
178	0x3d579952	0.052636452
179	0xbd35cc31	-0.044384185
180	0xbd249822	-0.040184148
181	0x3cc66eb1	0.024222704
182	0x3cd0af68	0.025474265
183	0xbbb60a2d	-0.0055554123
184	0xbbcd9a21	-0.006274477
185	0xbd12de86	-0.035856746
186	0x3df13380	0.11777401
187	0x3d3d6bfb	0.046245556
188	0x3e271fb8	0.16320693
189	0x3ad0466d	0.0015890129
190	0x3d0d1674	0.03444524
191	0x3e22a48e	0.15883085
192	0x3c719d6f	0.014747008
193	0xbdadd1e0	-0.08487296
194	0x3df234ff	0.118265145
195	0x3e089b93	0.13340597
196	0x3d696098	0.056976885
197	0x3da8bdb1	0.08239306
198	0x3e09b240	0.13446903
199	0x3d533772	0.05156655
200	0x3def0ea7	0.116727166
201	0xbc9a04d1	-0.018801125
202	0x3d639a81	0.05556727
203	0x3de1444c	0.10999355
204	0xbdce584b	-0.10075434
205	0x3d83649a	0.064156726
206	0xbe2c17be	-0.16805932
207	0x3c4fa65e	0.012673942
208	0x3db842a7	0.08997088
209	0x3de2cbee	0.11074053
210	0x3e1ff86a	0.15622106
211	0xbd2ecf98	-0.042678446
212	0x3e36d0fc	0.17853159
213	0xbe462422	-0.19349721
214	0x3d00423b	0.031313162
215	0xbd98fc61	-0.074700125
216	0x3ddcbf22	0.10778643
217	0xbd2c6e68	-0.04209748
218	0x3eb20cb7	0.34775326
219	0x3e293478	0.16523921
220	0x3e583f7b	0.21117966
221	0x3e698959	0.228063
222	0xbc6c2692	-0.014413493
223	0x3bb672eb	0.0055678985
224	0x3e822b08	0.25423455
225	0xbd57b724	-0.05266489
226	0xbd1a65f1	-0.037694875
227	0x3c37e3ea	0.011223773
228	0xbd503494	-0.050831392
229	0xbd47f24d	-0.04881506
230	0x3df41e5b	0.11919852
231	0xbca3b060	-0.019981563
232	0xbd2d9aaa	-0.042383827
233	0x3d0be972	0.034158178
234	0xbda56855	-0.080765404
235	0xbd752320	-0.05984795
236	0x3e0390fa	0.12848273
237	0x3c4012b4	0.011723209
238	0xbd354eed	-0.044264723
239	0x3c833036	0.0160142
240	0xbdf59618	-0.11991519
241	0x3b06e37b	0.0020582366
242	0x3d77da34	0.06051083
243	0xbc506091	-0.012718336
244	0x3d75686e	0.059914045
245	0xbe86882d	-0.2627577
246	0x3e03a7dd	0.12857004
247	0xbd96ceaa	-0.07363637
248	0x3de254e6	0.11051349
249	0xbb6dac8f	-0.0036266183
250	0x3ca216c2	0.019786242
251	0xbd73ac07	-0.05949023
252	0x3cef6e97	0.029227538
253	0x3d69c675	0.05707403
254	0x3df31523	0.11869266
255	0x3c75ffe5	0.015014623
